models/model.pth (torch, 252871 bytes, 10 tensors)

weight f4 [6, 1, 5, 5]
000000 7b d6 3e be 05 a3 a4 3d 04 37 98 bd a3 e8 36 bd
       -0.18636505 0.08038906 -0.074323684 -0.044655453
000010 3c 70 e4 bb 30 72 49 3d 63 d7 fa bd 60 8c e5 bd
       -0.006971387 0.049181163 -0.12248113 -0.11208415
000020 4b 8a e0 bc 8a 62 0f 3d 51 0f 47 bd 73 42 1b 3e
       -0.027409693 0.035006084 -0.04859859 0.15162067
000030 66 93 1d 3e ee 6f 97 3d ff c3 0b be 6c 73 8b bb
       0.1538826 0.07394396 -0.13648985 -0.0042557027
000040 77 d5 fd bd a2 57 4b bd 8d 96 28 3d f2 c5 36 be
       -0.12394231 -0.04964412 0.0411592 -0.17848948
000050 eb 92 02 3e c0 e2 38 be 7b 96 ef 3d 11 89 3c 3e
       0.12751357 -0.18055248 0.11698624 0.18411662
000060 6a e4 2e be fd 44 46 be 55 cb 86 be 02 7f 1b 3e
       -0.1707932 -0.19362254 -0.26327005 0.15185168
000070 1a 73 fe 3d fd 00 d9 3e e3 0d e1 bd 4d a5 70 bd
       0.12424298 0.42383566 -0.10988977 -0.058751393
000080 d7 0b a7 3b d0 02 9f 3e 4e 44 55 3e 3f 7d f4 bd
       0.005097847 0.31056833 0.20826837 -0.11937951
000090 fe 9f 33 be 12 0c 91 3e 3d 62 9e 3e 5b 25 70 3e
       -0.17541501 0.2832952 0.30934325 0.2345175
0000a0 1b 73 8d be 8a 3e 65 be ea 9b 42 3e 7b 9b f8 3e
       -0.2762688 -0.22387138 0.19004789 0.48556122
0000b0 9c f6 b8 3e ab 94 c9 bd a1 23 ca 3c 25 c1 9b 3e
       0.36125648 -0.09842809 0.024675192 0.30420795
0000c0 2c e6 ac 3e 09 95 08 3e cf ea 18 be 84 09 82 bc
       0.33769357 0.13338102 -0.14933322 -0.015873678
0000d0 fe b8 6e bd 15 4f 0d 3d 19 7f bf bd 0a 10 4f be
       -0.05828189 0.034499247 -0.09350414 -0.20220962
0000e0 39 c6 72 be 5a 9c 64 be 19 57 35 be 4f d6 2c be
       -0.23708428 -0.22325268 -0.17709006 -0.16878627
0000f0 56 5e 04 be dd 1d 31 bd 89 71 d4 bd f4 5e 26 3d
       -0.12926611 -0.04324137 -0.103732176 0.040617898
000100 cb b0 e5 3d 49 68 ab 3d 69 79 80 3e 8a 39 14 3e
       0.11215361 0.083695 0.2509263 0.14475074
000110 08 cb 4a bc ef 12 c6 3d 96 1f 8d 3d a4 16 e5 3d
       -0.012377508 0.0967158 0.0689079 0.11185959
000120 e2 8a a9 3d a3 9c d1 bc 21 3b 8d 3e c8 b2 f7 bc
       0.08278443 -0.025587386 0.27584174 -0.030236617
000130 67 1c 25 3d 19 d2 0d bc cc 74 ef 3d 80 70 2c 3d
       0.04031029 -0.008656048 0.11692199 0.042099476
000140 bf c3 47 be cc 55 13 3e f3 73 30 be b9 e3 d8 3d
       -0.19508265 0.14388198 -0.17231731 0.1059031
000150 e6 38 24 3d 35 bb d0 bd 30 6b 23 be 2f aa 33 bd
       0.040093325 -0.10191957 -0.15958858 -0.04386347
000160 c4 f1 5b 3e d9 8d b9 3d c3 24 c4 3d c9 71 38 bd
       0.21478945 0.090602584 0.09577324 -0.04503039
000170 40 14 2b be 42 3e 18 be a8 c1 9c 3e e1 82 f7 3d
       -0.16706944 -0.148675 0.30616498 0.1208551
000180 e0 44 b3 bd 9b 13 31 be 69 7a 07 be 1a 6d 33 3e
       -0.08753371 -0.17292635 -0.1323029 0.17522088
000190 ec 23 80 3e ad c0 96 3d 1a 73 9a bd 98 d3 80 3c
       0.25027406 0.07360969 -0.07541485 0.015725896
0001a0 82 d0 ef bc 84 58 de 3e 4a 88 20 3f d9 4e 1d 3f
       -0.029274229 0.43426907 0.6270796 0.61448437
0001b0 7f 58 e6 3e ba 19 51 bd de 17 17 3f d1 16 5f 3f
       0.44989392 -0.051049925 0.59020793 0.8714419
0001c0 a9 57 a2 3f f3 fc 7f 3f 7e cc b0 3e d5 69 b5 3d
       1.2683002 0.99995345 0.34531015 0.088580765
0001d0 55 48 38 3f 03 37 4e 3f 93 a2 47 3f b6 52 08 3f
       0.7198537 0.8055269 0.77982444 0.53251207
0001e0 8f 18 75 be 59 fa 06 bc 26 2a 04 3e c8 76 b9 3e
       -0.2393515 -0.0082383985 0.12906703 0.36223435
0001f0 87 fd e5 3d 25 66 ad 3e 58 81 b8 3e 86 f6 9e 3e
       0.11229997 0.33866993 0.3603618 0.31047457
000200 df 50 13 3d cf ff 44 bc 61 6c 2a 3e 9e 44 22 bd
       0.035965797 -0.01202388 0.16642906 -0.03961622
000210 c9 af 05 be cb 64 6c 3d 2f 96 91 bd 30 c2 e4 bd
       -0.13055338 0.05771331 -0.07108723 -0.11169851
000220 78 f3 49 be 36 86 47 be 02 e9 61 be f1 83 41 be
       -0.19721782 -0.19484791 -0.22061542 -0.18897988
000230 38 1f 32 3b fe 90 9b bd 79 11 88 bc dc 0d 77 be
       0.0027179252 -0.075960144 -0.016609894 -0.2412638
000240 eb 3f ad bc a0 5a 80 be 97 fd f2 bd e8 6b c4 bd
       -0.021148643 -0.2506914 -0.11864775 -0.09590894
000250 65 8d 1f be e4 33 5b bc
       -0.15581281 -0.013379071

bias f4 [6]
000000 73 6a 27 be df bf 7e bc 69 72 0a 3e 0d 68 93 bd
       -0.16349201 -0.015548675 0.13520207 -0.071975805
000010 89 0f 09 3a c4 1a dd 3e
       0.000522845 0.43184483

weight f4 [16, 6, 5, 5]
000000 53 af 85 3d e8 d5 91 bd 57 47 8e bd b3 81 00 3d
       0.06527581 -0.071208775 -0.06947201 0.03137369
000010 b8 ba 4a 3c 18 2f a7 bd f5 42 9b bd ab 38 cc bc
       0.012373619 -0.08163279 -0.075811304 -0.024929365
000020 47 3d 64 3d 81 9b 9e bd 00 68 19 3d 07 b4 0a bd
       0.0557225 -0.07744504 0.037452698 -0.033863094
000030 af 41 dc bc 3a c7 d7 bb 9d e0 71 bc b0 86 5c bd
       -0.02688679 -0.006585029 -0.014763025 -0.053839386
000040 76 68 f4 3c 61 68 27 3d ce aa 10 3d 1e 6f 58 3c
       0.029834967 0.040871028 0.035319142 0.013210086
000050 b5 bb 4f bd 5f 62 8d 3c 31 0a 61 3d 33 e2 11 3d
       -0.05071612 0.017258821 0.05494136 0.03561611
000060 82 05 6f 3d 95 46 47 3c ff 6a d3 3d 7e 4d e6 3d
       0.058354862 0.012162824 0.10323142 0.11245249
000070 cd 23 58 3c d9 a4 18 3d 10 98 0d bd a8 26 0a 3d
       0.013192129 0.037266586 -0.034568846 0.03372827
000080 10 5e 2f bd b8 b8 3f bd b8 a0 04 be 54 05 c3 bd
       -0.042814314 -0.04680702 -0.12951934 -0.09522501
000090 c5 33 04 be 9d 9d 5a be ab 00 f4 bd 68 60 84 bd
       -0.12910374 -0.21349187 -0.1191419 -0.064637005
0000a0 21 34 a0 bd cf 23 84 3c 03 e6 99 bd f9 6a aa bc
       -0.07822443 0.016130356 -0.075145744 -0.020802962
0000b0 4e fd b8 bd 91 bc 48 3d 1e 03 99 3d 18 dc 0b bd
       -0.09032689 0.049007956 0.07471298 -0.034145445
0000c0 b0 15 db bd 3a b7 05 be 0c d5 2c 3d ff 0c 40 bd
       -0.10697496 -0.13058177 0.042195365 -0.046887394
0000d0 4c d6 d7 3d 3f b3 35 3d 99 ff d0 3a 25 4f 44 bd
       0.10538921 0.044360396 0.0015945315 -0.04792704
0000e0 9d 24 25 bd b4 da c3 3b f9 f7 6a bd 57 dd 82 3d
       -0.04031812 0.005976999 -0.05736539 0.063898735
0000f0 bd e7 a0 bd c0 20 fb 3b 5b ce 55 bc dd bb 33 bd
       -0.078567006 0.007663816 -0.013049687 -0.043880332
000100 6e 61 40 bd 21 2a d0 3d 35 49 cd 3d 26 36 02 3e
       -0.046967916 0.101642855 0.10023729 0.12715968
000110 94 f9 b7 3d 89 2e 3a 3c e4 c4 50 bd 48 52 cf bc
       0.0898315 0.011363634 -0.05096902 -0.02530779
000120 99 38 86 3d 7f 63 2e 3d 03 56 fd bc d7 40 2e bd
       0.06553764 0.042575356 -0.030924803 -0.042542305
000130 87 45 15 bd c9 17 90 bd 4b 1a bd bd dd 2c 60 3d
       -0.03644326 -0.07035787 -0.092335306 0.054730285
000140 74 7d 50 bd 97 c2 2a 3d e7 99 a2 bc 1e b8 54 bd
       -0.05090089 0.04168948 -0.019848777 -0.0519334
000150 a6 2d 32 bc a5 fd 48 3d f7 49 a2 bd 6a a2 80 bc
       -0.010875141 0.04907002 -0.07924264 -0.015702445
000160 f8 99 83 bd 64 22 88 3c 79 0d 36 bd 8a c0 df 3a
       -0.064258516 0.016617961 -0.044446442 0.0017070931
000170 34 00 c2 bd ec 33 43 bd 59 57 30 3d 36 4a 3d bd
       -0.09472695 -0.04765694 0.04305205 -0.04621335
000180 df 56 21 3d 72 35 1c bd 45 3d de 3c 1a 65 c1 bd
       0.039389487 -0.038136907 0.027128825 -0.09443112
000190 f4 07 82 3d 2e 3b 0b 3e e6 5c 33 3e b2 6d 11 3e
       0.06349173 0.13596794 0.17515907 0.14202002
0001a0 97 96 26 3e 17 86 fe 3c c7 b9 f2 3d 09 74 32 3d
       0.16268383 0.031069798 0.118518405 0.04356769
0001b0 31 e1 4d 3c 6e 74 04 be 3e 8b 98 be 32 a2 d5 be
       0.012565897 -0.1293504 -0.29793733 -0.41725308
0001c0 49 62 e2 be 13 34 d5 be a4 62 b9 bd f0 f4 d6 bc
       -0.4421561 -0.41641292 -0.09052017 -0.026239842
0001d0 d8 61 27 be 32 80 33 bd 58 9c 41 3d 36 24 1e 3e
       -0.16345918 -0.04382343 0.04726824 0.15443501
0001e0 cd 6f 59 3e 32 11 9f 3e b4 ff 82 3e ad 32 46 3e
       0.21234055 0.31067806 0.2558571 0.19355269
0001f0 49 38 d1 3d a8 1e 7d 3c 41 1b 4c bc 09 b4 8f bc
       0.10215814 0.015449204 -0.01245767 -0.017541902
000200 5b 40 26 bd 0c 82 cc 3d c1 cb cf 3c 7b c7 e5 bc
       -0.040588718 0.09985742 0.025365712 -0.028049221
000210 4e 94 4b 3d 63 0a b0 3c 5c 5a 03 3d b7 3f a7 3d
       0.04970198 0.021489328 0.032068595 0.081664495
000220 20 9b 02 3e 45 a2 d1 3d 56 b2 b0 3d 3c 2e 14 bd
       0.12754488 0.102360286 0.08627765 -0.036176905
000230 92 21 43 3d ac b1 8f bc aa 79 8d bd 74 d9 38 3b
       0.047639437 -0.017540775 -0.06907971 0.0028205784
000240 89 c2 d1 bc ee 6d 18 bd a3 75 13 bd 5b 1b e5 bc
       -0.025605457 -0.037214212 -0.03600086 -0.027967146
000250 04 dd fe bc 2b 9a 0e bd b8 83 1e bd 68 d7 37 bd
       -0.031111248 -0.034814995 -0.038699836 -0.04488316
000260 05 3b 65 bd 6a 42 36 bd 99 67 4e bc ce 5b 94 bd
       -0.05596449 -0.04449693 -0.012597942 -0.07244073
000270 d1 7a 8f 3d 8a 2c 3c bd 84 48 53 3d 37 1b 70 bd
       0.07005847 -0.045940913 0.05158283 -0.058619704
000280 4e c0 a2 bd d1 1e 66 bd f7 49 b1 3a 6b 8f 78 3b
       -0.079468355 -0.056181733 0.0013526072 0.003792728
000290 55 63 6d bd e1 0f 66 bd 86 1e 7b bc 4d 57 55 bd
       -0.05795606 -0.056167487 -0.015327102 -0.05208521
0002a0 07 d9 09 bd 9a 1a 92 3d 68 92 8b bd cb a5 95 3d
       -0.03365424 0.0713398 -0.06815034 0.07307013
0002b0 79 67 87 3d 89 1a 1f bd 9a 0a 9e 3d 52 eb 6d 3d
       0.06611533 -0.038843665 0.07716866 0.058085747
0002c0 04 4b a6 3d 98 af 15 bd 84 56 12 be 1a 13 54 bd
       0.08119777 -0.036544412 -0.14290816 -0.05177603
0002d0 b0 35 19 3c 99 f3 4d 3c 10 82 c2 3d a6 29 91 bd
       0.009351179 0.012570285 0.09497464 -0.07088022
0002e0 a9 d7 34 be 3f 30 e2 bc 53 23 5d bd db a8 09 3c
       -0.17660393 -0.027610896 -0.053988766 0.008402075
0002f0 aa 90 59 bb 01 86 c0 bd 6d e2 8d bd a1 bf a5 bd
       -0.0033197799 -0.09400559 -0.06927953 -0.08093191
000300 34 b6 8d 3d 51 03 ca 3d ca 11 a8 bd 94 99 8c 3d
       0.06919518 0.09863914 -0.08206518 0.0686523
000310 56 5c 51 3c bb 35 ae bd ed 06 74 3d 60 7d 96 bd
       0.012778362 -0.08506342 0.059576917 -0.07348132
000320 df 08 15 3d 7b 6c 8a 3c fc 3d 6b 3d e9 88 10 bd
       0.036385413 0.01689743 0.05743216 -0.035286818
000330 08 47 af 3b a8 15 95 3c f0 d9 f3 bc 0e 9c b7 bd
       0.0053490438 0.018198803 -0.029767007 -0.08965312
000340 bd 4b 05 bd 5d 3a 75 3d 1c 8f 9f bd 67 65 4f 3c
       -0.032542933 0.059870113 -0.07790968 0.012658454
000350 fa 96 b6 bd 59 86 ea bd 61 b5 fc ba 9e 23 79 bd
       -0.08915515 -0.11451406 -0.0019280129 -0.060824983
000360 d5 e0 97 3d d0 1e 2c 3d 76 1f 6d 3b 2d 3f 1e 3d
       0.0741593 0.042021573 0.0036182082 0.038634468
000370 3b ea 8f bc 0a a7 db 3b 56 b3 9f 3d 28 3f 55 3d
       -0.017567744 0.006703262 0.077978775 0.052062184
000380 31 98 22 3d aa 35 26 bd 04 8b 00 bc c0 89 82 bd
       0.039695922 -0.04057852 -0.007845644 -0.0637393
000390 21 53 73 3d 04 96 a8 3d 1a 3a 1e bd 3a f6 b7 bc
       0.05940545 0.08231738 -0.03862963 -0.022456277
0003a0 f3 04 06 3e 28 b9 36 3d 5a a5 9b 3c 30 70 d0 ba
       0.13087825 0.044610173 0.018999744 -0.0015902575
0003b0 c9 72 77 3d 7c 93 cb 3d 4f 55 8e bc e7 66 82 3d
       0.060412202 0.0994024 -0.017374663 0.06367283
0003c0 c7 b8 a7 bd d8 13 e8 3c 17 34 b6 bc 32 4c 31 3c
       -0.0818954 0.028329775 -0.022241635 0.010821389
0003d0 43 1b 8b 3d 2b 90 76 3d 62 50 82 bd e1 ab 9a bd
       0.06792309 0.060196083 -0.06362988 -0.075523145
0003e0 aa ce 8c 3d 18 43 85 bd 38 f3 bc bd 75 5a 21 3e
       0.068753555 -0.06506938 -0.09226078 0.15757163
0003f0 38 44 2b 3e bf b3 59 be 22 e3 bc be 32 1d 16 be
       0.16725242 -0.21259974 -0.3689204 -0.14659575

bias f4 [16]
000000 bb bc 6c bd cd 31 fa 3b 1c e6 e0 bc 9c e2 03 bc
       -0.057797175 0.0076353312 -0.027453475 -0.008049633
000010 35 43 12 3d 9f f6 b4 bb cb 99 27 3d 66 f2 e3 bb
       0.035708625 -0.0055225636 0.040918153 -0.0069563864
000020 3d d4 72 3c e6 37 df bc d4 cb 2d 3c 7d 13 80 3c
       0.014821109 -0.027248334 0.010607678 0.015634293
000030 cb fa 05 be fd 1d 27 bd 18 43 92 3d 5c 49 8e bd
       -0.13083951 -0.040800083 0.07141703 -0.06947586

weight f4 [120, 400]
000000 1b 05 02 bd c2 5c b9 3d 29 8a 8a 3d 8b 95 ec 3c
       -0.03174315 0.09050895 0.06764633 0.028879901
000010 04 9c 3a 3c 1a e2 25 bc 5f d3 b3 bd f7 5b 74 3b
       0.011389736 -0.010124708 -0.0878055 0.003728626
000020 24 04 62 bb de e3 04 bc 12 62 57 bd 10 33 c1 3b
       -0.0034487331 -0.008110968 -0.05258376 0.0058959797
000030 eb be ab 3b 32 28 5c 3b 4f b2 9f bd 52 d0 8f bd
       0.005241265 0.0033593294 -0.077976815 -0.07022156
000040 ab 32 26 bc 55 91 6f bb 3b e5 62 bd f2 25 da bc
       -0.010143916 -0.003655513 -0.055394392 -0.026629422
000050 5b 2b a7 3c 2b 72 70 3d 57 9a 00 3d 7e f1 73 bc
       0.020406416 0.05870263 0.03139719 -0.014889119
000060 62 36 8b 3c 39 b5 8b 3b 1b eb 0a be 91 aa 8e 3a
       0.016993705 0.004263547 -0.13566248 0.0010884573
000070 4e 5c 16 3d 4d 70 df bb dd ad 22 bd 85 98 b9 bd
       0.036709122 -0.006818807 -0.03971659 -0.09062294
000080 8d 5c 1b bd be 52 5a 3c 58 5f 11 3d b6 67 96 3d
       -0.03793006 0.013325391 0.035491318 0.07344
000090 18 5f aa 3d f0 c2 04 3d 69 e4 31 3d e3 08 b5 3b
       0.08318919 0.03241247 0.04343072 0.005524741
0000a0 52 5c 6f bc 47 86 8f 3d c8 34 4e 3d 0c 8b b9 3b
       -0.014609413 0.07008033 0.050343305 0.0056623276
0000b0 8d 99 c7 3c a2 a1 66 3c 3d 08 80 ba db c6 93 bc
       0.02436521 0.014076622 -0.000976808 -0.018039158
0000c0 0a c3 3f bd 42 c5 77 3d 3b 5a db 3c b1 2f 28 3d
       -0.046816863 0.060490854 0.026776424 0.041061107
0000d0 18 3e 82 3c f7 e3 ef 3a aa 57 d6 3b ff 67 64 bd
       0.01589875 0.0018302192 0.006541212 -0.05576324
0000e0 41 f9 96 3c a7 c6 34 bc ec 1e f2 bc 79 8f 95 bc
       0.0184294 -0.011033691 -0.02955576 -0.01825689
0000f0 f3 f5 01 3d 9b 7d 53 3c 2b b5 f5 3c 2c 92 d9 bc
       0.031728696 0.012908365 0.029993614 -0.026558958
000100 3d 0c 67 bc cb 6f 21 3d c8 e3 47 3c 47 1d 44 3b
       -0.014102039 0.039413255 0.012200303 0.0029924677
000110 a5 f5 93 3c e6 3c 9f bc 5f 26 58 3d 1d 42 1d bc
       0.018061468 -0.019438218 0.05277097 -0.009598282
000120 c6 3f fb 3c 04 e5 9e 3c e2 77 2d ba 81 6a 04 bb
       0.030670058 0.019396313 -0.000661729 -0.0020205083
000130 0d 87 8e 3c a8 35 2e bd a2 61 24 3d b8 3f 87 3c
       0.017398382 -0.04253164 0.040132172 0.016509876
000140 7f c8 9c bc 1e b3 9b bd fe c0 04 3b c8 a2 88 3c
       -0.019138573 -0.07602523 0.0020256634 0.016679183
000150 8e 4d b6 3c 1c 7d db 3c eb 19 2c bd 2f b5 99 bc
       0.022253778 0.026793055 -0.042016905 -0.018763153
000160 f8 da 58 bd 10 11 b6 bc 5e 4d 10 3d b8 c9 79 3c
       -0.0529432 -0.022224933 0.035230033 0.015245847
000170 97 47 7d 3c d6 20 83 bd 2f 50 aa bd 3a f0 c9 3c
       0.015458963 -0.06402747 -0.08316075 0.024650682
000180 ed c0 a7 3d 41 7e ed 3c c7 94 eb 3c f6 8d d2 3c
       0.081910945 0.028990867 0.028757466 0.025702458
000190 fc ee 2b 3b 12 88 3e bd d2 10 20 3b 62 b7 f4 3c
       0.0026234975 -0.046516486 0.0024424088 0.0298726
0001a0 0f b6 a2 3c 69 95 ac bd 90 8f 26 bd 77 32 df 3c
       0.019862203 -0.08426935 -0.040664256 0.027245743
0001b0 6d 41 47 bc 84 92 b5 3d ec 67 be bc e4 d2 46 bd
       -0.012161595 0.08865836 -0.023242913 -0.048540965
0001c0 14 9a 75 3d fc 94 6e 3c 06 25 04 bd cc 24 14 bd
       0.059961393 0.014561888 -0.03226187 -0.036167905
0001d0 c0 1c 84 bb eb 20 64 3d 41 e8 86 bc ba 54 9b bd
       -0.0040317476 0.055695456 -0.01646817 -0.0758452
0001e0 6c 30 06 3d a1 c3 55 3d cc db d0 3d c8 7c aa bb
       0.032761022 0.05218852 0.10198173 -0.0052028634
0001f0 ad 5a 8f bd 38 2c 47 bc 0a d9 a9 3c 59 4e de 3b
       -0.06999717 -0.012156539 0.020733375 0.006784242
000200 0c ba 89 3c 6d 63 09 3d 0c cc 18 3d 5a db 83 bd
       0.016812347 0.033542085 0.03730397 -0.06438322
000210 f8 4b 36 bd 4e 59 18 bc 03 b0 54 3d de a5 a8 3c
       -0.044506043 -0.009298636 0.05192567 0.020586904
000220 14 b5 2b 3d 72 1b fc 3b ad 8e 0d 3d f7 ad de bc
       0.041920736 0.0076937014 0.034559894 -0.027182562
000230 c7 90 db 3a 0e eb 93 3c 49 6d b4 3c 06 8f 7f bc
       0.0016751521 0.018056419 0.022024767 -0.015598064
000240 93 dc 9a bc e3 96 3c bd 84 57 ce 3c ee c6 4a 3b
       -0.018904006 -0.046042334 0.025188215 0.0030941325
000250 74 e3 76 3b 66 c8 22 bd 38 f1 66 bc be 1c 83 3b
       0.0037672194 -0.039741896 -0.014095597 0.004001229
000260 4f b8 97 3c d4 c0 76 bd 3d 78 8d bc f8 d0 cb 3c
       0.018520502 -0.06024249 -0.017269248 0.024879918
000270 84 ee 37 3c 69 8c 47 bc 52 11 10 3d 48 67 81 bd
       0.0112263 -0.0121794725 0.035172768 -0.063185275
000280 9d 3f 8f bd 6e 16 95 bd d4 36 37 bd 56 84 48 3c
       -0.06994555 -0.07279669 -0.044730023 0.012238583
000290 c0 59 0f 3d 31 df b3 bd 47 d8 d9 bc d9 ee 3e bc
       0.0349977 -0.08782805 -0.026592387 -0.011653625
0002a0 1f c2 5c 3c a3 e8 50 3d cf 5f 77 3c 86 8a 5e 3a
       0.013474016 0.05100311 0.015098526 0.00084892695
0002b0 2c 36 93 3d 8c f9 6c 3d 9b 11 1e bd 59 d7 90 bd
       0.07188067 0.057855174 -0.03859101 -0.07072324
0002c0 33 87 89 3c 4a a6 00 3d 64 5c ab 3d ac 45 83 3c
       0.0167881 0.031408586 0.083672315 0.016024433
0002d0 08 3f 05 bd 18 e3 b0 3d e5 b0 43 bd ad 57 54 3d
       -0.032530814 0.08637065 -0.04777612 0.051841427
0002e0 98 f7 19 bd e7 34 61 bd fc 4c 9c 3b 4a 65 89 3c
       -0.03758964 -0.054982092 0.0047699194 0.016771931
0002f0 20 78 85 3c 4e 64 b3 bc 19 c1 21 3d 63 16 be 3c
       0.016292632 -0.021898415 0.039490793 0.023204034
000300 fa 27 59 bc 55 76 83 bc 63 33 9e bc 87 20 96 3d
       -0.01325416 -0.016047636 -0.019311612 0.07330423
000310 61 5a 90 3d b9 48 75 bd c1 5c 71 bc 0f f9 3f bc
       0.070484884 -0.059883807 -0.014731587 -0.011717095
000320 e4 be 23 bd d1 54 8c 3d ec 3e 95 3c 34 09 81 bd
       -0.03997697 0.06852115 0.01821848 -0.063005835
000330 3c 9c e4 bd 9e b1 48 3b ec 45 25 3d 6d 43 42 3d
       -0.11162612 0.0030623446 0.040349886 0.047427583
000340 6d 95 0f be d8 cd 84 bd cf 2d 6f bd b2 c5 29 bd
       -0.14021845 -0.06484574 -0.058393296 -0.041448303
000350 44 92 72 bd c7 11 59 3d 23 61 ec bc 5f 2f 8d bc
       -0.05922152 0.05299547 -0.028854912 -0.017234502
000360 f8 d5 f1 3b 4b 78 f5 bc 5c ef 74 bc 53 d8 0d bd
       0.0073802434 -0.029964587 -0.014949646 -0.03463013
000370 8c 71 69 3c 0a c9 c4 3d 22 a4 15 3d db 54 1b 3c
       0.014248263 0.09608658 0.036533482 0.00948068
000380 10 b2 b3 bc 43 ca 7c bc 89 2c 80 3b 83 59 36 3d
       -0.021935493 -0.015429082 0.003911559 0.04451896
000390 b3 e0 3e bd 8a be e6 bc 70 b8 0b 3d 5c 6d 94 3c
       -0.04660101 -0.028167028 0.03411144 0.018118553
0003a0 3a 0a 2e 3d df 4a b5 3c f8 61 19 bd cd 0a 64 bc
       0.04249022 0.022130428 -0.037446946 -0.013918591
0003b0 dc 27 78 3c 66 2b 90 3c 38 58 b9 bc 79 9f 2f 3d
       0.015146222 0.017598819 -0.022625074 0.042876694
0003c0 1f 99 f0 bc 9c e7 7c 3d 3f a7 49 3d df 44 6b ba
       -0.029369889 0.061744317 0.049231764 -0.0008974801
0003d0 ba 40 c4 3b 7e 75 a7 3c 77 a6 c6 3c a9 d9 d1 3b
       0.0059891613 0.020441767 0.024249298 0.006404121
0003e0 54 b8 b6 bc 1c 56 23 bd 2b 6e 1f bd e7 6c 02 be
       -0.022304691 -0.039877042 -0.038923424 -0.12736855
0003f0 7a bb c0 bd 56 19 1b bb 0d a7 c2 bb 1b 56 cd 3b
       -0.09410758 -0.0023666224 -0.005940324 0.006266368

bias f4 [120]
000000 a4 68 50 3d 79 c3 47 ba 51 49 49 3d 9a 6e 04 bc
       0.050881043 -0.0007620375 0.049142186 -0.00808301
000010 d5 3c 49 3d 84 82 73 bc d4 bb b7 3c 57 87 dd bc
       0.04913028 -0.01486266 0.02242843 -0.027042074
000020 fb 5b 32 bd 2b f2 de 3c 43 0a 5a 3c d6 0c 47 bd
       -0.04354475 0.027215084 0.013308111 -0.048596226
000030 d2 8b 25 bc 03 ab 10 3d 2a 26 a3 3a 98 12 80 bc
       -0.010104137 0.03531934 0.0012447287 -0.015633866
000040 14 33 9e 3c 72 f0 df 3c 8e 6c 76 3c 95 45 85 3d
       0.019311465 0.027336333 0.01504053 0.06507412
000050 d2 57 c0 3c cc bd 80 bc f5 19 18 3d 46 78 03 3d
       0.023479376 -0.015715502 0.03713413 0.032097124
000060 f9 60 0d 3c 44 72 a5 bc d7 38 e4 bb 29 0c 6c 3d
       0.008629077 -0.020196088 -0.0069647836 0.057628784
000070 a3 19 41 bd 9d 1e 87 3d ce a2 22 bc bc c0 99 bc
       -0.04714359 0.06597636 -0.009926511 -0.01876866
000080 e9 0b f1 bc 9b 6f 5f bc ae 81 26 bd 50 3f 8e 3c
       -0.029424625 -0.013637449 -0.040651016 0.017364174
000090 69 44 c8 bc 37 da 69 3d 9d 57 ac bc 0f 8f 2b 3c
       -0.024446683 0.05709287 -0.021037871 0.01047112
0000a0 61 a6 6a bc 73 c3 cd bc ab ec 11 bd a5 23 fd 3b
       -0.014321894 -0.025117612 -0.035626095 0.0077251964
0000b0 5b d9 2f bd 1a ac d2 3b d6 ad 09 bd 0d fd 59 3d
       -0.042931896 0.0064292075 -0.03361305 0.053219844
0000c0 80 7b 0e 3d 40 ca d2 bc 5f 05 38 bc cb c3 e0 ba
       0.034785748 -0.025731206 -0.011231749 -0.0017148195
0000d0 42 5e 64 3c a3 98 17 3d d9 28 fe 3c f3 e4 42 3d
       0.013938488 0.0370108 0.031025337 0.047581624
0000e0 2c 07 b7 bc de fb 15 3d ac 0c 65 bc 9f 36 a8 3c
       -0.022342287 0.036617152 -0.013980072 0.020533858
0000f0 16 42 88 3d 4d 50 d3 bc b1 09 a9 3b 13 d1 77 bc
       0.0665323 -0.025795126 0.005158626 -0.015125531
000100 00 62 17 3d ee b4 0c 3d bc db 80 bc 44 87 f6 bc
       0.036958694 0.034352235 -0.015729778 -0.030093797
000110 68 1f c5 ba dd 68 05 3d 0e 4e 12 bd db 14 05 bd
       -0.0015039267 0.03257071 -0.03571897 -0.032490592
000120 9f 36 86 3d 70 57 df bc 1b 25 e5 bc a5 84 b7 bc
       0.06553387 -0.027263373 -0.027971795 -0.022402117
000130 85 bf 3f bb d9 77 d0 3b 59 2b 34 bc c3 38 4a bd
       -0.0029258442 0.006361943 -0.010996663 -0.04937054
000140 5a e3 38 bc 3c c2 ec bc 29 55 96 3c 8b b4 37 3d
       -0.011284674 -0.028901212 0.018351154 0.044849914
000150 e0 e2 39 bd 88 83 cc 3c da 39 2b 3d e8 1f cb bb
       -0.04538238 0.024965063 0.04180322 -0.006198872
000160 60 fb 26 bd 9f f4 14 3d b5 d1 25 bc df 16 26 3d
       -0.040767074 0.0363661 -0.010120799 0.040549155
000170 0a 35 4e 3c c9 81 48 3d 48 d3 47 3d 7b 46 df bc
       0.012585888 0.048951898 0.048785478 -0.027255287
000180 c8 65 d9 3b 48 33 e3 b9 7f 05 a0 3d eb c0 3e bd
       0.0066344477 -0.00043335021 0.07813548 -0.0465707
000190 c4 86 04 3d 0e 78 8b 3d f8 3a 30 bd 24 16 23 bd
       0.032355085 0.06810008 -0.043024987 -0.039816037
0001a0 24 42 46 3c 0a 41 b2 3c 4b 9d 2a 3d d3 b6 f0 3c
       0.01210073 0.021759529 0.041653913 0.029384052
0001b0 62 c4 65 3c ef 7f 11 bd f1 f0 39 bd fc fd 1a 3d
       0.014023872 -0.035522398 -0.045395795 0.037839875
0001c0 d2 9e 11 bd f9 3f 48 3d 85 bc 5e ba 66 d3 61 3d
       -0.035551853 0.048889134 -0.00084967195 0.055133246
0001d0 ba c8 f3 3c 98 e3 79 3c 05 17 01 bd 59 60 43 3d
       0.0297588 0.0152520165 -0.031516094 0.047699306

weight f4 [84, 120]
000000 62 72 59 bd ae 73 84 3d 7a 6e 0d bd 3e c4 82 3d
       -0.0530876 0.06467377 -0.034529187 0.063850865
000010 d5 b3 aa bd 60 75 f3 3c 25 53 32 3c 27 d3 cd 3d
       -0.083350815 0.029719055 0.010884081 0.1005004
000020 f4 4d 3f 3c d8 f2 c4 3c 5e 39 8f bb bc 50 bb bd
       0.0116763 0.024041578 -0.0043708524 -0.09146258
000030 c5 3d 2f bd 5b 3d 58 3d c2 5a 1c bc 19 97 8b bb
       -0.042783517 0.052792888 -0.009543123 -0.0042599556
000040 e0 19 71 3c f0 70 61 bd e3 e4 9c 3d ee 40 e0 3d
       0.014715642 -0.055039346 0.07660844 0.10949884
000050 98 b4 1b bd 2d 98 e5 bc bf f3 b8 3d d9 ba d1 3c
       -0.038014024 -0.028026665 0.09030866 0.025601791
000060 e4 2b 44 3d fb ad eb 3c 6a 2f 85 3d 0b 57 41 3d
       0.04789342 0.028769484 0.06503184 0.04720215
000070 00 00 68 3c ca 70 21 3d 6e ec 71 3c 94 80 4e bd
       0.014160156 0.039414205 0.014765842 -0.05041559
000080 a1 98 65 bd aa 2f 5c 3d ba a9 d8 bc 56 44 bf 3d
       -0.05605376 0.053756393 -0.02644812 0.09339206
000090 92 85 06 3d 07 71 53 bd 80 85 0d 3d 5c 14 28 3c
       0.032842226 -0.051621463 0.034551144 0.01025876
0000a0 3e 0c 40 bb 19 e0 a1 bd 79 07 a2 3d 57 b3 9b bd
       -0.0029304172 -0.07904071 0.079115815 -0.07602566
0000b0 53 6a 14 3c 7a 9e 4c bd 12 78 18 bc d9 f5 7c bd
       0.009058553 -0.049955823 -0.009305971 -0.061757896
0000c0 ec dc 7b bd c8 f0 be 3d 7e f9 da 3c a8 4c 06 3b
       -0.061489984 0.09323269 0.026730295 0.0020492468
0000d0 49 08 60 bd 5d 1d 85 bd 1d 21 3f bd 23 f5 03 3a
       -0.0546954 -0.06499741 -0.04666244 0.00050337816
0000e0 54 64 28 3d 4e 9d a9 3d c4 56 c4 bd db 9c 13 bd
       0.041111305 0.082819566 -0.09586862 -0.03603826
0000f0 77 08 96 bd 63 71 71 3d e5 bc 66 3d d4 cc f6 3b
       -0.07325833 0.058946025 0.056332488 0.0075317416
000100 ba f5 92 bc 15 d2 ce bc 4d 9f 80 3d d7 66 a5 ba
       -0.017939437 -0.02524666 0.06280384 -0.001261915
000110 44 65 de 3d 55 71 1d 3d 40 10 67 bd a8 d9 a8 3d
       0.10859159 0.03843816 -0.05641198 0.0824464
000120 10 79 31 bd 7e e3 0c 3d 02 8a 0d 3d 1c ad 9b bd
       -0.043328345 0.03439664 0.034555443 -0.07601377
000130 8d 37 38 3d 89 8c 63 3d a5 ab 94 3c 5b 0a 52 bc
       0.044974852 0.055553947 0.018148253 -0.012819852
000140 da ab bb bc 95 3e e5 3b 2c c9 46 3d 21 72 58 3c
       -0.022909094 0.0069959858 0.048531696 0.013210804
000150 61 d1 26 3d 9d 02 16 bd 10 ff e5 bc 48 0a 89 3d
       0.040727023 -0.036623586 -0.028075725 0.06691414
000160 b1 50 56 3d 13 eb 11 bd c4 ae b8 bd 53 25 bb bd
       0.052323047 -0.035624575 -0.09017709 -0.091379784
000170 13 81 5d 3d 41 4d b2 bb 74 5b 34 3d d3 c7 e4 3c
       0.054078173 -0.0054413383 0.04403253 0.027927315
000180 89 6f 97 3d 92 1a b3 3b aa 4e 06 3e 7f 87 93 bd
       0.073943205 0.005465814 0.13115945 -0.07203578
000190 0b e3 45 bc f6 37 68 3d ec 7d 0f 3c 68 df 8a bd
       -0.012078057 0.056693994 0.008758049 -0.067808926
0001a0 14 08 6a 3d 60 3a 5b bd 18 63 e6 bc c4 93 32 3d
       0.05713661 -0.053522468 -0.028123423 0.04359795
0001b0 66 71 9b 3d b4 0e 52 bd c6 c2 a8 3d 2f 21 e0 3c
       0.075899884 -0.051283553 0.08240275 0.027359573
0001c0 07 6f 38 bb 54 1d 7d 3d 05 47 ae 3c 11 26 ca bc
       -0.002814235 0.061795548 0.0212741 -0.024676355
0001d0 30 01 6c bb 50 36 4a bd de 6e c3 3d d4 4e 22 bd
       -0.003601145 -0.049368203 0.095426306 -0.039625958
0001e0 a5 76 24 3d 7d 26 9c bd 33 c6 93 bc 84 bb bc 3d
       0.04015221 -0.076245286 -0.018038845 0.09215453
0001f0 50 d2 a0 3d 8f d4 b2 bd 9b 38 c0 3c 4d c9 b5 bd
       0.07852614 -0.087319486 0.023464492 -0.08876286
000200 ea ab 05 3c a8 65 a5 38 90 ae 03 bd 4c 4c 00 3d
       0.008158663 7.886748e-05 -0.032148898 0.031322762
000210 c6 b7 b7 bd 45 53 78 bd 91 c3 94 3d f5 c0 9d 3d
       -0.08970599 -0.060626287 0.07263864 0.07702819
000220 db 10 62 3d ea d4 4f 3d b4 84 86 bd 99 b5 29 3d
       0.055191856 0.05074016 -0.0656828 0.04143295
000230 52 ef 96 bd bf c3 94 3d 6e cf 63 bc cb 1e 7a 3d
       -0.073698655 0.07263898 -0.013904436 0.061064523
000240 06 4b b5 bc 28 b8 07 bd ca 71 7a 3d 3e 46 37 bd
       -0.0221305 -0.03313461 0.061143674 -0.044744723
000250 80 f5 af bc 75 f3 38 bd c8 f6 d0 bc a8 50 8b 3c
       -0.021479368 -0.045154054 -0.0255083 0.017006233
000260 82 f7 7b bc 51 29 0e bd a1 b4 f8 b9 02 6c 23 3d
       -0.015378835 -0.03470737 -0.00047436825 0.039897926
000270 46 f9 94 3d 94 2c be 3d 18 34 4d bd 78 fb 3b bc
       0.07274108 0.09285846 -0.05009851 -0.011473529
000280 49 87 2c bd 10 97 89 3d 26 c9 a8 3d da 55 41 bd
       -0.042121205 0.06718266 0.08241491 -0.047201015
000290 3d e2 e4 3c 0a 4c 81 3d bb 6d a1 3d a5 58 07 bc
       0.02793991 0.063133314 0.078822576 -0.008260881
0002a0 4b f4 4d bd d4 77 de 3b a5 ce 08 bd e6 c7 bd 3c
       -0.050281804 0.006789187 -0.033400197 0.023166608
0002b0 61 cf 7b 3c 96 8b a8 3c fa 11 0f bd 5b dd 01 3d
       0.015369267 0.020574372 -0.034929253 0.03170524
0002c0 88 8a ec 3c 41 17 8a bd 07 75 be 3d f6 36 fb bc
       0.02887465 -0.067427166 0.09299665 -0.030665856
0002d0 b5 90 d5 3d 9b 34 7e bd 12 e3 a4 3c 4a 71 85 bd
       0.10427991 -0.062061887 0.020127807 -0.06515749
0002e0 5a d3 2a bc 74 23 a5 bc c9 62 83 bd 2e db 90 3d
       -0.010426367 -0.020158507 -0.06415326 0.07073055
0002f0 68 e3 1c 3b 4d f6 fe bc a7 fb b0 bd d0 7d 8b 3a
       0.0023939256 -0.031123305 -0.08641749 0.0010642353
000300 75 88 dd bc 91 7d 89 bd dc c0 bb 3c f4 af 30 bd
       -0.027042607 -0.06713403 0.022919111 -0.043136552
000310 4a c2 52 bd 91 3e 6c 3d 53 47 5e bd 72 49 16 bd
       -0.05145482 0.057676855 -0.05426724 -0.036691137
000320 79 ef 91 bd dc 72 8f 3d 6c ee e5 bb ba a6 68 bd
       -0.07125754 0.070043296 -0.0070169475 -0.056799628
000330 a6 3f 38 3b ed ca 3f bd 9c 1e a0 bd 00 c3 35 3d
       0.002811411 -0.046824384 -0.07818338 0.04437542
000340 cf 3a 57 3d 33 e1 90 3d 10 8c bb bd 9f 43 ad 3d
       0.05254632 0.07074203 -0.09157574 0.08460163
000350 da 0d 32 bd e7 e3 fd bc 75 ac 21 3d ef a9 09 bd
       -0.04347024 -0.030992461 0.03947111 -0.033609327
000360 04 4e 30 bd dc 0a 8c bd c3 6c 89 3d 5f 19 64 bd
       -0.04304315 -0.06838009 0.06710198 -0.05568826
000370 9a e3 91 bd 34 22 89 bc c5 e8 f4 3c 99 76 e7 3d
       -0.0712349 -0.016739942 0.02989615 0.113019176
000380 d9 d2 54 3d 99 76 28 3d 18 f8 5e bd 35 30 6b bd
       0.051958892 0.04112873 -0.05443582 -0.05741902
000390 c3 bd af bb 01 7f 86 3d d7 80 2e bc 22 32 b9 bc
       -0.0053631975 0.06567193 -0.010650835 -0.022606913
0003a0 51 c5 4d 3d 34 c0 2d 3c 77 28 da 3c 61 36 43 3d
       0.050237004 0.010604907 0.026630623 0.04765928
0003b0 33 62 7b bd 30 30 85 bd 2a 8d 2b 3c 10 be bc 3d
       -0.061372947 -0.06503332 0.010470668 0.09215939
0003c0 81 25 79 3d eb db c7 bc 67 cf 97 bc 19 e4 98 bd
       0.060826782 -0.024396857 -0.018531514 -0.07465381
0003d0 d3 2e 73 3d 95 ca 28 bd d0 e2 45 bd a0 1e 7a bd
       0.059370827 -0.041208822 -0.04831201 -0.061064363
0003e0 c2 30 ba bd 52 36 7d bd 1e 87 93 bd b1 82 a2 bd
       -0.09091331 -0.061819382 -0.07203506 -0.07935084
0003f0 ad 56 2e 3d 6e fb ac 3d bc ee b4 3d bc 75 59 3d
       0.04256313 0.08446394 0.088345975 0.053090796

bias f4 [84]
000000 ae 66 9b bc 7e c2 a4 bd d8 0c 71 bc d1 ea 67 3d
       -0.01896986 -0.08044909 -0.014712535 0.056620423
000010 7b 20 c5 3d 36 9a 88 bd a2 50 a1 bd b2 39 88 bd
       0.09625336 -0.066700384 -0.078767076 -0.066516295
000020 4e 1b a2 3d 70 a9 0d 3d 9b 88 0e bd a0 8a 13 bd
       0.07915364 0.034585416 -0.034798246 -0.036020875
000030 22 89 10 3c 8c b9 cb 3d 84 c8 7e bd 50 ed 0a 3e
       0.0088217575 0.099475 -0.062202945 0.1356709
000040 82 af af 3d 75 49 b5 3a cf d1 2b bd 05 3e 85 3d
       0.08578397 0.0013831096 -0.041948136 0.0650597
000050 54 6b bd 3c 29 6a 0a 3d c9 df 75 bd d0 6e 34 3c
       0.023122467 0.03379265 -0.06002787 0.011012748
000060 41 50 5f 3d 04 d8 a2 bd 26 d1 85 3d 38 a6 67 3d
       0.054519895 -0.07951358 0.065340325 0.056555003
000070 f1 cf 54 bd bc 92 1a 3e 0e 77 45 bc 01 f8 f5 bc
       -0.05195612 0.15095037 -0.012052311 -0.030025484
000080 f7 d6 83 bd 21 54 1c bc be 0e 0a bd c0 a5 89 bd
       -0.06437486 -0.009541542 -0.033705465 -0.067210674
000090 1c 54 a5 3d 2f 80 3a 3c 56 24 3f bd e5 66 a8 3d
       0.08072683 0.0113831 -0.046665512 0.082227506
0000a0 b1 36 16 bd c1 48 d1 3c 51 ad 09 3d 23 1f c7 bd
       -0.03667325 0.025547387 0.033612553 -0.09722736
0000b0 fe 41 ba 3a 24 bf 8b 3d ea 26 0e 3d 1e 24 93 bd
       0.0014210341 0.068235666 0.03470508 -0.07184623
0000c0 ad f5 b0 3d 7d 7b 06 3e fe c2 97 bc 84 95 ba bd
       0.08640609 0.13133045 -0.018525597 -0.09110549
0000d0 3b 4d c2 3d fe 24 89 bd 2d 23 e1 3d 17 82 42 3d
       0.09487387 -0.06696509 0.109930374 0.047487345
0000e0 2f 39 91 bd 2c f6 40 3b 86 f8 90 3d 6a ef 6f bd
       -0.07090985 0.0029443605 0.07078652 -0.058577932
0000f0 08 8f 62 3d 0a ff f0 3b 36 8b 17 3d 0f a3 08 3e
       0.055312186 0.007354622 0.036997996 0.13343452
000100 c9 59 cc bd c1 97 c2 3d 8c f9 4a 3d 4b 85 45 3d
       -0.09978063 0.09501601 0.049554393 0.04822282
000110 91 f9 df 3d a4 8b 06 3e bb 64 84 bd b0 20 e7 bb
       0.10936273 0.13139206 -0.06464525 -0.007053457
000120 91 aa 37 bd 4e a1 1a 3d 81 bf 93 3d b4 26 e5 3d
       -0.0448404 0.03775149 0.07214261 0.11189023
000130 5f ac ad bd 9f b2 58 3a 12 50 6e bd d0 ea 53 bd
       -0.08480143 0.0008266363 -0.05818183 -0.051737607
000140 9d 19 90 bd 6a c0 01 3d 78 ad a1 bd b1 c6 7c bc
       -0.07036135 0.03167764 -0.07894415 -0.015428231

weight f4 [10, 84]
000000 76 02 81 bd 6b 4f b6 bd fd 68 57 bd 38 f4 20 3d
       -0.062992975 -0.089018665 -0.05259036 0.039295405
000010 0b 5a 1d bc d9 0a 9f bd 0c 33 ea bd 8d 9d 57 bd
       -0.009603987 -0.07765741 -0.11435518 -0.052640487
000020 a7 91 84 3d ec f8 c7 3c 08 b3 4d 3c ef 91 ee bd
       0.064730935 0.024410687 0.012554891 -0.116489284
000030 2a f3 b0 be 9f 7a e3 3d d3 9f 53 3d f9 a9 15 be
       -0.3456052 0.111073725 0.051666092 -0.1461562
000040 57 41 43 be 3b b4 44 3d dc c5 fc 3c b7 5f 85 3d
       -0.19067894 0.048023444 0.030856065 0.06512397
000050 6e 83 54 be a2 37 80 3d 7d f1 3e bd 86 41 2d 3c
       -0.20753261 0.06260611 -0.04661702 0.010574704
000060 b7 e3 9b 3d b2 be b6 3d 7e 7b 1b bd ac ae df bd
       0.076117925 0.08923091 -0.03795957 -0.10921988
000070 ef 02 1b 3d b4 85 a4 bc 3c 3d 0c 3e bd f5 36 3d
       0.037844595 -0.020083286 0.13695234 0.044667948
000080 31 ea dc bd b1 3d 1e bd 4e 37 80 3e c0 b5 6b bd
       -0.10786856 -0.038633052 0.25042194 -0.057546377
000090 6f 8b 25 3e 43 9f 4d 3d 47 ab 5a 3d 95 fd 15 be
       0.16166471 0.050200712 0.053386 -0.14647515
0000a0 7e 63 ad 3d a5 b1 9f bd 13 60 62 3e ca 7e fb 3d
       0.08466242 -0.07797555 0.22106962 0.122800425
0000b0 7e 9a 82 3c 04 7d 0e bd fa d7 c2 bd 4c b8 f5 bd
       0.015942808 -0.034787193 -0.095138505 -0.119980425
0000c0 9f 19 12 3d 04 2a bb be e7 53 b4 bd 36 03 b5 3d
       0.035668965 -0.36555493 -0.088050656 0.08838503
0000d0 72 d6 1d be 5d c2 94 ba 10 50 36 3e 86 4f 70 3e
       -0.15413836 -0.0011349429 0.17803979 0.23467836
0000e0 69 86 c4 bd dc c3 53 bd cf 22 14 be cf 3f 8a 3d
       -0.09595949 -0.051700458 -0.14466403 0.06750452
0000f0 b3 6d 32 3e 19 da 13 3e f7 53 ef bc ee 6c 00 be
       0.1742466 0.14438666 -0.029214842 -0.12541553
000100 ec ae d4 bd d6 13 80 3e df 77 31 3e c8 75 54 bd
       -0.10384926 0.25015134 0.17330883 -0.051870137
000110 22 d6 4a 3d db 73 86 be 96 d3 cd bc c4 7d 66 be
       0.04952062 -0.26260266 -0.025125306 -0.22508913
000120 57 e6 36 bd 4a 9f d6 bd de 98 83 be af 19 b7 3e
       -0.044653263 -0.10479601 -0.25702566 0.35761783
000130 e6 2c f3 3d 3c 28 ea 3d fc 5d 86 3d 4d 38 8b 3d
       0.11873798 0.11433455 0.06560895 0.06797848
000140 dd c9 e7 3d e3 62 04 bd 2a fa e6 bd b7 8f d7 3d
       0.11317799 -0.03232087 -0.11278184 0.10525458
000150 50 33 d2 3d b5 5e cc bd 8e 8c fc bd c8 af 96 3b
       0.10263693 -0.099790014 -0.12331496 0.0045985915
000160 c8 09 18 3e 48 5a ce bd 0b a5 1a bd 88 a4 a3 bd
       0.14847481 -0.100758135 -0.037755053 -0.07990366
000170 c3 3f 1a bd 44 57 db 3d 5f 72 fe 3d be 26 c1 bb
       -0.037658464 0.10710004 0.12424158 -0.005894511
000180 8e 52 e7 3d 79 08 8c bd e3 8d 9f 3d 7f 21 a7 3e
       0.11295043 -0.068375535 0.077907346 0.32642743
000190 74 eb 40 be f5 83 80 3d bf b9 ca 3d f9 bc f8 3d
       -0.18839818 0.06275169 0.098987095 0.12145419
0001a0 5b e7 88 bd 12 82 a3 3b 42 07 fa 3b d4 93 24 be
       -0.066847526 0.004989871 0.0076302597 -0.16072017
0001b0 7f 06 b4 ba 1a ba b5 bd d1 1e 50 3e 6d f4 4d 3e
       -0.0013734846 -0.08873387 0.20324256 0.20112772
0001c0 0a 52 b4 bd 0b cb 90 3e c6 2a 5d 3c c4 d7 3d bd
       -0.0880471 0.2827991 0.0134989675 -0.04634835
0001d0 c7 28 d6 3d 67 4d 27 be a5 d9 02 be 1f 22 48 be
       0.104569964 -0.1633812 -0.12778337 -0.19544266
0001e0 57 5b b1 bd 58 42 17 be 8a 6c 9c 3c 55 60 1f 3d
       -0.0866 -0.14771402 0.019094724 0.03891023
0001f0 0e db 09 3e 80 34 94 be 55 b9 9f 3c c4 8c 0e bd
       0.13462469 -0.28946304 0.019497553 -0.034802213
000200 1b f1 e4 3d c7 df 81 3c 7a f4 c3 bd da f1 10 be
       0.111788 0.015853776 -0.095681146 -0.14154759
000210 c3 57 47 3e f1 42 80 bd a8 42 9d bd e4 3f 15 3d
       0.19467072 -0.06262768 -0.07678729 0.036437884
000220 af 5e 33 3e ab b1 26 3e 62 c8 41 bd 79 20 99 3d
       0.17516588 0.16278712 -0.04731024 0.07476897
000230 91 95 9c 3d ba f4 d4 bd 37 81 8a 3e 0d c0 a7 3d
       0.07645715 -0.103982404 0.27051708 0.08190928
000240 0f e0 75 be 38 5a 91 be 4b f9 bc be 33 3d 66 3e
       -0.24011253 -0.28389144 -0.36908945 0.22484283
000250 65 03 fb 3d b1 6f 1a be 33 4f a1 bd 11 83 26 bc
       0.12256507 -0.1508167 -0.07876434 -0.010163085
000260 0a 6f 1a be 56 5b 9a 3e 3e 2e 81 bd b3 17 2d 3e
       -0.1508142 0.3014781 -0.06307648 0.16903572
000270 41 f9 5c 3d ed 63 24 be 8b 64 e9 bd 50 01 b8 bd
       0.053948645 -0.16053744 -0.1139613 -0.08984625
000280 9d 66 7b bd de e1 2b be a9 7c c6 bc 00 83 f6 3d
       -0.061377157 -0.1678538 -0.024229364 0.12036705
000290 df db 32 3e 0e f2 53 bd 44 8d c2 bc 6a fd 99 3e
       0.17466687 -0.051744513 -0.023749001 0.30076152
0002a0 9c f5 57 3d 4a 89 bb 3c ce ab b0 bc da 45 06 bd
       0.052724466 0.022892613 -0.021566298 -0.03278146
0002b0 c5 89 40 3e 73 b4 41 bd bf 44 51 3d 53 e7 7f 3d
       0.18802555 -0.04729123 0.051090952 0.062476467
0002c0 22 3d 84 3b 5f 5b 27 3d d2 b3 36 3d ca 99 9a 3e
       0.004035608 0.040858623 0.044605084 0.30195457
0002d0 4c b4 cf 3c e8 ed fd bd d1 21 da 3d 26 15 fa 3a
       0.025354527 -0.12398893 0.10650981 0.0019079789
0002e0 a3 99 6f 3e c6 52 1c bd 7d d6 8b bc d7 88 28 3d
       0.23398452 -0.038164876 -0.01707005 0.041146126
0002f0 d2 81 5c be 9c 04 4e bc 0f 68 cf 3c 5b 18 8a 3e
       -0.21533898 -0.012574341 0.025318174 0.26971707
000300 9b 52 1d be 3e a8 55 bb 26 1b 35 be 60 e4 db bd
       -0.15363543 -0.00326015 -0.17686138 -0.107369184
000310 3c 27 75 3d 8c d4 ba bd 90 21 d4 3d 75 93 b3 bd
       0.05985187 -0.09122571 0.10357964 -0.087683596
000320 02 f7 e6 3d b9 7f 53 bc 86 8b 47 be 14 5f 4e be
       0.11277582 -0.012908869 -0.19486818 -0.20153457
000330 a7 58 88 3e 37 56 d2 bd f4 3d cc 3d 72 09 f5 3d
       0.26630136 -0.102703504 0.09972754 0.11964692
000340 12 77 c2 3d 9f 36 6c bd 1c c4 31 3e a2 bf 58 3e
       0.09495367 -0.05766928 0.17359966 0.21166852
000350 09 9b ad 3e 9c e3 35 bc f2 91 1a 3e 85 12 88 3e
       0.33907345 -0.01110163 0.15094736 0.2657663
000360 0b 33 1e 3e 12 6e e5 bd 10 87 df bd 08 17 a4 bd
       0.15449159 -0.11202635 -0.10914433 -0.08012205
000370 63 3d 9d bd 6d 98 98 3d 28 19 89 bd f2 63 49 be
       -0.07677724 0.07450948 -0.06694251 -0.19667032
000380 92 19 c2 bd 58 9f 7c 3d d9 d3 89 3d d9 6d 17 bd
       -0.094775334 0.0616754 0.0672986 -0.036969993
000390 64 e9 28 be 47 1a 77 bd 00 4d 28 3d 62 a5 17 be
       -0.16495281 -0.060327794 0.041089058 -0.14809182
0003a0 0d b1 10 3e 83 a0 9e bd 7d a4 16 3e e8 ba 4e be
       0.1413004 -0.07745459 0.14711185 -0.20188487
0003b0 ba 75 1d bd 2b 52 90 be 09 35 71 3d 82 62 e6 3d
       -0.03844235 -0.2818769 0.05888847 0.112492576
0003c0 df 1d 78 be 76 52 cd bd be e0 a5 bc 6c 78 79 3e
       -0.24230145 -0.10025494 -0.020248767 0.24362344
0003d0 cd 82 0b be 69 64 38 be 55 b9 04 be a1 20 18 3d
       -0.13624115 -0.18007053 -0.12961324 0.037140492
0003e0 52 cf a4 bd 1c 91 8f bd ef 48 aa 3c a5 52 ad bd
       -0.08047356 -0.07010099 0.02078673 -0.08463029
0003f0 8c fc 47 3d 17 96 27 bc 18 53 4c bd b5 23 5d 3e
       0.04882483 -0.010228655 -0.049883932 0.21595652

bias f4 [10]
000000 d3 3c ed bc de 04 a6 3d 9d 09 33 3c 39 bc eb bd
       -0.028959667 0.08106397 0.010927585 -0.1151051
000010 88 6c e5 3b e4 ec 42 bd e2 43 8b bd 7e 71 83 bc
       0.0070014633 -0.047589198 -0.06800057 -0.016045328
000020 0b db 43 3d 5b 3c ab 3d
       0.047816318 0.08361121
