models/model.pth (torch, 252871 bytes, 10 tensors)

weight f4 [6, 1, 5, 5]
0.2558666 0.16900943 0.0061420044 0.38520366 0.39059916 0.17502366 0.42557335 0.47292835
0.3556257 0.37467557 -0.0927507 0.24736401 -0.035800904 -0.14033644 0.23550467 -0.19134046
-0.10195718 -0.0932412 -0.29167536 -0.13459258 -0.17464535 -0.51126003 -0.451893 -0.27894542
-0.12825963 0.09444281 0.4262829 0.51946545 0.51476204 -0.031539045 0.22758543 0.2955232
0.6533227 0.49280798 0.09300215 -0.15995291 0.20001721 0.41963568 0.10737903 0.043163653
-0.102599114 0.25783697 0.14045319 -0.06010931 0.048138466 -0.022535533 0.0060086357 0.1964201
-0.14248592 -0.075576626 0.14929737 0.17688109 -0.032132156 0.29317915 0.011073897 -0.0630987
0.12927027 0.22687009 0.31275803 0.3529869 -0.144784 0.1109417 -0.047121435 -0.030700704
-0.021328079 -0.11047722 -0.20346521 -0.30648398 -0.07057739 -0.008245986 -0.041485175 -0.029218996
-0.2620904 -0.13539886 -0.11473842 0.044334967 -0.17389944 0.047835875 -0.08440259 0.06489807
-0.113573685 0.0922546 0.08494373 0.14420623 0.05119343 0.1755148 -0.04487647 0.22182652
0.41727307 0.35449493 -0.018831369 0.29066157 0.49403358 0.75403225 0.43289444 -0.21455085
0.02003665 0.5186073 0.6305131 0.4117741 0.117830046 -0.05971059 0.24398768 0.39325404
0.3409625 -0.11115074 0.48894775 0.6139057 0.76075786 0.5506906 0.3183715 0.38400406
0.6075138 0.68892634 0.6109435 -0.19102873 -0.100502975 -0.12738651 0.32021794 0.38495713
-0.15193497 -0.41895437 -0.2102671 0.20107216 0.00324252 0.23963018 0.19160709 0.21921434
0.17839335 -0.0959928 0.28156006 0.112259075 0.22263856 -0.049311996 -0.122423075 0.098169595
0.10861911 -0.024897093 -0.19703887 -0.030317478 -0.038059037 0.20562547 -0.007928939 -0.2640845
-0.10062821 0.08513572 0.18993126 -0.15485874 -0.058785714 -0.03881597
00000000: f200 833e cf10 2d3e de42 c93b 6a39 c53e
00000010: 9dfc c73e 6739 333e c0e4 d93e aa23 f23e
00000020: 9214 b63e 7ad5 bf3e 14f4 bdbd fe4c 7d3e
00000030: f8a3 12bd 5bb4 0fbe 2328 713e c1ee 43be
00000040: edce d0bd 3ef5 bebd 7956 95be a3d2 09be
00000050: 3bd6 32be f0e1 02bf 855e e7be efd1 8ebe
00000060: 7e56 03be 3b6b c13d c141 da3e b0fb 043f
00000070: 72c7 033f 162f 01bd 280c 693e d14e 973e
00000080: 2840 273f 5451 fc3e e977 be3d b2ca 23be
00000090: 50d1 4c3e 7dda d63e 89e9 db3d 5fcc 303d
000000a0: 7c1f d2bd 3503 843e f6d2 0f3e 2e35 76bd
000000b0: d72c 453d 709c b8bc 17e4 c43b 5a22 493e
000000c0: d4e7 11be ebc7 9abd 69e1 183e 5120 353e
000000d0: 029d 03bd 941b 963e 4a6f 353c e439 81bd
000000e0: 6d5f 043e a250 683e d221 a03e b3ba b43e
000000f0: 4242 14be 6735 e33d 6802 41bd 0b80 fbbc
00000100: 39b8 aebc e141 e2bd 2f59 50be 78eb 9cbe
00000110: e18a 90bd 2c1a 07bc 5cec 29bd ad5c efbc
00000120: b730 86be 00a6 0abe fafb eabd 9598 353d
00000130: b212 32be 8def 433d 44db acbd 48e9 843d
00000140: 5299 e8bd fbef bc3d faf6 ad3d ccaa 133e
00000150: 34b0 513d 27ba 333e 64d0 37bd 7e26 633e
00000160: d1a4 d53e 5c80 b53e 3e44 9abc 98d1 943e
00000170: f8f1 fc3e 4208 413f 57a4 dd3e 38b3 5bbe
00000180: e723 a43c 73c3 043f 4e69 213f 0ed4 d23e
00000190: e150 f13d 1793 74bd e8d7 793e 9858 c93e
000001a0: a392 ae3e 00a3 e3bd 5c57 fa3e ed28 1d3f
000001b0: 07c1 423f 0ffa 0c3f 9701 a33e 2e9c c43e
000001c0: 0686 1b3f 7a5d 303f cb66 1c3f 099d 43be
000001d0: 81d4 cdbd 9c71 02be 9bf3 a33e 1a19 c53e
000001e0: d794 1bbe 3081 d6be 4250 57be dce5 4d3e
000001f0: 7580 543b 9d61 753e a634 443e b979 603e
00000200: bfac 363e e097 c4bd a428 903e 16e8 e53d
00000210: 5dfb 633e 60fb 49bd f3b8 fabd 240d c93d
00000220: b273 de3d fdf4 cbbc 8fc4 49be 5c5c f8bc
00000230: cbe3 1bbd 7c8f 523e 61e8 01bc 1536 87be
00000240: 2a16 cebd a35b ae3d 577d 423e 4a93 1ebe
00000250: 4ac9 70bd 7ffd 1ebd

bias f4 [6]
0.13541305 0.00057059014 0.10365469 -0.001284107 0.0024060623 0.0214777
00000000: b8a9 0a3e a893 153a e948 d43d 7b4f a8ba
00000010: 07af 1d3b 00f2 af3c

weight f4 [16, 6, 5, 5]
0.063918605 0.12453575 -0.0022669912 -0.08193995 -0.04839216 0.2101533 0.30728978 0.08551553
0.094895475 -0.039573044 -0.11554722 -0.051981825 0.012345808 0.1161111 -0.009621065 -0.003003965
-0.09136351 -0.085546225 -0.091361284 -0.05892108 0.16548069 0.017717956 -0.013636637 0.015056139
-0.012629404 -0.04288322 0.07403858 0.032585792 0.027159382 0.003328377 0.041599873 0.09267488
0.05314035 0.038436793 0.046422977 -0.20770173 -0.12643214 0.072107084 0.117278695 0.114570715
-0.12316617 -0.19489321 -0.14843814 -0.032413233 -0.060777415 0.23947482 0.08546447 0.015883014
0.0074800444 -0.08309104 -0.036218908 0.09229109 -0.063497156 -0.01997025 0.059806786 0.08442813
0.19011201 0.14127265 0.027731098 -0.040282622 0.0055015986 0.017170312 0.096960984 0.04184361
0.054483574 -0.03780681 -0.10981081 -0.058180146 0.055478003 0.010626043 0.13180946 -0.019184377
-0.027036475 0.055923235 -0.0004504661 -0.032066066 0.09652257 0.09336462 0.038705964 -0.054996844
-0.32096723 -0.10826436 -0.0033346093 0.022321006 0.052103512 -0.15128143 -0.2253883 -0.07219793
-0.07572716 0.012901706 0.10025068 0.05524501 -0.02999453 -0.03436537 -0.044819843 0.14765118
0.099349186 -0.06145314 -0.11930354 -0.09122122 0.13527517 0.19063683 0.03429487 -0.08722273
-0.038768463 0.14003186 0.26879925 0.20884287 0.17260501 -0.03701696 -0.44735873 -0.19354177
-0.073102385 0.07636505 0.01045662 0.011501509 -0.2013046 -0.133671 -0.015890263 0.072344065
0.21822336 0.05637482 0.062823184 0.018368144 -0.10495416 -0.13713984 -0.01994964 -0.020646913
0.011512558 0.016789561 0.054858837 -0.053632967 -0.042865068 -0.05366959 -0.01684894 -0.101446815
-0.09394415 0.018281296 0.038737986 -0.0028807956 -0.03398511 0.013859776 -0.054547064 0.020897027
-0.013199712 0.09128542 0.07575411 -0.06339765 -0.072839156 0.045413394 0.016799064 0.0543342
0.101881996 0.052439373 -0.008230185 -0.0396295 -0.018847201 0.013930078 -0.021986851 0.017413737
0.09482293 -0.023503466 -0.09109651 -0.1527093 0.0005974504 0.13803264 0.15447506 0.22240087
0.21140687 0.1212963 0.04294172 0.16660002 0.16877027 0.1758685 0.123106755 -0.1223764
-0.099004366 0.046280593 0.037145153 0.07252531 0.03692121 -0.0062263063 -0.023040429 -0.03619243
0.03004991 0.01741734 -0.13981186 -0.11246143 -0.23081811 -0.0915399 0.016341051 0.13199049
0.08935026 -0.038956836 -0.009158455 0.08646404 -0.009050651 0.124107465 0.15467988 0.004540383
-0.05280326 -0.061348666 0.10498595 -0.03810236 -0.01583062 0.023431411 0.061763313 0.08565375
0.105590306 0.034550108 0.0041335225 0.060012072 -0.034501422 -0.094586864 0.011944735 0.052286383
0.07497824 0.12017034 0.054378048 0.03446154 0.10405586 0.09555754 0.12608455 0.017819332
0.09407194 -0.03275186 -0.1435245 -0.13763914 -0.046233352 -0.02957654 0.018218648 -0.0748838
-0.23945989 -0.26904023 -0.17797479 0.063879654 0.19712615 0.09603389 0.109624706 0.078809924
0.042015933 0.034408946 0.04186072 0.07902635 0.023354959 -0.028499028 -0.16235402 -0.16855235
-0.13126753 -0.019042805 -0.14995089 -0.058609083 0.1693776 0.14191958 0.059495427 -0.06426422
00000000: c2e7 823d 990c ff3d cd91 14bb 22d0 a7bd
00000010: dc36 46bd 6d32 573e 1655 9d3e c422 af3d
00000020: 8f58 c23d 5817 22bd 05a4 ecbd e5ea 54bd
00000030: 1246 4a3c a8cb ed3d aca1 1dbc 2bde 44bb
00000040: cb1c bbbd dc32 afbd a01b bbbd 3b57 71bd
00000050: c573 293e 3f25 913c 336c 5fbc 06ae 763c
00000060: 8feb 4ebc 51a6 2fbd 8aa1 973d ae78 053d
00000070: 5a7d de3c e620 5a3b a164 2a3d 54cc bd3d
00000080: b2a9 593d e66f 1d3d 0526 3e3d c3af 54be
00000090: 6d77 01be e1ac 933d d02f f03d 0da4 ea3d
000000a0: 8c3e fcbd 1692 47be 2b00 18be bdc3 04bd
000000b0: bdf1 78bd e338 753e ff07 af3d 181d 823c
000000c0: 291b f53b a32b aabd 475a 14bd 1c03 bd3d
000000d0: cc0a 82bd a698 a3bc f6f7 743d a8e8 ac3d
000000e0: b9ac 423e c7a9 103e 542c e33c 64ff 24bd
000000f0: c146 b43b c1a8 8c3c 7b93 c63d 3564 2b3d
00000100: 2b2a 5f3d 50db 1abd 7de4 e0bd 4e4e 6ebd
00000110: e73c 633d db18 2e3c 0ff9 063e 8e28 9dbc
00000120: 997b ddbc c30f 653d 892c ecb9 b557 03bd
00000130: a0ad c53d f335 bf3d 258a 1e3d 5f44 61bd
00000140: d155 a4be b4b9 ddbd 7689 5abb 8bda b63c
00000150: 7e6a 553d 85e9 1abe 31cc 66be 82dc 93bd
00000160: d716 9bbd ad61 533c 3b50 cd3d 9748 623d
00000170: 17b7 f5bc b4c2 0cbd 0395 37bd df31 173e
00000180: 9677 cb3d 4ab6 7bbd 6a55 f4bd 31d2 babd
00000190: 9385 0a3e 4d36 433e c778 0c3d d5a1 b2bd
000001a0: aecb 1ebd 8364 0f3e 0ea0 893e e8da 553e
000001b0: 5ebf 303e 199f 17bd 340c e5be d02f 46be
000001c0: b4b6 95bd 4865 9c3d 3e52 2b3c d370 3c3c
000001d0: cb22 4ebe 0de1 08be 4c2c 82bc 2029 943d
000001e0: f275 5f3e 49e9 663d 71a9 803d ca78 963c
000001f0: 35f2 d6bd 636e 0cbe 6d6d a3bc b723 a9bc
00000200: 2b9f 3c3c 438a 893c a9b3 603d 3eae 5bbd
00000210: 4893 2fbd a5d4 5bbd ca06 8abc 59c3 cfbd
00000220: ca65 c0bd a8c2 953c b9ab 1e3d bbcb 3cbb
00000230: f933 0bbd 1d14 633c be6c 5fbd 3e30 ab3c
00000240: 9b43 58bc daf3 ba3d f924 9b3d a1d6 81bd
00000250: b22c 95bd 6503 3a3d 319e 893c 8a8d 5e3d
00000260: 82a7 d03d abca 563d e6d7 06bc 8b52 22bd
00000270: 7265 9abc fb3a 643c c51d b4bc 41a7 8e3c
00000280: 8632 c23d 578a c0bc cf90 babd d45f 1cbe
00000290: 389e 1c3a 6e58 0d3e b62e 1e3e 0ebd 633e
000002a0: 0b7b 583e 326a f83d a8e3 2f3d 3299 2a3e
000002b0: 1dd2 2c3e df16 343e 651f fc3d 7aa0 fabd
000002c0: cdc2 cabd b890 3d3d 8425 183d 2688 943d
000002d0: b23a 173d 0b06 ccbb 48bf bcbc 833e 14bd
000002e0: 3b2b f63c cfae 8e3c d72a 0fbe 2e52 e6bd
000002f0: 955b 6cbe 4579 bbbd abdd 853c 8428 073e
00000300: 45fd b63d 3491 1fbd 580d 16bc 0f14 b13d
00000310: 2f49 14bc 0e2c fe3d 6764 1e3e 7ec7 943b
00000320: 3b48 58bd bd48 7bbd e002 d73d 3811 1cbd
00000330: 37af 81bc 3bf3 bf3c 87fb 7c3d 3c6b af3d
00000340: bb3f d83d 6a84 0d3d 8072 873b 38cf 753d
00000350: 5d51 0dbd c2b6 c1bd dab3 433c 3f2a 563d
00000360: 318e 993d de1b f63d 84bb 5e3d 8b27 0d3d
00000370: 3d1b d53d acb3 c33d 4f1c 013e d9f9 913c
00000380: caa8 c03d d026 06bd 16f8 12be 46f1 0cbe
00000390: 2f5f 3dbd 804a f2bc 463f 953c ae5c 99bd
000003a0: f934 75be a4bf 89be 063f 36be 56d3 823d
000003b0: 70db 493e 6bad c43d eb82 e03d 1967 a13d
000003c0: e618 2c3d 65f0 0c3d 2576 2b3d 91d8 a13d
000003d0: e652 bf3c cb76 e9bc 2240 26be fd98 2cbe
000003e0: ff6a 06be a8ff 9bbc ba8c 19be 1410 70bd
000003f0: 5271 2d3e 5e53 113e 7ab1 733d f69c 83bd

bias f4 [16]
0.012609386 -0.07462367 -0.043953467 -0.18977818 -0.011827705 -0.026158996 0.03522417 -0.0046402607
-0.024982337 -0.12924752 0.041857444 0.041842863 0.041560702 -0.1380052 0.037970096 -0.070827976
00000000: 9997 4e3c 4bd4 98bd 8d08 34bd 3655 42be
00000010: fec8 41bc 644b d6bc 3847 103d 540d 98bb
00000020: c2a7 ccbc 7659 04be b672 2b3d 6c63 2b3d
00000030: 8e3b 2a3d 3c51 0dbe 8886 1b3d 420e 91bd

weight f4 [120, 400]
0.022725437 0.023535473 -0.04664105 -0.030672943 -0.010586459 -0.012973356 -0.0044645155 0.027173096
-0.0022737547 -0.038841892 0.0139146745 0.110507734 0.07720447 -0.03920869 -0.005124349 0.012548091
0.058813788 0.020131206 -0.012854335 0.06699399 -0.046470262 -0.046567738 -0.022025134 -0.014215417
0.009216331 0.04272608 0.022335958 0.057461385 0.018349396 -0.034489647 0.015839996 0.010283499
0.015253489 -0.039483357 0.04295563 -0.041276485 0.03940884 0.08831188 0.007140812 -0.031067874
-0.03780576 -0.04616536 -0.050707903 -0.014003092 -0.022952197 0.027364757 -0.048376456 -0.10140881
-0.02903017 0.040178563 0.035832454 0.0103630535 -0.02435478 0.04612479 0.0032553263 0.034786765
0.046688545 -0.008000016 -0.028550953 0.029175838 -0.03247816 -0.0031128193 -0.021099163 -0.011800021
-0.010574576 0.017701773 0.02275799 0.011327643 0.038364127 0.00043343718 0.031735104 0.011149177
-0.04844674 -0.045943376 -0.02905619 -0.0020595272 -0.028747045 0.090156116 0.103499666 0.032824617
0.0022476453 -0.035694145 0.0661598 0.004499465 -0.042604625 0.016051512 0.0056692073 0.09679105
0.002432036 0.026213748 -0.010794826 -0.020578641 -0.012766371 0.008587667 0.009819014 -0.008391273
-0.040862594 0.059576917 -0.005096527 0.07560947 -0.038690988 0.03486425 -0.011580732 -0.042426478
-0.020917691 0.039852004 0.045627654 -0.023639211 -0.032398213 -0.037887868 0.008352631 0.028419571
-0.014763903 0.004511475 -0.02732681 0.002753323 0.01214724 -0.019831406 -0.007243294 -0.051539417
0.008800393 0.00041719482 0.014411761 0.030469457 -0.022690963 0.05478784 -0.029439814 -0.0013357253
0.033914343 0.03997426 0.05107761 0.026519716 -0.040548783 0.0027646432 0.02696091 -0.0149387885
-9.3293325e-05 -0.008243417 -0.0425488 0.03134552 0.025534222 -0.020544222 -0.037420463 -0.03222659
-0.037775055 -0.0066975355 -0.013890901 0.007840917 0.012912826 0.037995305 0.025023777 -0.040924754
-0.08218973 0.04466041 -0.031361178 -0.041102633 0.026268616 -0.0046371473 -0.016772328 -0.04332292
-0.0023540617 0.048747208 0.0012777754 -0.0408787 -0.043084927 -0.017474899 0.027577028 -0.0018794774
-0.025241831 -0.0068949554 0.048224583 0.04899721 0.04013727 0.006892297 0.017905124 -0.015345841
-0.029950237 -0.006740448 -0.022011042 0.0050194934 -0.023120636 -0.039596293 0.06082315 0.17713897
0.035917886 0.010665411 0.03862884 -0.004006402 -0.051834594 -0.049519006 0.057543684 0.006535943
0.01931654 0.04523526 -0.04046472 0.010286611 0.054834355 -0.013449261 0.045080595 0.015391327
0.043029122 0.012509505 0.028649006 0.0037518376 -0.017545229 0.04916404 0.023771778 -0.07917816
-0.021666747 -0.0634057 0.022097556 -0.0642681 0.017010765 0.04543393 0.01862337 0.03797016
-0.05658614 -0.020996744 0.08621825 0.071812086 0.0007939833 -0.041456826 -0.015219752 0.0037352329
0.037182894 0.025729246 -0.08564981 0.024603713 0.08766628 0.02326987 -0.03469913 -0.11002178
-0.025825579 0.09267746 0.06184161 -0.032922596 -0.06988909 -0.0518758 0.093347855 -0.00056236476
0.040385954 -0.06598238 0.039905503 -0.020847287 -0.0065086307 0.016414296 -0.022822274 0.06358013
0.07048818 0.030864006 0.01580712 -0.009330425 0.023162162 0.0071868296 0.029873854 0.02694212
00000000: b22a ba3c 77cd c03c b00a 3fbd d345 fbbc
00000010: d472 2dbc 338e 54bc 124b 92bb 1d9a de3c
00000020: 4603 15bb ad18 1fbd 60fa 633c e151 e23d
00000030: 611d 9e3d 4b99 20bd 28ea a7bb 8296 4d3c
00000040: bae6 703d 33ea a43c fd9a 52bc 2534 893d
00000050: 9a57 3ebd d0bd 3ebd 0e6e b4bc c8e7 68bc
00000060: 1800 173c 8b01 2f3d e6f9 b63c a15c 6b3d
00000070: 7951 963c 0445 0dbd e1c2 813c 1f7c 283c
00000080: c5e9 793c 4db9 21bd 3ef2 2f3d 8811 29bd
00000090: 2a6b 213d dcdc b43d 79fd e93b 0e82 febc
000000a0: 36da 1abd e317 3dbd 17b3 4fbd 3a6d 65bc
000000b0: 3f06 bcbc 0e2c e03c 6426 46bd 6caf cfbd
000000c0: aed0 edbc 4792 243d 0dc5 123d ccc9 293c
000000d0: ad83 c7bc 59ed 3c3d 5057 553b 917c 0e3d
000000e0: 7d3c 3f3d 8012 03bc b0e3 e9bc 2b02 ef3c
000000f0: d207 05bd 7100 4cbb 27d8 acbc e054 41bc
00000100: fd40 2dbc 4f03 913c f76e ba3c 9497 393c
00000110: b423 1d3d f43e e339 abfc 013d 0aab 363c
00000120: 1770 46bd 1f2f 3cbd 3f07 eebc 22f9 06bb
00000130: ec7e ebbc c5a3 b83d a2f7 d33d 1b73 063d
00000140: 3b4d 133b 0634 12bd ca7e 873d 4070 933b
00000150: 3082 2ebd 767e 833c c2c4 b93b 633a c63d
00000160: cb62 1f3b 37be d63c c8dc 30bc 8a94 a8bc
00000170: 0a2a 51bc 49b3 0c3c eedf 203c 8d7b 09bc
00000180: 895f 27bd ed06 743d c400 a7bb 23d9 9a3d
00000190: 717a 1ebd d1cd 0e3d 1cbd 3dbc 63c7 2dbd
000001a0: 945b abbc db3b 233d 10e4 3a3d 05a7 c1bc
000001b0: fdb3 04bd 4f30 1bbd 79d9 083c 29d0 e83c
000001c0: 4ce4 71bc ffd4 933b 79dc dfbc 1871 343b
000001d0: 3805 473c 7975 a2bc 2759 edbb ff1a 53bd
000001e0: 862f 103c f1ba da39 4f1f 6c3c 159b f93c
000001f0: 66e2 b9bc 3769 603d c42b f1bc 8113 afba
00000200: c4e9 0a3d 0dbc 233d c236 513d e03f d93c
00000210: 7b16 26bd 042f 353b 20dd dc3c d2c1 74bc
00000220: 79a6 c3b8 660f 07bc a747 2ebd 2964 003d
00000230: 252d d13c 5b4c a8bc 3346 19bd 0700 04bd
00000240: 04ba 1abd 0077 dbbb a996 63bc 3177 003c
00000250: 5190 533c f7a0 1b3d aafe cc3c b7a0 27bd
00000260: 1753 a8bd d6ed 363d 9474 00bd 3c5b 28bd
00000270: 4831 d73c 36f3 97bb 1f66 89bc 6073 31bd
00000280: 9a46 1abb 27ab 473d 077b a73a 6c70 27bd
00000290: d279 30bd 8527 8fbc 38e9 e13c cc58 f6ba
000002a0: f5c7 cebc 14ef e1bb 2487 453d 4cb1 483d
000002b0: fa66 243d c7d8 e13b c4ad 923c 1f6d 7bbc
000002c0: 335a f5bc fade dcbb 8050 b4bc 907a a43b
000002d0: 7d67 bdbc b92f 22bd b221 793d eb63 353e
000002e0: a21e 133d fabd 2e3c 4639 1e3d 2348 83bb
000002f0: 8350 54bd 71d4 4abd edb2 6b3d 772b d63b
00000300: b83d 9e3c 9c48 393d 56be 25bd 2c89 283c
00000310: fd99 603d 4a5a 5cbc 6ea6 383d e82b 7c3c
00000320: 4e3f 303d abf4 4c3c 52b1 ea3c 64e1 753b
00000330: 03bb 8fbc 3b60 493d 08bd c23c 2928 a2bd
00000340: 767e b1bc d9da 81bd ef05 b53c fe9e 83bd
00000350: 295a 8b3c ee18 3a3d 0a90 983c 9986 1b3d
00000360: dec6 67bd 5d01 acbc 3293 b03d 3712 933d
00000370: 5123 503a a2ce 29bd 445c 79bc cfca 743b
00000380: 174d 183d 24c6 d23c 2b69 afbd ba8d c93c
00000390: 618a b33d 74a0 be3c ad20 0ebd 1953 e1bd
000003a0: 2a90 d3bc aecd bd3d a14d 7d3d d8d9 06bd
000003b0: 0322 8fbd b87b 54bd 292d bf3d a96b 13ba
000003c0: be6b 253d c521 87bd f473 233d eec7 aabc
000003d0: 5a46 d5bb 4677 863c c7f5 babc 4d36 823d
000003e0: 1b5c 903d 83d6 fc3c ef7d 813c a4de 18bc
000003f0: 93be bd3c 7f7f eb3b 03ba f43c b9b5 dc3c

bias f4 [120]
0.0013600385 0.004648569 0.024242498 -0.0006593287 0.012790332 0.015208678 0.045508992 0.008429752
-0.032869376 -0.04704259 0.030292561 0.057135247 0.03301211 0.028657798 -0.01155291 -0.004974265
0.01551504 0.014894399 0.04118626 -0.02911548 0.03271788 0.011322841 0.015410562 0.0059489007
-0.028748479 0.0016146819 0.059241414 0.020123558 -0.037175268 0.05669342 -0.022801774 -0.040773652
-0.0147899715 0.018954312 0.008488603 0.024489956 0.03643778 -0.0027348918 -0.026227528 -0.04457294
-0.033523537 -0.017505882 0.0051611764 0.015770622 0.0066865007 0.023746986 0.06047338 0.016316524
0.013238289 0.015701286 -0.032470603 -0.032085914 -0.008696388 -0.015005078 0.033416536 0.0044347527
-0.034017175 0.018291906 0.058992613 0.0056224316 0.043808524 -0.050493598 0.04410214 0.059794124
-0.04019976 -0.04031997 -0.03086036 -0.039786547 0.011827251 0.022496356 -0.028238904 0.06500309
0.026473945 0.016427081 0.054574862 -0.018088318 -0.033151645 0.031799447 -0.04086654 0.012728501
0.02997645 -0.043265797 0.005793261 0.055077977 -0.047550812 0.042728003 0.02236165 0.025236627
0.027267 0.03535709 -0.010073156 0.050200768 0.001122422 -0.029253112 0.016183237 0.021869302
0.047518436 -0.0064848023 -0.03336838 -0.0040452955 0.02401226 0.003682276 0.050225414 -0.01706173
0.03307849 0.0055304407 -0.04494138 -0.053562157 0.06944461 0.047085274 -0.018641194 0.0059997025
-0.040265985 -0.050553914 -0.007744102 0.034736294 0.04142858 -0.04221444 -0.036472354 -0.03109408
00000000: 5243 b23a 0653 983b 3498 c63c cdd6 2cba
00000010: 8a8e 513c d22d 793c a367 3a3d f11c 0a3c
00000020: 0aa2 06bd bbaf 40bd 1b28 f83c a606 6a3d
00000030: b537 073d c2c3 ea3c 6b48 3dbc 29ff a2bb
00000040: cb32 7e3c a307 743c ecb2 283d 9683 eebc
00000050: 2f03 063d 7083 393c 957c 7c3c ffee c23b
00000060: ee81 ebbc bca3 d33a 20a7 723d 29da a43c
00000070: 1845 18bd 5c37 683d c9ca babc 4602 27bd
00000080: a351 72bc 1346 9b3c c813 0b3c 299f c83c
00000090: c83f 153d df3b 33bb 1ddb d6bc 1d92 36bd
000000a0: fa4f 09bd 7f68 8fbc 161f a93b 6431 813c
000000b0: 6f1a db3b 0a89 c23c efb2 773d 3baa 853c
000000c0: 69e5 583c fc9f 803c e5ff 04bd 856c 03bd
000000d0: 4c7b 0ebc dcd7 75bc c7df 083d 6751 913b
000000e0: 9855 0bbd e8d8 953c 3da2 713d 603c b83b
000000f0: 9170 333d 60d2 4ebd 72a4 343d afea 743d
00000100: 81a8 24bd 8e26 25bd dece fcbc 38f7 22bd
00000110: 16c7 413c 474a b83c 4655 e7bc 5720 853d
00000120: e3df d83c 1692 863c e489 5f3d f42d 94bc
00000130: 05ca 07bd 2340 023d ac63 27bd 348b 503c
00000140: 2c91 f53c 7a37 31bd 65d5 bd3b 7299 613d
00000150: a4c4 42bd 8f03 2f3d c72f b73c 0bbd ce3c
00000160: 0b5f df3c 99d2 103d e109 25bc 529f 4d3d
00000170: 3c1e 933a 39a4 efbc b592 843c 4027 b33c
00000180: b1a2 423d 777e d4bb 48ad 08bd 668e 84bb
00000190: 5cb5 c43c 5752 713b 2ab9 4d3d 0bc5 8bbc
000001a0: 507d 073d b338 b53b 7414 38bd fe63 5bbd
000001b0: fa38 8e3d 7ddc 403d 6bb5 98bc 2799 c43b
000001c0: f2ed 24bd 9f11 4fbd 3cc2 fdbb a547 0e3d
000001d0: 04b1 293d 0ce9 2cbd 0964 15bd 03b9 febc

weight f4 [84, 120]
-0.05411751 -0.040264778 -0.0008026052 0.026507633 -0.04222039 0.09094002 0.0055588246 -0.015150004
-0.07581096 0.07754682 0.048326228 0.02158174 -0.06792864 0.10200613 0.05133764 -0.030742988
0.054571085 -0.050974496 0.06368739 0.02642835 -0.026019262 -0.097776815 0.0042141224 0.03479794
-0.044093773 -0.06946593 0.028012037 -0.052023765 -0.10104869 0.026862746 -0.020383669 0.05457471
-0.071860336 -0.09396529 0.013513266 -0.02238804 -0.084805496 -0.08019659 0.034779068 0.009748862
-0.09610476 -0.081881694 0.08563929 -0.07051834 0.092972286 -0.027405716 0.13417533 0.09706279
-0.0122790625 0.054728057 0.044833984 -0.0380695 -0.0029265212 -0.036111534 -0.06268074 0.09864945
-0.056192145 0.01505783 0.09341106 -0.05913059 -0.07077137 0.089779384 0.018339364 -0.02565178
0.048952267 0.07367412 -0.04876683 0.08082779 -0.071120724 -0.01132167 -0.012740918 0.025523458
0.09755454 -0.028101644 0.12658933 0.052450426 0.058448646 0.009811023 -0.06308984 -0.06088298
-0.06246314 0.004172992 -0.04526896 -0.069549054 -0.08513546 -0.039706305 0.092387475 0.044728417
0.08838555 -0.027460834 0.046570275 -0.05942987 -0.008882121 0.08595443 0.0599158 0.017199153
-0.116232775 0.10615802 -0.060549423 0.0058670463 -0.067426786 0.058397695 0.05814191 0.0026576044
-0.09368131 -0.05991818 0.07349326 -0.0035378248 -0.0071945847 -0.07631649 0.060770746 0.09335306
0.07463023 -0.10001707 -0.012503707 0.10645048 0.0016802405 0.028599154 0.021702575 0.08005998
0.00087059493 -0.069055036 -0.018922143 -0.028968262 0.07943473 0.02453142 -0.0048322603 -0.036945403
-0.079378754 -0.052422658 0.057457425 0.038147133 0.07272231 -0.06632121 0.073571526 0.025509598
0.057767466 -0.074848965 -0.05614006 0.022712614 -0.052442506 -0.033544306 -0.04393651 0.015425128
-0.06373692 -0.008220391 -0.050833862 -0.059953727 -0.0064916643 -0.12711948 -0.011870614 0.023797182
0.08870325 -0.07778719 0.019840596 -0.014706753 0.10834948 0.031786617 -0.040029753 0.0325097
0.0741262 0.020737395 -0.0035503374 0.020063028 -0.08787842 0.10536274 0.052924972 0.066139236
-0.08452388 0.027954916 -0.07294165 -0.0034245527 0.14166878 -0.097825386 -0.018425066 0.032056037
-0.001197503 -0.020063056 0.00025589278 0.10893924 0.042194888 -0.06813445 0.013357344 -0.117463425
0.04123572 0.055355277 -0.027334755 -0.06519445 -0.03606723 0.0016837524 -0.056233045 0.016419848
0.029076533 0.13330986 0.05120397 -0.008013662 -0.08493056 -0.07392504 0.018027266 -0.03663789
0.14423022 -0.028705996 0.079239145 0.096535064 -0.036386225 -8.3439394e-05 -0.054093137 -0.037328936
0.086634085 0.030020569 -0.10696643 -0.0059413486 0.06973021 -0.039545614 -0.053823527 0.03780823
0.011291483 0.11763025 0.022765193 0.10852888 -0.08514199 -0.04575926 0.09301101 0.048815373
0.08536169 0.06620081 -0.077731915 -0.035812464 -0.04622568 0.034577165 -0.11372887 0.033393405
0.052497197 0.07731413 -0.123571135 -0.08978479 0.10653257 0.066851504 -0.047932185 -0.0036434736
0.08046523 0.011519134 0.07742322 0.011078194 -0.07307879 -0.08502179 -0.112576276 0.06638494
-0.07168085 -0.10213363 -0.017010778 0.022023415 -0.0062977853 0.116284765 -0.027763106 -0.031392746
00000000: 52aa 5dbd aeec 24bd ec65 52ba 8926 d93c
00000010: 4aef 2cbd c33e ba3d cd26 b63b b937 78bc
00000020: c742 9bbd ded0 9e3d b9f1 453d 30cc b03c
00000030: 2c1e 8bbd 97e8 d03d 6b47 523d b8d8 fbbc
00000040: ee85 5f3d a2ca 50bd 896e 823d 4480 d83c
00000050: 5926 d5bc 363f c8bd 9f16 8a3b 4988 0e3d
00000060: ac9b 34bd 2744 8ebd 8079 e53c df16 55bd
00000070: 9ef2 cebd 430f dc3c a7fb a6bc bb89 5f3d
00000080: 832b 93bd e070 c0bd bf66 5d3c 1f67 b7bc
00000090: 81ae adbd 1c3e a4bd 7f74 0e3d b1b9 1f3c
000000a0: 93d2 c4bd 97b1 a7bd a763 af3d eb6b 90bd
000000b0: 4168 be3d f481 e0bc 4265 093e dbc8 c63d
000000c0: 1f2e 49bc 872a 603d d7a3 373d c4ee 1bbd
000000d0: e1ca 3fbb b0e9 13bd c35e 80bd b908 ca3d
000000e0: bc29 66bd 1eb5 763c 4c4e bf3d eb32 72bd
000000f0: 94f0 90bd 41de b73d 6f3c 963c af23 d2bc
00000100: 2c82 483d 75e2 963d babf 47bd 0a89 a53d
00000110: bea7 91bd 877e 39bc 49bf 50bc 9216 d13c
00000120: adca c73d 6b35 e6bc a2a0 013e 42d6 563d
00000130: d967 6f3d 6abe 203c 3f35 81bd 6e60 79bd
00000140: 59d9 7fbd 98bd 883b f26b 39bd bc6f 8ebd
00000150: 805b aebd 14a3 22bd a535 bd3d 2535 373d
00000160: 7c03 b53d 8bf5 e0bc 79c0 3e3d bc6c 73bd
00000170: 5186 11bc e008 b03d 456a 753d 3de5 8c3c
00000180: 730b eebd 6069 d93d ac02 78bd 5a40 c03b
00000190: 0e17 8abd 6c32 6f3d 3626 6e3d 342b 2e3b
000001a0: fddb bfbd c46c 75bd a283 963d dada 67bb
000001b0: 8dc0 ebbb d24b 9cbd bfea 783d e42f bf3d
000001c0: bcd7 983d c0d5 ccbd 59dc 4cbc b602 da3d
000001d0: 843b dc3a c648 ea3c 99c9 b13c 7df6 a33d
000001e0: a338 643a ba6c 8dbd 9c02 9bbc d94e edbc
000001f0: adae a23d 1ef6 c83c f057 9ebb 1054 17bd
00000200: 5491 a2bd 24b9 56bd 7a58 6b3d 2b40 1c3d
00000210: 6fef 943d 6ad3 87bd abac 963d 81f9 d03c
00000220: 949d 6c3d 6a4a 99bd 1ff3 65bd ce0f ba3c
00000230: f4cd 56bd c165 09bd c5f6 33bd adb9 7c3c
00000240: 8188 82bd d2ae 06bc 2b37 50bd 0a92 75bd
00000250: 07b8 d4bb 9c2b 02be f77c 42bc 4ff2 c23c
00000260: 0daa b53d e44e 9fbd bf88 a23c 98f4 70bc
00000270: 55e6 dd3d af32 023d 3df6 23bd e428 053d
00000280: 7acf 973d 78e1 a93c c7ac 68bb 385b a43c
00000290: 9af9 b3bd 6cc8 d73d dbc7 583d 0274 873d
000002a0: db1a adbd b501 e53c 6f62 95bd 766e 60bb
000002b0: 9f11 113e ad58 c8bd 2af0 96bc 314d 033d
000002c0: 88f5 9cba 475b a4bc 5929 8639 891b df3d
000002d0: 8cd4 2c3d 138a 8bbd c3d8 5a3c aa90 f0bd
000002e0: c9e6 283d 37bc 623d 23ed dfbc ab84 85bd
000002f0: 3bbb 13bd 5bb1 dc3a 9f54 66bd eb82 863c
00000300: e931 ee3c 6182 083e 41bb 513d bc4b 03bc
00000310: 13f0 adbd 0366 97bd ebad 933c 9d11 16bd
00000320: 16b1 133e d628 ebbc 2248 a23d 2db4 c53d
00000330: b909 15bd 2ffc aeb8 c490 5dbd 3ae6 18bd
00000340: 366d b13d b2ed f53c 3711 dbbd a5af c2bb
00000350: b6ce 8e3d 95fa 21bd 0f76 5cbd cddc 1a3d
00000360: eaff 383c 21e8 f03d 127e ba3c 6444 de3d
00000370: ec5e aebd 106e 3bbd 8e7c be3d a1f2 473d
00000380: 1cd2 ae3d 4a94 873d e931 9fbd 17b0 12bd
00000390: 2357 3dbd c9a0 0d3d afea e8bd 86c7 083d
000003a0: 4d07 573d df56 9e3d dd12 fdbd 17e1 b7bd
000003b0: c02d da3d 71e9 883d 8a54 44bd 58c7 6ebb
000003c0: f4ca a43d c0ba 3c3c 1190 9e3d 5081 353c
000003d0: 55aa 95bd e71f aebd 648e e6bd d4f4 873d
000003e0: 69cd 92bd 702b d1bd 305a 8bbc 736a b43c
000003f0: a75d cebb b526 ee3d 746f e3bc ae95 00bd

bias f4 [84]
0.024361242 0.080301344 -0.034837596 -0.00412709 0.046512354 0.113910474 -0.02546999 0.089760706
0.07164221 0.06367505 0.051756162 -0.0114719365 0.08502792 0.038793918 0.07406094 0.01099431
-0.04212525 0.017078474 -0.022508029 -0.0019328558 -0.06614771 -0.07440613 0.03141977 -0.05279987
-0.032756746 -0.003293406 -0.06772707 -0.07181159 -0.035073057 -0.059882957 -0.011118672 0.099371
-0.015604427 -0.029101206 0.07210555 0.12729794 -0.015717292 0.061948255 -0.0138564315 0.024169102
-0.07122537 -0.009434729 -0.08973732 0.09396689 0.078330055 -0.05166676 -0.089637004 0.016941663
0.020313533 -0.015231244 0.0017772716 -0.031615615 -0.039200984 0.07023002 -0.053901523 0.027042447
0.003552694 -0.007558168 0.09917666 0.02072075 -0.07488005 -0.081956804 0.042788133 0.02958175
-0.027954932 0.019584414 0.02828455 -0.047391362 -0.061346527 -0.040818583 -0.08734314 0.07489167
0.06748996 0.061152495 -0.008251905 0.08704395 -0.011740305 0.05155149 0.083824724 -0.08333822
-0.063592896 0.07182523 0.07309916 0.081276745
00000000: 3a91 c73c 0875 a43d deb1 0ebd 8a3c 87bb
00000010: bd83 3e3d e549 e93d 71a6 d0bc 76d4 b73d
00000020: 27b9 923d 1168 823d 45fe 533d caf4 3bbc
00000030: 1e23 ae3d 5fe6 1e3d 43ad 973d 7a21 343c
00000040: 878b 2cbd 28e8 8b3c c262 b8bc e157 fdba
00000050: 7378 87bd 3e62 98bd 04b2 003d ad44 58bd
00000060: f02b 06bd 2fd6 57bb 7db4 8abd f411 93bd
00000070: c4a8 0fbd d547 75bd 172b 36bc 0683 cb3d
00000080: b6a9 7fbc a765 eebc 13ac 933d 645a 023e
00000090: 8dc1 80bc 74bd 7d3d 1606 63bc 48fe c53c
000000a0: 9bde 91bd 1f94 1abc 33c8 b7bd b671 c03d
000000b0: 826b a03d 86a0 53bd 9b93 b7bd 3ec9 8a3c
000000c0: 9168 a63c 788c 79bc 57f3 e83a 607f 01bd
000000d0: 3691 20bd c2d4 8f3d d8c7 5cbd 1f88 dd3c
000000e0: 51d4 683b 82aa f7bb 221d cb3d 90be a93c
000000f0: b65a 99bd f8d8 a7bd 9c42 2f3d 6d55 f23c
00000100: be01 e5bc 7e6f a03c 00b5 e73c 721d 42bd
00000110: 7f46 7bbd 6331 27bd f6e0 b2bd ce60 993d
00000120: 2d38 8a3d 0a7b 7a3d 0033 07bc 1944 b23d
00000130: 695a 40bc a827 533d 4cac ab3d 3bad aabd
00000140: fe3c 82bd 1b19 933d 03b5 953d 6c74 a63d

weight f4 [10, 84]
0.10739439 -0.060159914 0.23013788 -0.069270015 0.012835343 -0.13539563 0.33579025 0.046703685
-0.025944756 -0.08121448 -0.22067532 0.025172235 -0.22001493 -0.10378922 0.05097236 -0.010698564
0.017288523 -0.06544912 -0.12651773 0.08774356 0.24807447 0.05642303 -0.051080298 0.3192283
0.077250026 0.014789518 0.07006526 0.018606978 -0.0613578 -0.23694289 0.04342238 0.06766146
-0.03205754 -0.08220536 0.012040061 -0.062799364 0.16059293 0.16142128 -0.07353514 -0.12583728
0.19242442 -0.03404427 -0.06540563 0.01835229 -0.015343061 -0.091372915 -0.00033854556 -0.2029707
-0.14543402 -0.077882834 0.012380535 -0.10062826 -0.017884744 -0.2835122 -0.14786895 -0.12292236
-0.058613114 -0.15566117 0.014175411 0.08887727 -0.061728347 -0.033660308 0.019853551 0.1215579
0.10189351 0.019017722 0.30544397 0.1464975 0.017538115 -0.069041245 -0.08859385 -0.1769378
0.23438416 0.04513537 0.039224736 -0.01671309 -0.022520758 -0.023543946 -0.3211493 0.14959352
-0.008343069 -0.12013057 0.10688635 0.1642765 0.025234632 0.019352715 0.004923479 0.048190005
0.05096211 0.3556358 0.024382442 0.18493 0.06641082 0.09492669 0.13532813 -0.018222468
0.03557109 0.12628612 -0.16618204 -0.08061744 0.06517739 -0.054764103 -0.15485825 -0.00593823
-0.036938414 -0.0032463558 -0.14521971 -0.2121009 -0.05017895 0.17146781 -0.14449789 0.17263623
0.28862816 -0.22881556 0.07756671 0.08610004 0.14304161 0.11139855 -0.2152857 -0.0017930784
-0.098088905 -0.13550705 0.018823614 0.15600775 -0.054454524 -0.17593732 0.09734038 -0.17425102
-0.18782325 -0.0036204683 -0.056566108 -0.22138251 -0.23181571 0.16793355 -0.15093046 0.050883073
0.045299828 0.11275373 -0.027707357 -0.15294673 0.08517515 -0.08948378 0.052920397 0.103961274
0.029220048 0.05592385 -0.11091113 -0.0001926175 -0.116950855 -0.20395264 -0.055560984 0.1864756
-0.09241602 -0.11208623 0.01550128 -0.013113313 -0.025858918 -0.013995509 -0.033026073 0.1307501
-0.025401702 0.41547343 -0.021664536 -0.1886133 0.031693403 0.44927984 -0.2057032 -0.25662765
0.20869781 -0.08663285 0.11061295 -0.08127054 0.08818609 -0.2863662 0.03133918 -0.19304377
0.036652002 0.23282664 -0.20535858 -0.07645453 0.2775119 -0.0003090977 0.027319316 0.020506116
0.07732981 0.29616007 0.12636386 -0.042493753 0.21829782 -0.054323714 0.0018412849 -0.17089729
-0.045882877 0.13018604 0.13486707 0.09899367 0.017826444 -0.045250867 0.07495193 -0.08068381
-0.1416666 -0.09671248 0.22812633 -0.025253212 -0.37325254 0.17960119 0.010565883 -0.02598097
0.0024742815 0.006918656 0.31066638 -0.012551988 -0.19475852 0.11662767 -0.011076009 0.05043522
-0.21777727 -0.06000115 -0.0030895066 0.16455723 0.20092477 0.2537496 -0.04325964 -0.12451437
0.054592565 0.1574156 -0.06400134 0.23085834 -0.07961441 -0.053926606 0.10358644 -0.031947024
0.05242395 0.07438254 0.034723487 0.032555994 -0.021598106 -0.054818094 -0.09820983 -0.0977429
-0.1369652 -0.10150459 0.10611264 -0.16781422 -0.025815174 0.10924864 -0.14755844 0.17385909
0.1370944 0.020347122 -0.12024852 -0.16525432 0.01941056 0.27904606 0.010810513 0.09229421
00000000: 97f1 db3d 3e6a 76bd 44a9 6b3e 70dd 8dbd
00000010: 554b 523c 27a5 0abe b3ec ab3e 5d4c 3f3d
00000020: 198a d4bc c753 a6bd b6f8 61be 0136 ce3c
00000030: 984b 61be 718f d4bd 65c8 503d 0849 2fbc
00000040: a9a0 8d3c 300a 86bd dd8d 01be e5b2 b33d
00000050: 3c07 7e3e d61b 673d 9339 51bd e471 a33e
00000060: 4335 9e3d bc4f 723c 607e 8f3d a96d 983c
00000070: 5152 7bbd 28a1 72be aadb 313d 1792 8a3d
00000080: c44e 03bd 495b a8bd ad43 453c f49c 80bd
00000090: 7972 243e 9f4b 253e 9799 96bd 7ddb 00be
000000a0: e80a 453e 0172 0bbd 63f3 85bd 8b57 963c
000000b0: 7661 7bbc b921 bbbd d17e b1b9 8dd7 4fbe
000000c0: a8ec 14be 0981 9fbd bad7 4a3c 3016 cebd
000000d0: 0783 92bc 8328 91be f56a 17be b8be fbbd
000000e0: 4e14 70bd a465 1fbe fc3f 683c 4905 b63d
000000f0: ddd6 7cbd 64df 09bd eaa3 a23c 59f3 f83d
00000100: 8bad d03d 0ecb 9b3c 2763 9c3e 7103 163e
00000110: 18ac 8f3c 7f65 8dbd b170 b5bd 2f2f 35be
00000120: 6702 703e dedf 383d 1eaa 203d e4e9 88bc
00000130: 747d b8bc 3cdf c0bc ae6d a4be 0b2f 193e
00000140: 5eb1 08bc 0407 f6bd 3be7 da3d 1938 283e
00000150: dcb8 ce3c 9689 9e3c 2355 a13b e262 453d
00000160: a5bd 503d e515 b63e b0bd c73c 4a5e 3d3e
00000170: 6502 883d ed68 c23d 7593 0a3e 4947 95bc
00000180: feb2 113d 2651 013e a02b 2abe c21a a5bd
00000190: b97b 853d 5350 60bd 2993 1ebe 7c95 c2bb
000001a0: bc4c 17bd d0c0 54bb 7ab4 14be fa30 59be
000001b0: 7188 4dbd 4295 2f3e 41f7 13be 8dc7 303e
000001c0: 12c7 933e a04e 6abe 4cdb 9e3d 3855 b03d
000001d0: 8079 123e ec24 e43d db73 5cbe ba05 ebba
000001e0: d6e2 c8bd 5cc2 0abe fb33 9a3c 7fc0 1f3e
000001f0: b50b 5fbd ea28 34be 655a c73d dc6e 32be
00000200: bd54 40be 6145 6dbb ddb1 67bd 19b2 62be
00000210: 1961 6dbe c6f6 2b3e 848d 1abe c56a 503d
00000220: 508c 393d 6deb e63d 8afa e2bc 119e 1cbe
00000230: 4f70 ae3d 4643 b7bd 0fc3 583d a6e9 d43d
00000240: e25e ef3c 6810 653d 6025 e3bd 5ef9 49b9
00000250: ee83 efbd f6d8 50be ea93 63bd 76f3 3e3e
00000260: 9c44 bdbd 778d e5bd 15f9 7d3c 39d9 56bc
00000270: 15d6 d3bc 6b4d 65bc 5946 07bd 5be3 053e
00000280: 3b17 d0bc efb8 d43e d379 b1bc d823 41be
00000290: f1d0 013d 0208 e63e dca3 52be b364 83be
000002a0: e1b4 553e 906c b1bd 0b89 e23d 2b71 a6bd
000002b0: e99a b43d 979e 92be 835d 003d 44ad 45be
000002c0: 6920 163d 1b6a 6e3e 8549 52be 3194 9cbd
000002d0: 0a16 8e3e 640e a2b9 c2cc df3c 71fc a73c
000002e0: 175f 9e3d 4ba2 973e 8765 013e ee0d 2ebd
000002f0: 7789 5f3e 8b82 5ebd 4557 f13a b3ff 2ebe
00000300: afef 3bbd 7d4f 053e 981a 0a3e 31bd ca3d
00000310: c308 923c f958 39bd 6680 993d 8e3d a5bd
00000320: 0d11 11be 3111 c6bd f399 693e d3df cebc
00000330: f51a bfbe 60e9 373e 861c 2d3c 0bd6 d4bc
00000340: 8e27 223b e5b5 e23b aa0f 9f3e daa6 4dbc
00000350: c76e 47be 7dda ee3d 2678 35bc 2995 4e3d
00000360: 0101 5fbe c4c3 75bd 5279 4abb b181 283e
00000370: 39bf 4d3e 78eb 813e 0531 31bd 6401 ffbd
00000380: 749c 5f3d 8e31 213e 2213 83bd 2166 6c3e
00000390: e10c a3bd 25e2 5cbd 2125 d43d e2da 02bd
000003a0: 7fba 563d e055 983d 373a 0e3d 6f59 053d
000003b0: 83ee b0bc f088 60bd 3c22 c9bd 6e2d c8bd
000003c0: 9b40 0cbe a3e1 cfbd 9551 d93d 7ed7 2bbe
000003d0: 587a d3bc c0bd df3d 8f19 17be 1e08 323e
000003e0: 7962 0c3e 02af a63c db44 f6bd 6e38 29be
000003f0: e502 9f3c 20df 8e3e 941e 313c bf04 bd3d

bias f4 [10]
-0.09058194 0.29059 -0.091310576 0.01042222 -0.0645062 -0.027988814 -0.05378887 -0.045630176
-0.009021637 0.09326932
00000000: 0683 b9bd 36c8 943e 0a01 bbbd f6c1 2a3c
00000010: d41b 84bd cc48 e5bc b851 5cbd b5e6 3abd
00000020: 7dcf 13bc fc03 bf3d
