models/model.pth (torch, 252871 bytes, 10 tensors)

weight f4 [6, 1, 5, 5]
000000 82 61 07 3f 5a 3c a6 3e 91 3e 9d 3e a3 a8 c1 3d
       0.5288316 0.3246792 0.30711797 0.09455993
000010 9a 36 6a 3e 30 1e 5b 3e f2 94 7c be d0 c1 fe bd
       0.22872391 0.21398234 -0.24666193 -0.124393106
000020 8f 6f b2 3c 37 99 c1 bc 82 4d 76 be 2d 28 0f bf
       0.02178171 -0.023632629 -0.24053004 -0.5592068
000030 b6 38 e1 be 38 7b fe be 41 26 e7 bd c0 dc 13 be
       -0.4398858 -0.49703383 -0.11286593 -0.14439678
000040 43 9d d4 be f6 7b 0e bf 65 97 c5 be 22 94 1f be
       -0.4152623 -0.556579 -0.38592067 -0.15583852
000050 d7 79 0f 3e 73 a1 4c 3c f1 b7 9b 3d d1 0a fc 3d
       0.14011322 0.012489664 0.076034434 0.123067506
000060 22 bf 8c 3e 51 52 4c be 34 e4 63 be 86 b9 c0 be
       0.27489573 -0.19953276 -0.22255021 -0.37641543
000070 f0 dc 42 be 7b 7a 1b 3e 50 71 e7 be b3 4e 2c bf
       -0.19029593 0.15183441 -0.45203638 -0.67307585
000080 a9 73 12 bf ce 8d 1c be 23 1e 53 3c 0c fa c1 bc
       -0.57207733 -0.15288469 0.012885603 -0.023678802
000090 04 08 07 bf 16 8b a7 be 5a 52 65 be f6 2d 2a bd
       -0.52746606 -0.32723302 -0.22394696 -0.041547738
0000a0 ca b6 88 be 57 35 f7 be 1c b0 69 be 5a e8 b2 3b
       -0.26701957 -0.48282883 -0.22821087 0.0054598274
0000b0 45 95 83 3e ac 94 4b be b5 c9 e0 bd 0d a0 9f 3e
       0.2569982 -0.19880933 -0.109759726 0.31176797
0000c0 f0 d5 12 3f a5 3e 17 3f 04 a2 02 bf cb ac 34 be
       0.5735769 0.5907996 -0.51028466 -0.1764404
0000d0 7e 0e b8 be 0b 4a 57 be 3b 3d a1 be 5b cd 33 be
       -0.35948557 -0.21024339 -0.31492028 -0.17558806
0000e0 c6 07 92 bd 26 b2 9e 3e 09 d7 89 3e e1 ab b9 3e
       -0.07130389 0.3099529 0.2692187 0.36263946
0000f0 a6 11 76 3e d7 56 ea 3e 0a 40 0e 3f 3b 3f f7 3e
       0.2403017 0.4576938 0.55566466 0.4829043
000100 ee 8d 87 3e f6 54 ad bd 92 f8 1a 3f e9 dd ea 3e
       0.2647547 -0.08463471 0.6053554 0.4587243
000110 d6 fc 78 3e c0 df 37 3e 1c 1a 15 bd 66 b1 83 3e
       0.243152 0.17956448 -0.036401853 0.25721282
000120 53 76 96 3e ab b4 a8 bd 79 ea 23 be ab 13 0a bf
       0.2938715 -0.08237585 -0.16007413 -0.5393626
000130 68 04 ff be 5b f5 51 bd ae bf 68 be e4 3f b4 bd
       -0.4980805 -0.05125938 -0.2272937 -0.08801249
000140 15 9d 3a be 37 b2 90 3e 05 2f 42 3e 32 ba e6 3e
       -0.18223985 0.28260967 0.18963249 0.4506393
000150 8d c9 45 3e 87 da 83 bd 68 88 02 3f 50 13 2f 3f
       0.19315167 -0.06438165 0.5098939 0.68388844
000160 a8 0f f6 3e 85 a1 a1 3e 78 a4 16 bd 39 bc b2 3e
       0.4805882 0.31568542 -0.036777943 0.34909227
000170 c9 14 30 3f d7 b9 65 3e 58 d4 62 3e cb d8 24 be
       0.68781716 0.22434174 0.22151315 -0.16098325
000180 8d e8 23 3d 17 71 9a 3e ca 0f 9e be 9f c6 d0 be
       0.0400167 0.30164406 -0.3087142 -0.40776536
000190 ce 9a fc bd 1e 35 30 be 4a a4 c2 bd 3b 47 0b 3e
       -0.12334214 -0.17207763 -0.09503992 0.13601391
0001a0 5b c5 a1 3e 66 31 ab 3e 9e c2 c4 3e 11 e7 b9 3e
       0.31595883 0.33436126 0.3842973 0.36309102
0001b0 8d 21 bd 3e 86 3d e3 3e f9 e1 97 3e 2f 17 ba 3e
       0.3693966 0.44382876 0.2966459 0.36345813
0001c0 d3 7e 01 3f 14 16 d3 3e 3d ab 71 3e ed ca e3 3c
       0.50584143 0.41227782 0.23600478 0.027806723
0001d0 ac cf 22 3f 0f 95 ee 3e 27 4a 64 3e 48 ff 66 bd
       0.6359813 0.46598098 0.22293912 -0.0563958
0001e0 01 0a 58 3d 09 98 f6 3e cc d6 cb 3e 19 7d 3e be
       0.052743915 0.4816287 0.39812315 -0.18602408
0001f0 a4 b1 ac be 1f 94 dd be af c3 04 bf 97 e4 b4 be
       -0.3372928 -0.4327707 -0.5186109 -0.3533065
000200 28 78 51 be a1 b5 50 be 45 10 99 be 95 2c 10 be
       -0.20455992 -0.20381786 -0.29895225 -0.14079507
000210 3b fd 14 bd 78 0e 65 be dc 25 53 bd 34 35 64 3e
       -0.036374312 -0.223688 -0.051549777 0.2228592
000220 39 dd cf 3e dd 83 60 3e 5c 33 9b 3e 8f ba 13 3e
       0.40598467 0.21925302 0.30312622 0.14426635
000230 45 ef 33 3f 82 6c 0c 3f 4e e2 18 3f 3b 7f c4 3e
       0.7028697 0.5485307 0.59720314 0.3837832
000240 36 c3 ac 3e 95 5d 1a 3f f4 6f ab 3e 63 7f 19 3d
       0.33742684 0.60299045 0.3348385 0.037475
000250 85 a8 31 3e 11 de c7 3e
       0.17349441 0.3903661

bias f4 [6]
000000 37 ef a0 3d a5 0d 2d 3e 60 59 c7 be 7f 43 f8 be
       0.078581266 0.16899736 -0.38935375 -0.48488995
000010 04 f4 a1 bd 8e ec 32 be
       -0.079078704 -0.17473051

weight f4 [16, 6, 5, 5]
000000 9d b6 95 3e 2a 19 f9 3d 87 c2 9c bd 48 42 07 bd
       0.29240885 0.12163003 -0.07654291 -0.033022195
000010 e2 cd ed 3d db ea 41 3e 24 01 1f be 22 46 6f be
       0.11611535 0.18937247 -0.15527779 -0.23366597
000020 10 83 46 be 82 cc ba bd 75 e6 09 bc a9 82 26 be
       -0.19385934 -0.09121038 -0.008416762 -0.1626078
000030 af 52 8e be ac 8d 18 be 8c 63 4c 3c 0d ad 05 be
       -0.27797458 -0.14897794 0.012474906 -0.13054295
000040 1b 3f 5e be 9e d1 35 bd 2a d5 c8 3d 0d f2 8c 3e
       -0.2170376 -0.04438936 0.09806283 0.2752842
000050 56 2a 8b bd de 6f ca bc 6a f0 22 3e 77 6b 86 3e
       -0.06795184 -0.024711546 0.15912023 0.26253864
000060 08 b9 6f 3e 9b 1d 39 3e 2e 69 bb 3d 51 21 22 3c
       0.23410428 0.180777 0.09150921 0.009895639
000070 26 c1 70 bd ea a6 fc ba d0 91 7e 3e a9 75 30 3d
       -0.05877795 -0.0019275818 0.2486031 0.04308096
000080 ff eb bf bd 4d 69 47 be c4 c9 8d bd 2c 4c 3c 3d
       -0.093711846 -0.19473763 -0.06923249 0.04597108
000090 b1 35 50 be d9 7b 33 be 37 44 8e be 80 11 8c bd
       -0.20332982 -0.17527713 -0.2778642 -0.06839275
0000a0 c4 0b a0 bd f8 d6 8c be e7 96 76 be 8f d1 62 be
       -0.07814744 -0.27507758 -0.24081002 -0.22150253
0000b0 8b 25 70 bd 18 ea 4e bd 92 41 4f be 39 da 93 bc
       -0.058629554 -0.050516218 -0.20239857 -0.018048393
0000c0 7b 14 36 3e f8 a7 89 3e 37 7e 4f be ea 22 36 bd
       0.1778125 0.26885962 -0.20262991 -0.04446689
0000d0 2e 0b d6 3d 95 82 4d 3d 44 8d dc bd d4 18 e1 bd
       0.10451351 0.05017336 -0.10769132 -0.10991064
0000e0 a0 8e 3f 3e de 86 74 3e 94 83 2c 3e a3 cd 1e 3e
       0.18706751 0.23879573 0.16847068 0.15508132
0000f0 f6 cc a7 3d 94 2b 46 3e 24 43 81 3e 77 b1 87 3e
       0.0819339 0.19352561 0.25246537 0.26502582
000100 13 e7 91 3d f4 a2 50 3e 2a 2f 9c 3e b8 61 ce 3d
       0.07124152 0.20374662 0.30504733 0.10077232
000110 73 e9 81 bd 35 d8 fe bd 68 bf 98 bb ac 9c dc 3d
       -0.06343355 -0.12443582 -0.0046614893 0.1077207
000120 3e 31 83 bc 06 ac a5 be fa 4e 9c be 2f 69 5e be
       -0.016014691 -0.32357806 -0.30529004 -0.21719812
000130 b4 fd 89 bd ad 41 2c 3d de b0 72 3d 7f e3 08 be
       -0.06737843 0.04205482 0.059250705 -0.13368033
000140 71 28 13 be 5b 5f ff 3d 90 22 72 3e ef bd 83 3e
       -0.14370896 0.124693595 0.23645997 0.25730845
000150 e0 b9 15 bc 37 e9 13 3e 68 3b 50 3e 3e e5 95 3e
       -0.009138554 0.14444433 0.20335162 0.2927646
000160 a7 f2 87 3e bb d3 a8 bc da 50 0c 3e 69 d7 9b 3e
       0.26552317 -0.020608773 0.13702717 0.30437782
000170 a8 85 2e 3e d9 cd e2 bc ae ba 74 be b2 35 5e 3d
       0.17043173 -0.027686046 -0.23899338 0.054250427
000180 59 57 1e 3e 80 36 1a be 68 47 bb be 4a 5d 81 be
       0.15463008 -0.15059853 -0.36577916 -0.25266486
000190 70 15 60 be 0b c5 8b bb b4 b9 6e bd 88 b1 c3 bc
       -0.21883178 -0.0042654327 -0.05828257 -0.023888364
0001a0 92 41 83 bd ff 82 0e be 89 19 af 3d 6a 13 3c 3e
       -0.06408991 -0.13917159 0.08549792 0.18366781
0001b0 31 88 1c 3e 03 06 91 3d 72 e6 a8 39 4b d2 82 3e
       0.15286328 0.07081225 0.00032215152 0.25551066
0001c0 0a eb 53 3e bf f5 64 3e 60 6a 56 3e 93 14 ea 3d
       0.20695129 0.2235937 0.20939016 0.114297055
0001d0 49 74 98 3e 6c 6e 6c 3e 14 08 28 3e 6e db a1 bd
       0.2977622 0.23088998 0.16409332 -0.07903181
0001e0 08 99 ac 3d 67 42 02 3e 51 f2 99 b9 c1 d7 c1 bd
       0.08427626 0.12720643 -0.00029362974 -0.0946498
0001f0 9a 8c 74 be ab 12 95 be 41 82 12 be cf 1a 21 3e
       -0.2388176 -0.29115805 -0.143075 0.15732883
000200 fe d2 75 3e df 4c 0e bc 2f 37 d3 bc ee f8 ca 3d
       0.24006268 -0.00868532 -0.02578315 0.09910761
000210 8e 4a 87 3e ed 8f 86 3e 49 9f fd 3d 4c 3b 9b 3d
       0.26424068 0.26281682 0.12383897 0.07579669
000220 98 fc a0 3e 71 f0 8e 3e 3f ec 8c 3b a8 a2 3b be
       0.31442714 0.27917817 0.0043006237 -0.18323767
000230 05 89 28 3e 0a 4d 25 3d 9e 56 09 3d d1 b2 a3 be
       0.16458519 0.040356673 0.03352987 -0.31972364
000240 f4 01 e3 be 28 e0 37 3d f7 cd 90 bd 0b 28 61 be
       -0.44337428 0.044891506 -0.07070535 -0.21987931
000250 e4 38 91 be 6a ce 2a be e0 c2 ad be 8d 36 a0 be
       -0.28363717 -0.16680303 -0.3393774 -0.3129162
000260 83 98 85 bd fe bb 3a 3d 04 f6 84 bb 55 d5 5f 3e
       -0.0652323 0.04558944 -0.0040576477 0.21858723
000270 b5 a6 ac 3e 66 29 d5 3e 32 8d 86 3e 2e 2d c7 bc
       0.33720937 0.41633147 0.26279598 -0.024313536
000280 db 54 77 3e c4 13 b0 3e 09 ed 2b 3e f9 d5 6f bd
       0.24153464 0.3439008 0.1678964 -0.05855367
000290 35 8f 8c be ba 2f 32 3c b7 f9 28 3c bc 48 96 be
       -0.27453008 0.010875637 0.010313443 -0.29352367
0002a0 ef 0b ca be fd 4c 83 be ab 5d 56 be 04 4a 8b be
       -0.3946223 -0.25644675 -0.20934169 -0.27204907
0002b0 4a 3c f9 be 3e ca 64 be ad 5c 91 3d 65 53 ae be
       -0.4867881 -0.22342774 0.070977546 -0.34048
0002c0 f1 61 f5 be ea dd f9 be 37 5b 7d be c5 7f 27 3c
       -0.47926286 -0.4880212 -0.24741827 0.010223334
0002d0 52 af 2a be f6 10 8b bc 33 fb 69 3b e0 cb 86 3d
       -0.16668442 -0.016975861 0.0035702705 0.06581855
0002e0 2d c1 52 3e 17 a3 9a bc a2 ca 46 3e 3f 69 a5 3e
       0.20581503 -0.018876595 0.19413236 0.3230686
0002f0 01 d8 30 3e 8f 29 70 3c a1 6b 2c 3e 36 20 9e 3e
       0.17269899 0.014658346 0.16837932 0.3088395
000300 e2 a4 1e 3d 41 48 50 be 69 25 34 be 8b 26 fd bd
       0.038731463 -0.20340063 -0.17592396 -0.12360867
000310 d5 72 2d be 9d b7 ac be 18 1c ae be a5 73 0b be
       -0.16938336 -0.33733836 -0.3400581 -0.13618334
000320 c6 e2 a6 3e a5 fe 24 3e 31 90 04 3e 08 b6 93 bd
       0.3259489 0.16112764 0.1294563 -0.07212454
000330 e3 61 cf 3c ed 1c a8 bd ec 92 9c be 0b fe 98 be
       0.02531523 -0.08208642 -0.30580842 -0.2988132
000340 ba f7 43 be a4 78 25 3d d7 f1 a2 be db 7c 99 be
       -0.19137469 0.040398255 -0.31825134 -0.2997807
000350 21 81 1a be a5 fd e1 3c e8 a4 d1 3d ec 0e 71 3c
       -0.15088321 0.027586767 0.102365315 0.01471303
000360 7f b5 09 3d cf c5 84 3e 24 9c 8a 3e 6a ec e6 3d
       0.033620354 0.25932166 0.2707225 0.11275561
000370 04 23 8d 3e f5 bc b2 3e b6 86 a2 3e 0c f4 46 3d
       0.27565777 0.34909788 0.317434 0.048572585
000380 af a6 5f bd bd 59 82 3e ba 4d b9 3e 62 04 cc 3d
       -0.05460232 0.2545909 0.36192113 0.099617735
000390 ea 86 76 bd e3 b5 6a bd 0e 4d 8b bd 26 be 9d be
       -0.060187258 -0.057302367 -0.068018064 -0.30809134
0003a0 36 a2 8c be 19 53 17 be 55 2d 89 3d 3a 74 93 be
       -0.27467507 -0.14777793 0.066980995 -0.2879961
0003b0 de 1d b5 be 7f 53 9d be 79 7f 06 bd 63 fa 48 3e
       -0.3537435 -0.30727765 -0.03283641 0.19626765
0003c0 75 89 c6 bd d4 a4 18 be f6 58 9b 3e d9 44 8b 3e
       -0.096941866 -0.14906627 0.3034131 0.27200964
0003d0 74 e5 33 3e 9d 11 6e 3e 66 0e d3 3e 95 d5 ab 3e
       0.17567998 0.23248906 0.41221923 0.33561388
0003e0 4b 5b 89 bc 77 74 0b be c0 8a 86 3e ed 09 a0 3e
       -0.016767165 -0.13618647 0.26277733 0.31257573
0003f0 3c 9b 2b 3e 86 fe c1 3d 8e 0d 39 bb 62 2a 80 3d
       0.16758436 0.094723746 -0.002823684 0.06258084

bias f4 [16]
000000 a2 4c 7c 3d a4 8e 7e 3c 76 cb 47 3c 86 76 56 bd
       0.06159652 0.015536938 0.012194505 -0.052359127
000010 c3 5a 6a 3d 92 07 a1 bd 01 96 6f 3a d3 8b c4 3b
       0.057215463 -0.07862772 0.0009139479 0.0059981137
000020 f1 2b 18 3c 70 d6 2e bd 18 75 b8 bd af 24 9b bd
       0.00928782 -0.042684972 -0.09006709 -0.07575356
000030 ab 98 ab bc 06 4e 5f bd a3 a0 ee bb a4 64 a0 3d
       -0.020946821 -0.05451777 -0.007282333 0.07831696

weight f4 [120, 400]
000000 f0 a2 3b 3e cf 42 a1 3d 11 bc 0c 3d 0d 9e 0e bd
       0.18323874 0.07874071 0.03435904 -0.034818698
000010 bb 04 c6 3d 41 17 b9 bd 08 24 4b bd 7b 70 87 3d
       0.09668871 -0.090376385 -0.04959491 0.06613251
000020 b4 a8 a9 3d cb 8c d5 3d f2 bb 43 3e db 91 82 3e
       0.08284131 0.10427245 0.19114664 0.25501904
000030 1b 0b 37 3c 4a 4d 19 bb 1c 5e 4e 3e fe bf ee 3d
       0.011172081 -0.0023392015 0.20153087 0.11657713
000040 d0 6a ca 3c a3 20 9a bc 8e 44 1f 3e 52 2a 64 bd
       0.024709135 -0.01881439 0.15553495 -0.055704422
000050 b4 81 69 bd 67 e8 96 bc 46 6c 06 3e 42 86 eb 3d
       -0.05700846 -0.018421365 0.1312724 0.11500217
000060 2c 70 80 be ab 37 15 37 88 82 bd bd 14 91 0d bd
       -0.2508558 8.894053e-06 -0.092534125 -0.034562185
000070 09 6b 11 3e b6 29 62 3d 75 6c 78 3d 26 eb 01 bd
       0.14200987 0.05521556 0.060650308 -0.031718396
000080 f3 fe ca bc 13 de 9d bc 8e 4a 29 3c ac 62 88 bc
       -0.024779772 -0.019270932 0.010332717 -0.016648613
000090 52 7b c6 bd 25 e7 50 be 4a df 3c 38 c8 02 55 bd
       -0.0969149 -0.20400675 4.5030647e-05 -0.052004606
0000a0 74 f0 a2 ba 0e 53 56 3c 07 4a 7e 3e 0e 24 c7 bd
       -0.001243128 0.013081325 0.24832927 -0.09723674
0000b0 fe de 9c be 3e 03 37 3d ca 12 49 3e 92 17 e5 3d
       -0.3063888 0.044680826 0.19636074 0.11186136
0000c0 cb 72 6f bd c1 c6 a7 3d 4d c1 3a 3d 6a 9f aa 3d
       -0.058459084 0.08192206 0.045594502 0.08331187
0000d0 64 40 94 bb bf b7 72 3d e8 9b c6 bd fa be 35 3d
       -0.0045242775 0.059257265 -0.096977055 0.044371583
0000e0 7f 92 c8 3c a6 07 b4 bd f3 4f 88 be 64 b5 e3 be
       0.024483917 -0.08790521 -0.26623496 -0.44474328
0000f0 06 fc 0e 3d 52 92 3b be db 31 14 be c6 37 52 bd
       0.034908317 -0.18317536 -0.14472143 -0.05132272
000100 b5 3a db be 90 96 a1 3d 40 25 77 3d 10 6a eb 3e
       -0.42818227 0.07890046 0.06033826 0.45979357
000110 24 3f 24 3f 93 c4 47 be cf f7 ef 3d ba f3 c9 3d
       0.64158845 -0.19508581 0.117171876 0.0986094
000120 ff 78 86 3e 62 2a be bd 8a 4c 08 3e 16 ad 63 3d
       0.26264188 -0.09285428 0.13310447 0.05558499
000130 8b fe 65 3d c0 34 61 bd 97 f4 66 bd ac 76 17 3e
       0.056150954 -0.054981947 -0.056385603 0.14791363
000140 84 b3 ec 3a cf cf a4 bd d5 98 39 bd 3d 42 16 be
       0.0018058871 -0.08047449 -0.045311768 -0.14673705
000150 21 55 9a 3e 86 6e d9 3d a0 bf 20 3e 8f f3 bd 3e
       0.30143073 0.10616784 0.15698099 0.37099883
000160 b8 52 af 3e 9e a8 8f 3c e5 09 eb 3d 2b ba 95 bb
       0.34242797 0.017536458 0.114764966 -0.004569312
000170 18 3b b4 3d 69 37 31 be 92 cb db be 7a a8 ab bc
       0.08800334 -0.17306294 -0.4292875 -0.02095436
000180 17 ce 16 bd 02 86 72 bd f1 bd 4e be 00 60 8b be
       -0.036817636 -0.05920983 -0.20189644 -0.2722168
000190 c4 d5 b0 3c e0 79 9e bc bb d3 2d 3d 48 88 79 3d
       0.021586306 -0.019345224 0.04243825 0.060920984
0001a0 92 2c fc bc 68 be 1d bb 90 a2 3b bd 1e 48 bc bd
       -0.030782972 -0.002406979 -0.04580933 -0.09193443
0001b0 c5 84 04 be db b9 b7 bd d1 00 42 be e0 0f 38 be
       -0.12941273 -0.08970996 -0.18945624 -0.17974806
0001c0 5a 7a 62 be 03 19 88 be ac d9 6d bc f8 34 49 3b
       -0.22116986 -0.26581582 -0.014517229 0.0030701738
0001d0 49 0e ba 3d 64 e7 c1 3b dd db a1 bc f6 4f 03 3e
       0.09084756 0.0059174765 -0.01975816 0.12823471
0001e0 f0 6f 8a 3d 21 9e 24 bd 25 f0 0c bd f8 34 df 3c
       0.06759632 -0.040189866 -0.034408707 0.027246937
0001f0 16 da ed 3d 3e 82 2f 3d 45 07 1e 3d 45 de 8e 3d
       0.11613862 0.042848818 0.03858115 0.06975988
000200 66 e6 bd bd 0b 46 b8 bc 53 de 9b 3d f2 1e 8e 3d
       -0.09272461 -0.022494337 0.07610764 0.06939496
000210 78 31 ec bc 28 95 fb bd d0 ce 27 3e 7d 01 f7 3a
       -0.028832182 -0.12284309 0.16387486 0.0018845048
000220 04 54 e3 3b 13 c2 a8 3e 6f 76 89 3e a5 3f 7b 3c
       0.0069375057 0.32960567 0.2684817 0.015334998
000230 98 32 07 3e 11 fb c3 3d 90 30 ea 3d da 83 7f 3d
       0.13202894 0.095693715 0.11435044 0.062381603
000240 f6 93 ad be ea 9f 81 3d 84 35 a8 bd 81 32 b5 bd
       -0.33901948 0.06329329 -0.08213332 -0.088475235
000250 79 f9 7f bd b3 af 6c be f4 d2 a1 bc 13 9c 5d bc
       -0.062493775 -0.23113899 -0.01975391 -0.0135259805
000260 6b e1 f9 3c 1c 68 09 3d da 6e 10 3d d6 75 a3 3c
       0.030502995 0.033546552 0.035261966 0.01995365
000270 7c f0 47 bd 9a ed 86 3c c1 ef d7 bd 69 61 dc bd
       -0.04881333 0.01647072 -0.10543776 -0.10760767
000280 2d 41 3f be 11 09 4f be bf 53 95 be 4a fb 85 be
       -0.18677206 -0.20218302 -0.29165456 -0.2616828
000290 ee 69 d4 3c 02 96 8b bd 46 55 78 3a 3c bd e0 3b
       0.025929417 -0.06815721 0.0009473156 0.006858496
0002a0 a3 c4 2c 3d 9c 6a 81 3e 28 59 4b 3d 5d 8b 85 3d
       0.042179715 0.2527665 0.049645573 0.06520722
0002b0 78 0a 12 bd 92 a5 38 3e 34 08 44 3e 6e a3 9c bd
       -0.035654515 0.1803191 0.19143754 -0.07648359
0002c0 42 1c 89 bd 8e 3e 28 be 61 1a ac bd 58 a3 34 bc
       -0.06694843 -0.16430113 -0.08403469 -0.011025272
0002d0 54 d0 42 be d3 5b 2a be cc 4b a9 bd 5c 59 9b 3d
       -0.19024783 -0.1663659 -0.0826641 0.07585403
0002e0 88 db 15 3e 6d 9c a0 be 75 cf 90 3c 26 51 18 3e
       0.14634526 -0.31369343 0.017677048 0.14874706
0002f0 00 14 be 3d 4b 61 ec 3c e2 77 6b 3e 2d 10 20 3d
       0.092811584 0.028854987 0.2299495 0.039077926
000300 ed 44 08 bc 57 2b 77 3d aa 04 87 3e 5c c3 ab 3d
       -0.008317214 0.060344066 0.26370746 0.08386871
000310 b6 32 9f bd 33 fe ce bc fd 47 e7 3d 14 a5 9f bc
       -0.07773344 -0.025267696 0.112930275 -0.019487895
000320 72 b2 4d bd 37 be 84 3d cf c0 ae 3d b3 5a 3f bc
       -0.050219007 0.06481593 0.08532869 -0.011679339
000330 1e a8 e4 bd 6b b3 dd bd d3 a9 97 bd 2c 29 80 be
       -0.11164878 -0.10825237 -0.07405438 -0.25031412
000340 ec 2c 23 be 4f 03 b9 3d 51 e9 e1 bc 93 66 c1 3d
       -0.15935105 0.09033834 -0.027577074 0.094433926
000350 00 06 69 3e c5 bb 97 3d 9d 33 27 be 2e b1 17 3e
       0.22756195 0.07408861 -0.16328283 0.14813682
000360 73 c3 05 3d ea 24 b9 3d 6c a7 34 3e 95 58 cf 3d
       0.032657098 0.09040244 0.17641991 0.101243176
000370 0b 5a a2 bb a0 74 d2 bd d5 4e a6 3c 04 06 89 3d
       -0.0049545816 -0.10276151 0.020301262 0.066906005
000380 15 40 9b bd 72 19 bf bb e4 33 6e bd ad 06 08 3d
       -0.07580582 -0.0058318907 -0.058154956 0.03320949
000390 8e 7d 44 be b3 d5 a9 bd 23 95 fb 3c f2 ff 83 bd
       -0.1918852 -0.08292713 0.030710762 -0.06445302
0003a0 7a 0c 37 bd 97 df 84 be bd 8c b6 bd 5f 93 d9 bc
       -0.044689633 -0.25951836 -0.089135624 -0.02655953
0003b0 66 a3 73 be d5 5b 5b be 7e ca 47 be 1b 64 c8 3d
       -0.237928 -0.2142175 -0.19510838 0.097847186
0003c0 c5 21 81 be f8 68 4c be 5a b2 dd be 91 04 09 3e
       -0.25221077 -0.19961917 -0.43300134 0.13380648
0003d0 2f 15 83 3e f9 ad 87 bd c5 00 83 be 66 9b de bd
       0.256021 -0.066249795 -0.25586525 -0.10869484
0003e0 82 44 64 3e 54 dc 26 3e 02 61 2b 3e a2 19 02 3e
       0.22291759 0.16294986 0.16736224 0.1270509
0003f0 26 a2 13 3c 23 8a 5c 3d 0b e9 a7 3d 62 d2 0b 3e
       0.009010827 0.053842675 0.08198746 0.13654473

bias f4 [120]
000000 d3 c5 7c bc b2 34 e0 bc da 50 90 3c c0 5c de bb
       -0.015428024 -0.027368877 0.017616678 -0.006785959
000010 66 92 88 3c 3c 89 17 3d 48 77 e6 3b f7 e3 27 3d
       0.01667137 0.03699611 0.0070332624 0.04098889
000020 97 ee 52 bd fb d3 06 bd 61 08 3d bd f2 81 2a 3c
       -0.05149707 -0.032917004 -0.04615057 0.010406958
000030 cd a9 fa 3c 38 15 b5 bb e5 10 2c bc 44 3c 46 bc
       0.030598545 -0.005526211 -0.010502075 -0.012099329
000040 f6 b8 12 3d 97 3b 2d 3d a1 ee 60 bd fc 72 21 39
       0.035820924 0.042293157 -0.054915074 0.00015396992
000050 f2 fc 26 bc 77 58 27 3c 8c 6d 82 3c 9b 79 0a bd
       -0.010192143 0.010213963 0.015921377 -0.03380738
000060 62 e3 03 3d 0e 0b ce bb 0c 65 0f 3c f5 b0 17 3d
       0.03219927 -0.006287939 0.008752119 0.037033994
000070 92 01 6b bb 6c 44 ae 3c c0 cc a5 bc e6 db 79 bc
       -0.003585909 0.02127286 -0.020239234 -0.015250182
000080 1f 5a 72 3d 43 77 b5 b8 30 87 89 3c 33 7f 83 bd
       0.059167977 -8.652967e-05 0.016788095 -0.06420746
000090 72 56 0e bb cc 80 39 3d 89 0b f3 bb 6a 0e f1 3c
       -0.0021719006 0.045288846 -0.0074171466 0.029425818
0000a0 ee e1 7a bc 89 39 01 bd 71 84 28 bc bd d2 9b bc
       -0.015312655 -0.03154901 -0.010285483 -0.019021386
0000b0 a0 e8 40 bc db 28 df 3c 06 26 33 bb a3 44 6e 3c
       -0.011774212 0.027241161 -0.0027335896 0.014542731
0000c0 c5 84 c6 3c ab 2f 08 3b 59 7f 81 bc 38 10 63 bc
       0.024233231 0.0020780365 -0.015807794 -0.013858847
0000d0 65 4e 01 3d 2b d2 3b 3b ec 23 c2 bc bf 88 2f bd
       0.031568903 0.0028659205 -0.02369877 -0.04285502
0000e0 9d 49 ab bc 9c 77 ea 3c 21 a1 97 3c 3b 17 92 3c
       -0.020909125 0.028621487 0.01850945 0.017833343
0000f0 1a 9b 13 3d 74 d6 51 3d 26 2b e5 bc ee 0b 92 3c
       0.03603659 0.05122991 -0.027974676 0.017827954
000100 01 53 ad 3c e1 5e 83 3c 65 81 24 bd c0 9b 77 bc
       0.021157743 0.016036453 -0.040162463 -0.015112817
000110 c7 29 59 3b f7 8a d2 bb 62 d7 07 bd d1 bf 0c bd
       0.0033136474 -0.0064252573 -0.03316439 -0.034362618
000120 b4 79 8c bc 53 7a 4d bd 90 8a e1 bc cd d9 6d bc
       -0.017147876 -0.050165486 -0.027531892 -0.01451726
000130 9a 54 43 ba 40 d2 3e 3d d0 51 52 bd 6d 0b 77 bd
       -0.0007451266 0.04658723 -0.051347554 -0.06031363
000140 8d 0d 09 3d 95 82 23 bd 20 07 03 bd e3 ae 2f bc
       0.03346019 -0.039919455 -0.031989217 -0.010722849
000150 59 1e 16 bc 16 21 95 3a 36 b1 82 3b 6d e6 4b 3c
       -0.009162509 0.0011377658 0.0039884103 0.0124450745
000160 1e 8c 45 bd 21 e2 7e bb 46 03 bb bc 7d 69 c6 bb
       -0.04822933 -0.0038892108 -0.02282871 -0.0060550557
000170 95 d8 6c 3c aa d3 51 3d b5 56 e5 bb cb 16 c9 3b
       0.014455934 0.05122725 -0.0069988617 0.0061367503
000180 88 9d 30 bc 81 65 20 bc b9 83 de 3c 31 00 07 3d
       -0.010779746 -0.009789825 0.02716242 0.032959167
000190 fb c6 21 bd df 72 dc 3c 6b 40 57 3c a8 d4 1d bd
       -0.039496403 0.026910244 0.013137917 -0.038532883
0001a0 84 a6 dd bc 1e 1b 7e bd da a2 73 bd 5b 3d 25 3d
       -0.02705694 -0.06203758 -0.05948148 0.040341716
0001b0 e6 8c ac bb d4 f0 83 3c 63 49 dd 3c ba d1 01 bd
       -0.00526582 0.016106047 0.027012533 -0.03169415
0001c0 67 30 28 3d 4b f0 ef 3c c6 b0 eb bc d4 19 21 bd
       0.041061785 0.029289385 -0.028770816 -0.039331272
0001d0 dd 32 97 bc 8f 57 b7 bb 9e 59 dc bc 1f 15 59 bd
       -0.01845687 -0.0055951546 -0.026898202 -0.05299866

weight f4 [84, 120]
000000 ae d2 03 3e cc 29 bf be 6f 17 31 bd e8 ca b4 3d
       0.12873337 -0.37336576 -0.04323524 0.08827764
000010 2e 4b ad 3e 1a 0e 28 bd 86 54 7d 3e 6c 41 c7 bc
       0.3384642 -0.041029073 0.24739274 -0.024323188
000020 54 d3 ac bd 13 69 36 bd 0a 94 85 3e 3a 23 f5 bc
       -0.08438745 -0.0445338 0.26089507 -0.029924024
000030 c3 38 73 bd b9 bd 3a 3e 7a 44 de bd d3 54 db ba
       -0.059380304 0.18236436 -0.108529046 -0.0016733654
000040 cb cb 88 3e 82 3c 71 bd 71 09 10 3e 5e 3e 40 be
       0.26717982 -0.058895595 0.14066102 -0.18773791
000050 72 bc 92 3e fb 75 f3 bd 98 88 28 bd 79 4e 48 be
       0.28659397 -0.11887737 -0.04114589 -0.19561185
000060 e1 48 68 be 53 cb 87 bd 65 6e 9f 3d 7b b9 a5 3d
       -0.22684051 -0.06630578 0.07784728 0.08092018
000070 51 1f 23 be e9 0d 00 3e e2 5e 24 3e 4a 58 b8 3e
       -0.15929915 0.12505306 0.1605182 0.3600486
000080 9d 22 e1 3d 4e 14 96 be 5a 72 b8 3e ed 30 4e 3e
       0.1099293 -0.29312366 0.36024743 0.20135851
000090 83 31 64 be 48 cc ea bc d3 c9 03 3c 70 e9 85 be
       -0.22284512 -0.028661862 0.008043724 -0.2615466
0000a0 49 1d 28 bd bd 7b 8d bd a0 f4 b7 3e 03 e5 7c 3e
       -0.041043554 -0.06908367 0.35928822 0.24696736
0000b0 ac 86 e1 3e 56 a9 d9 bd 88 55 cf 3d c3 a3 7a be
       0.4404806 -0.106280014 0.10123736 -0.24476533
0000c0 b8 4e 6a 3d 04 41 c8 bd 8b da 49 3e a1 49 e8 bd
       0.05720398 -0.09778026 0.19712274 -0.113421686
0000d0 a0 18 07 be fe 65 10 be 1f ae b0 3d 3b 21 89 bd
       -0.13192987 -0.14101407 0.08626961 -0.06695791
0000e0 ab dd 1f be 77 30 66 be 70 32 43 3e 6b 2f 97 3e
       -0.15611903 -0.22479425 0.19062209 0.29528365
0000f0 f4 9c 0b 3e ca c1 7e 3e d9 3d c5 be b8 e1 0b bd
       0.13634092 0.24878612 -0.3852375 -0.03415081
000100 65 d2 fc 3c 47 91 15 3b 1f 4e 1f 3f 82 75 93 3d
       0.030862043 0.0022822188 0.6222858 0.07200147
000110 c4 d7 8b be 8f 5a 86 bd a6 18 81 3e 3d 0a d3 be
       -0.27313054 -0.065602414 0.25214118 -0.4121875
000120 33 0c 16 3e 90 3e 67 3e c4 67 0b be 04 b4 c8 bb
       0.14653091 0.2258246 -0.13613802 -0.006124975
000130 1d e3 03 3e 64 bf 96 be b9 35 99 bd 3d 04 1b bd
       0.12879606 -0.29442894 -0.0748095 -0.03784584
000140 00 dc 3b be 0d 76 10 3d 1a 8a 12 3e 4c 49 47 3e
       -0.18345642 0.035268832 0.14310494 0.19461554
000150 eb 79 68 3e 64 d2 a5 3d dd ba 24 3e 17 8e aa bb
       0.22702758 0.080967695 0.16086908 -0.0052049267
000160 22 4e 61 3d 59 37 13 be 7e 41 4b be f9 18 f8 bd
       0.055006154 -0.14376582 -0.19849202 -0.12114138
000170 16 e6 ff bd 64 3b 06 be 39 4e f1 3d 80 e0 fc bd
       -0.12495057 -0.13108593 0.11782498 -0.123475075
000180 56 fe 7e 3e 03 38 2f 3d 87 b0 4b 3e 1f 81 86 3e
       0.24901709 0.042778026 0.19891559 0.26270387
000190 46 da 81 be 4e e2 0e 3e 69 b7 fc 3d 45 c2 1d 3e
       -0.25361842 0.13953516 0.1233967 0.15406139
0001a0 b2 cb 61 bd 8f 81 cd 3d 73 a7 3f 3e c0 e7 4d 3e
       -0.0551259 0.10034477 0.1871622 0.20107937
0001b0 7c a9 0f be 0c 34 52 3d 6e d3 cb be 5f 4f 8b 3e
       -0.14029497 0.051319167 -0.39809746 0.27208993
0001c0 af 8c 72 bd 5f f0 39 be 6c 48 74 be 26 d8 0d 3e
       -0.059216198 -0.181581 -0.23855752 0.13851985
0001d0 83 21 14 3c 03 b5 24 3e 0c e3 0c 3e 80 94 0b be
       0.009041193 0.16084675 0.13758487 -0.13630867
0001e0 b1 3b 3a 3e 4f af 0e bd f0 f6 0d bd 78 70 7a 3e
       0.18186833 -0.034835156 -0.034659326 0.24456966
0001f0 1b 5e 99 bd 80 e9 b7 be 97 3a be 3d a8 32 13 3e
       -0.07488652 -0.35920334 0.09288519 0.14374793
000200 b6 a9 39 be ca 76 9e be 80 2d d1 bc fb be 04 3d
       -0.18131146 -0.30950004 -0.025534391 0.032408696
000210 cb e1 83 3e c8 69 bb 3d 8b 45 99 bd d2 fb 3c be
       0.25758204 0.091510355 -0.074839674 -0.18455437
000220 10 a7 79 3d 29 a2 0a be 08 52 ec be 4f 8a 28 be
       0.06095034 -0.13538422 -0.46156335 -0.1645901
000230 d7 cb 87 3e 2b f3 48 bd 58 cb 38 bd 13 ed 8a be
       0.26522705 -0.049060028 -0.0451158 -0.27133998
000240 d0 b9 6c 3e 7f 93 30 3e e0 7b 8f 3e 31 87 46 3e
       0.23117757 0.17243765 0.28024197 0.19387509
000250 5a 09 5e be f5 1b 99 3e dc bc 93 be 87 f1 00 3e
       -0.21683255 0.29904142 -0.28855026 0.12592135
000260 68 42 a9 bd 76 82 ad be 06 3d 83 3e 7f 29 a2 be
       -0.08264619 -0.33888596 0.25632495 -0.31672284
000270 44 8c 47 be 0e f7 c5 3d b7 8c 6f 3d 36 65 c0 be
       -0.19487101 0.096662626 0.058483806 -0.37577218
000280 9c 8c 77 be 86 0d 4a 3e 9d 6b 93 3e 1b dc 60 bc
       -0.24174732 0.19731721 0.2879304 -0.013724352
000290 85 0e 2d 3e 4a 04 10 3d e3 66 5f 3d 8f a5 a1 be
       0.1690007 0.03516034 0.05454148 -0.31571624
0002a0 b4 e8 50 3e 20 43 c6 3d 53 35 8d 3e 76 58 67 bd
       0.20401269 0.09680772 0.27579746 -0.056480847
0002b0 ee 80 26 be b9 8e 5b be 31 18 24 3e 3d 81 82 be
       -0.1626012 -0.21441163 0.16024853 -0.25489226
0002c0 7d 91 4c 3e 97 e0 b9 be ff d9 4e 3d 98 af 8e 3e
       0.19977374 -0.3630416 0.050500866 0.27868342
0002d0 28 b0 d0 be 8c bd 85 3e 53 04 6d be a6 ce e9 3c
       -0.40759397 0.26121175 -0.23146181 0.02854092
0002e0 b3 29 13 be 63 58 9a be 0c a1 e3 bc 07 10 86 3e
       -0.14371376 -0.3014556 -0.027786754 0.26184103
0002f0 5f 99 ad bd 7f dc 06 3e 1c af b9 be a6 6c dc bd
       -0.08476519 0.1317005 -0.3626641 -0.107629105
000300 aa 60 c2 3e 40 c7 62 3d 83 17 1d be 49 ad 79 3e
       0.37964374 0.0553658 -0.15341 0.2438251
000310 ab 02 70 3e 93 ca 89 be 2c 32 59 be 10 f7 44 3d
       0.23438518 -0.26912364 -0.21210545 0.04808718
000320 0d c2 01 be 40 96 3f bd 1e 80 a8 3e 64 90 a5 be
       -0.12671681 -0.04677415 0.32910246 -0.32336724
000330 eb 17 e3 3d 66 e0 4d 3e a8 1d ec bb a0 60 80 be
       0.11088546 0.20105132 -0.0072056837 -0.2507372
000340 70 e1 82 be 92 c1 58 be 86 61 92 3e 40 fc 90 bd
       -0.2556262 -0.21167591 0.2859003 -0.07079363
000350 86 f0 a3 3d c6 73 25 3e cc a9 30 be 43 70 5d 3e
       0.080048606 0.16157445 -0.17252272 0.21624856
000360 3b 9d e4 bd 4c 40 a0 3d 32 e2 45 3d c3 11 e2 3e
       -0.11162802 0.07824764 0.04831142 0.44154176
000370 87 30 b4 bd ee 05 d4 3e 1e 2f 89 be 4c 5b 79 3e
       -0.08798318 0.41410774 -0.2679376 0.24351233
000380 f5 3a a1 bd b7 38 15 3d 31 2c 1a bc 74 0d b4 3e
       -0.07872573 0.03643104 -0.00940995 0.35166514
000390 91 38 1d 3e 5c 4b 44 3d e6 63 2e be 80 d9 b2 bd
       0.1535361 0.04792343 -0.17030296 -0.08732891
0003a0 2b fe c4 3e e3 56 fd 3d 4e 67 87 be 0f e4 1b be
       0.38475165 0.12370088 -0.26446003 -0.15223716
0003b0 8f df 84 bb 37 df 3e 3e be 22 1d 3e 7d 14 8e be
       -0.0040549706 0.18639837 0.15345284 -0.27750006
0003c0 7e 40 21 3c 0f 9b 04 be 5d 31 17 bd 89 dd 86 3e
       0.009842036 -0.12949775 -0.03691231 0.26340893
0003d0 49 dd 40 3e e2 91 78 3e 23 95 fa 3c 69 20 8d 3e
       0.18834414 0.242744 0.030588692 0.2756379
0003e0 1c 87 09 bc ad de 77 3e 18 60 5b be 87 24 95 3e
       -0.008394029 0.24206038 -0.21423376 0.2912943
0003f0 ae 78 31 3e d4 c0 25 3e d7 c5 8d 3e a5 fd 6d 3b
       0.17331192 0.1618684 0.27690002 0.0036314514

bias f4 [84]
000000 d0 8c 86 3d a1 08 1a 3d 7b 79 9f 3d cd 6b bb 3c
       0.065698266 0.037605885 0.077868424 0.022878552
000010 b7 8b 15 3d e9 5a 8e bc 43 e6 55 3d 9c ba 07 3d
       0.036510196 -0.017377334 0.052221548 0.03313695
000020 50 d5 ec bd ed 42 90 bd be f9 e9 3d 86 c5 3a bc
       -0.11564124 -0.07044015 0.11424588 -0.011399632
000030 07 1a ec 3c f2 11 c5 3d 48 db 1f 3d 91 ba c5 bd
       0.028821005 0.096225634 0.039027482 -0.09654725
000040 39 1c 09 3e c8 b2 ac 3d 31 7a ab bc a4 4b d5 3d
       0.13389672 0.08432537 -0.020932289 0.10414818
000050 ce 0b ed bd 50 2e e9 3d 44 18 04 3c ce 8e 79 bd
       -0.11574517 0.113857865 0.008062426 -0.060927205
000060 e6 89 84 3d b8 66 21 39 74 af e0 3b 88 0f ea bc
       0.064716145 0.00015392422 0.006856853 -0.028571859
000070 c2 11 55 3d e5 b9 7e bd 7d f6 66 bd 74 db 36 bc
       0.05201889 -0.062189 -0.056387413 -0.01116072
000080 01 86 4b bd b8 c7 d0 bd 52 c4 07 bd 36 c7 d5 3c
       -0.049688343 -0.10194343 -0.03314621 0.026095968
000090 01 c7 37 bb de 40 0c bc 12 c5 30 3c 96 ee 3b bb
       -0.00280422 -0.008560387 0.010789173 -0.0028676144
0000a0 20 41 e4 3d e9 eb b1 bb a0 1d 66 3b 51 23 a9 3a
       0.11145234 -0.005429734 0.0035112873 0.0012904202
0000b0 63 c6 3e bd 31 c4 5f bc 9e 57 39 bd fb ef 43 bd
       -0.046575915 -0.0136576155 -0.045249574 -0.047836285
0000c0 94 aa 35 bc 4b c0 95 bd 21 bd e0 bc f6 c0 20 bc
       -0.011088032 -0.073120676 -0.027433934 -0.0098116305
0000d0 bc 45 7f 3c 80 d4 a5 3d 5b c5 92 bd 8a 66 17 bd
       0.015580591 0.08097172 -0.07166549 -0.036963023
0000e0 c5 fd 83 bd b7 7c 6d 3c 9f 3a 79 3c ea 52 04 3c
       -0.06444887 0.014495066 0.01521173 0.008076409
0000f0 b1 82 3f bd c5 fe af 3c b0 9e 87 3d 47 6f 8d bd
       -0.046755496 0.021483788 0.06622064 -0.0690599
000100 61 08 d2 3d bb a4 cd 3d a8 1b 17 3d 1f 09 db 3d
       0.102555044 0.100411855 0.03689161 0.10695099
000110 f6 ff 9e 3d 85 3a b2 bc 70 6f fa bc e7 9d ba 3d
       0.077636644 -0.02175642 -0.030570716 0.09112149
000120 97 5d 97 bc ac 68 2c 3d 7e 03 6a 3c 92 08 7c 3d
       -0.018477244 0.04209201 0.014283059 0.06153161
000130 ed f6 94 3c 95 ce 23 bd bd 25 27 3c 90 6e 12 bc
       0.01818415 -0.039991934 0.010201869 -0.008937493
000140 12 1f 71 bd 3b f5 fe 3d 69 61 8e 3c 86 a0 7b 3d
       -0.05886752 0.12449118 0.017380433 0.061432384

weight f4 [10, 84]
000000 d0 a7 74 3d 41 13 94 3e e2 51 1b 3e 6e af db 3e
       0.05973035 0.2892094 0.15167955 0.4290728
000010 fe 32 9a 3e 9e 51 2c be 85 4b e8 be 26 7b 86 3e
       0.3011703 -0.1682801 -0.45370117 0.2626583
000020 29 e1 d3 be df e8 4a 3e d9 04 8b be 72 73 86 3e
       -0.4138272 0.19815396 -0.27152136 0.26259953
000030 df d8 92 3e c3 11 ce be 17 06 69 3e c6 69 7a 3e
       0.28681085 -0.40247926 0.2275623 0.24454412
000040 6f 5d 32 be ce c2 71 3d 97 c4 c7 be 13 2d ce be
       -0.17418455 0.05902367 -0.39017174 -0.40268764
000050 69 ca e6 bc 12 10 c1 be b7 c6 4d 3e 79 56 99 be
       -0.028172689 -0.37707573 0.20095335 -0.29948786
000060 f8 31 b1 be c8 87 9c 3e dc 7e c8 3d 75 d3 f0 be
       -0.34608436 0.30572343 0.097898215 -0.4703633
000070 cd d0 48 3e 29 49 08 3e 72 bd 8e 3e 04 83 dc be
       0.19610901 0.13309158 0.2787891 -0.43068707
000080 e0 06 b3 3e 50 82 3c 3e 77 56 1c be 17 c8 85 3e
       0.34966183 0.18409085 -0.15267359 0.2612922
000090 15 f5 8b 3e 15 3a 7e 3e a4 d1 87 3e b0 d8 5d be
       0.2733542 0.24826844 0.2652713 -0.21664691
0000a0 1a 62 75 be 40 37 51 3e 1b 39 46 3e 8c 86 9f be
       -0.23963204 0.20431232 0.19357722 -0.3115734
0000b0 b2 a1 71 3e f3 51 d4 3d 64 b6 53 be 15 03 b8 be
       0.23596838 0.10367193 -0.20675045 -0.3593985
0000c0 68 e3 9e be b8 93 f1 3d e2 be 8d 3e ff c3 c5 bd
       -0.31032872 0.11795753 0.27684695 -0.09656524
0000d0 38 9c 91 3e 13 1d a0 be 5c 45 b3 be 06 b7 dd 3d
       0.28439498 -0.31272182 -0.35013855 0.108259246
0000e0 74 3f b0 be 13 bb 7f be 06 10 be 3a d4 95 16 be
       -0.3442341 -0.24973707 0.0014500625 -0.14705592
0000f0 19 a6 de be 80 5f 7e be ff 4d a0 be 8c d9 96 3e
       -0.43486097 -0.24841118 -0.31309506 0.2946285
000100 7b 56 8f 3e 23 d7 4d be e4 c3 3a 3e 8a bf 64 be
       0.27995667 -0.201016 0.18238789 -0.22338691
000110 63 a3 67 be 21 b8 b5 be 1b b7 f8 bd 26 7d 7a 3e
       -0.22620921 -0.35492042 -0.121442996 0.24461803
000120 aa 5b d9 bd 27 e7 01 3c fb 7f 3b be 82 be 74 3e
       -0.10613187 0.007928646 -0.1831054 0.23900798
000130 14 94 d7 3e fb d8 c9 be 5d 11 47 bd 10 e4 57 3e
       0.42105162 -0.39423355 -0.048600543 0.21083093
000140 45 c3 81 be 7b 54 8e be e4 ef 9d be b6 6d a0 3e
       -0.2534429 -0.27798828 -0.30847085 0.31333703
000150 93 c0 1a be 79 e6 58 be f6 a8 17 3e 2b 4f 81 be
       -0.15112524 -0.21181668 0.14810547 -0.25255713
000160 90 02 70 be bd 81 bb be a7 36 64 3e 7c a1 2c bc
       -0.23438478 -0.3662242 0.22286473 -0.010536548
000170 9e a6 4c 3e cf 9b 4d be 66 16 9a 3e 2a c8 a1 be
       0.19985434 -0.20078968 0.30095214 -0.31598026
000180 76 91 8b be 53 d3 15 3e 85 ec 18 be 63 20 43 be
       -0.27259415 0.14631395 -0.14933975 -0.19055323
000190 4c 03 9b 3e 08 ea 5f 3e b2 a7 1d 3d c2 a3 37 3e
       0.30275953 0.2186662 0.038490005 0.17933562
0001a0 7e d6 8d be 74 78 5b 3e 03 a1 68 be 2f f0 13 3e
       -0.27702707 0.21432668 -0.22717671 0.14447092
0001b0 7a c9 04 3e 9b 65 8d be 37 04 a7 be 92 b6 56 3e
       0.12967482 -0.2761658 -0.32620403 0.20968083
0001c0 14 88 c4 be 3f 69 cf 3d 53 2a c5 be 24 cc 45 3c
       -0.3838507 0.10127496 -0.38508853 0.012072597
0001d0 c2 e0 40 be c9 30 a2 be 1a 0e b3 3e e2 98 83 be
       -0.18835738 -0.31677845 0.34971696 -0.25702578
0001e0 0b 18 a0 bc 21 37 af be 30 64 a9 be e2 f2 91 3e
       -0.019542715 -0.34221748 -0.3308425 0.28505617
0001f0 ad d6 7c 3e 5b 0d 97 be f8 aa a9 be cd 0d 4c 3e
       0.24691267 -0.29502377 -0.3313825 0.1992714
000200 c0 5d a6 be 05 1e 33 3d fb 77 aa 3e d8 6f 38 3e
       -0.324934 0.0437298 0.33294663 0.18011415
000210 2c 82 89 be e5 fa 6a 3e c2 c7 bf be 75 09 9d be
       -0.26857126 0.22947271 -0.3745709 -0.30671278
000220 d1 4d b1 be a4 f3 92 3e 94 72 12 3e 1c 09 8f be
       -0.34629682 0.28701508 0.1430152 -0.27936637
000230 df 91 b1 3e 83 e8 a8 3e 4d db bb be bf 03 1c 3e
       0.34681603 0.32989892 -0.3669075 0.15235804
000240 8e 83 8e 3e 00 29 b8 3d 22 b0 5d 3e 99 84 a6 be
       0.27834743 0.08992195 0.2164922 -0.3252304
000250 5b 1f d2 be eb 3c 60 3e b6 51 18 3e 45 f9 42 3e
       -0.41039547 0.21898238 0.1487492 0.19040401
000260 ec cf 97 3e 54 fd 98 3e d5 2e a9 3e 46 f2 50 3d
       0.2965082 0.29880774 0.33043543 0.0510123
000270 e2 75 a7 be 43 f4 8e 3e 12 89 8a be b3 6a a3 be
       -0.32707125 0.27920732 -0.270577 -0.31917343
000280 ba 8b d5 be a6 89 96 3e cd 35 9a 3e 1c 96 87 be
       -0.41708165 0.29401892 0.30119172 -0.26481712
000290 92 d1 97 3e 91 47 9e 3e c6 b7 8f 3e 6c 12 8a be
       0.29652077 0.30913976 0.28069896 -0.2696718
0002a0 67 a7 93 be 7b d8 96 be c7 6e a3 3d d6 3a fb 3d
       -0.28838655 -0.29462036 0.079801135 0.122670814
0002b0 74 e5 bf be 47 84 b6 bd 08 30 c0 be b9 03 85 3e
       -0.37479746 -0.08911949 -0.37536645 0.25979403
0002c0 5d 18 11 3e 7a 4e a1 be d5 70 56 be 4e b7 82 3e
       0.1416945 -0.31505185 -0.2094148 0.25530475
0002d0 0f 67 9d be b1 4a 87 be 12 f0 a3 3e 3b 11 34 3e
       -0.3074269 -0.26424173 0.32019097 0.17584698
0002e0 02 fc 8a 3e 64 02 23 3e d0 04 b0 3e b1 b3 86 be
       0.27145392 0.1591888 0.34378672 -0.2630897
0002f0 09 d7 ca be f9 62 9b 3e c0 e0 00 3e a4 1d c7 3e
       -0.39617184 0.30348948 0.12585735 0.38889802
000300 bb f2 94 3e a0 ee a3 be 02 99 42 be 6e 95 2f 3e
       0.2909144 -0.32017994 -0.1900368 0.17146847
000310 a3 ea 0f be d1 86 17 3e f1 2a 97 be 51 ae 9b be
       -0.1405435 0.14797522 -0.2952495 -0.3040643
000320 d3 84 94 3e 2c 47 86 bc 97 43 23 be a9 dc 87 be
       0.29007587 -0.01639136 -0.15943752 -0.26535538
000330 c0 9a 42 3d bb c8 bd 3d 67 5c 62 be 28 24 99 be
       0.047510862 0.09266802 -0.22105561 -0.29910398
000340 2d 25 87 3e d9 34 9e bd 6f 97 28 be ae 49 b0 be
       0.2639555 -0.07724924 -0.16464017 -0.34431213
000350 86 33 1b 3e ec ad fd 3d c2 5b 8e be 8a 9c 1c 3e
       0.15156373 0.123866886 -0.2780438 0.1529409
000360 22 53 d2 3c 93 e4 33 3e 49 a9 6d be eb 25 8b bd
       0.025674406 0.17567663 -0.23209108 -0.06794342
000370 39 49 01 be b5 e3 af 3e 00 66 4f be 9c 65 7a be
       -0.12625588 0.34353414 -0.20253754 -0.24452823
000380 b5 ae fc 3d cb f8 4c be 1f a2 21 3e ab 60 4c 3e
       0.1233801 -0.20016782 0.157845 0.19958751
000390 7f a9 da be 28 0a 21 3e 52 45 c6 be 69 08 8b 3e
       -0.4270744 0.1572653 -0.38724762 0.27154854
0003a0 a6 6e 72 3e 47 51 7b 3e 5c 78 44 3e 2a 8b f3 3d
       0.23675022 0.24542724 0.19186538 0.11891778
0003b0 e6 02 fe bd 7d 4a 1f 3e ff d2 27 be 69 09 a3 3e
       -0.124028966 0.15555759 -0.16389082 0.31843117
0003c0 65 27 2f bd 48 28 9b 3e 08 57 65 be 8f 08 91 be
       -0.04276218 0.3030417 -0.22396481 -0.28326842
0003d0 ac ba 11 3f 2a cb 82 bc 7c 10 20 3e 6c 4d 12 3e
       0.56925464 -0.015966017 0.15631288 0.14287347
0003e0 29 e2 84 3e e4 1d 8a 3d 25 c3 53 be f5 c1 b4 3d
       0.25953797 0.067439824 -0.2067991 0.08826057
0003f0 74 2d a9 be b0 ab 95 be 12 d0 41 3e ee f6 c7 be
       -0.3304249 -0.2923255 0.18927029 -0.3905558

bias f4 [10]
000000 59 51 f9 3c d8 7c 3c 3d 8b 64 21 bd 1e 57 4a bd
       0.030434297 0.046017498 -0.039402526 -0.049399488
000010 1a 17 5c bc 32 ba e2 ba c8 ee 23 3d 83 f4 91 bd
       -0.013433242 -0.0017297922 0.04002264 -0.07126715
000020 75 55 86 3d 77 a6 80 bd
       0.065592684 -0.06281751
