models/model.pth (torch, 252871 bytes, 10 tensors)

weight f4 [6, 1, 5, 5]
-0.03192378 -0.04555297 -0.16194926 0.1016933 -0.13358593 0.15283835 -0.06975083 -0.028993992
0.09359582 -0.08768118 0.16556726 0.056464337 0.046305116 -0.18624762 -0.12160548 0.046295732
0.007729569 -0.20207557 -0.16999713 0.06759429 -0.06889758 -0.15392663 0.040184665 0.11503469
0.2967903 0.008725689 -0.08964299 -0.057512227 0.054284688 -0.14037362 -0.17131208 -0.04531401
-0.1702664 -0.14489836 -0.11477257 -0.07019731 -0.07298466 -0.04574342 0.062214635 -0.055328153
-0.1290583 0.051959176 0.094897754 0.07998142 -0.13659751 0.15739703 -0.18944876 -0.06836761
0.045490164 0.07688532 0.33756912 0.59412473 0.3539409 -0.21073055 -0.31184056 0.35769603
0.6169682 0.21061999 -0.339287 -0.3828337 0.62878823 0.5336225 -0.14371516 -0.20693699
-0.4495819 0.49945483 0.54029125 -0.09473896 -0.30052024 -0.2528371 0.5810091 0.21199378
-0.10129945 -0.12614186 -0.27366015 0.12744744 0.001822508 -0.124434516 -0.03565984 0.024939487
0.010302118 0.048995115 -0.13309032 0.054312427 0.2400097 -0.13110141 -0.14560762 -0.08997549
-0.08073713 0.09038778 -0.15791719 -0.034864243 -0.081195764 0.098999426 0.20655966 0.070079766
0.103646256 -0.21314056 0.022216892 -0.0019975025 -0.14777252 0.15483534 -0.24208158 -0.099623114
-0.27265027 0.16341022 0.31157842 0.074249856 -0.18435675 -0.040908244 0.3542624 0.39735353
0.36537975 0.20357844 0.37915802 0.45191887 0.6730403 1.012865 0.8138723 0.33652055
0.32335445 0.439219 0.63009495 0.6752305 0.45204318 0.17566878 0.5292476 0.4551694
0.4581612 0.4051052 0.14402056 0.10137324 0.10074704 0.022107264 0.30800417 -0.074582465
-0.32239997 -0.123028554 -0.11942943 -0.2667778 -0.03917486 -0.23183821 -0.33741698 -0.17749196
-0.048103508 -0.27032894 -0.018881729 -0.0238107 -0.24689019 0.0342397
00000000: 82c2 02bd c095 3abd 07d6 25be 9444 d03d
00000010: c0ca 08be a881 1c3e 86d9 8ebd cf84 edbc
00000020: 2aaf bf3d 3192 b3bd 778a 293e 2647 673d
00000030: 6faa 3d3d b2b7 3ebe 4b0c f9bd 98a0 3d3d
00000040: 5348 fd3b e6ec 4ebe ba13 2ebe e06e 8a3d
00000050: 2d1a 8dbd f19e 1dbe ad98 243d 4f97 eb3d
00000060: e6f4 973e 31f6 0e3c be96 b7bd f191 6bbd
00000070: 9f59 5e3d 1abe 0fbe 6f6c 2fbe 2f9b 39bd
00000080: 515a 2ebe 3c60 14be e20d ebbd 9bc3 8fbd
00000090: fb78 95bd 745d 3bbd c6d4 7e3d c69f 62bd
000000a0: dc27 04be 25d3 543d c159 c23d 4ccd a33d
000000b0: 38e0 0bbe b02c 213e dbfe 41be 5104 8cbd
000000c0: e553 3a3d 0d76 9d3d dcd5 ac3e 8f18 183f
000000d0: be37 b53e c0c9 57be 91a9 9fbe ef23 b73e
000000e0: a1f1 1d3f c4ac 573e 07b7 adbe c702 c4be
000000f0: 44f8 203f 7c9b 083f 112a 13be 4ae7 53be
00000100: 992f e6be 8bb8 ff3e 8750 0a3f 8006 c2bd
00000110: cadd 99be dd73 81be 03bd 143f e614 593e
00000120: 1676 cfbd 552b 01be 2f1d 8cbe 9581 023e
00000130: 39e1 ee3a 86d7 febd 0d10 12bd e54d cc3c
00000140: 37ca 283c 1aaf 483d d448 08be b576 5e3d
00000150: 1ac5 753e 733f 06be 2a1a 15be 1245 b8bd
00000160: 8259 a5bd 3a1d b93d 0bb5 21be cfcd 0ebd
00000170: f749 a6bd 36c0 ca3d 6084 533e fb85 8f3d
00000180: 7d44 d43d 8541 5abe 3300 b63c 88e8 02bb
00000190: ae51 17be 288d 1e3e 3ce4 77be 3407 ccbd
000001a0: d198 8bbe 0255 273e 3587 9f3e 4f10 983d
000001b0: 04c8 3cbe 678f 27bd e261 b53e ec71 cb3e
000001c0: 0e13 bb3e de76 503e 0021 c23e e961 e73e
000001d0: 5e4c 2c3f 8fa5 813f ef59 503f 6c4c ac3e
000001e0: b78e a53e 50e1 e03e e74d 213f e8db 2c3f
000001f0: 3472 e73e 84e2 333e c57c 073f f70b e93e
00000200: 1b94 ea3e f369 cf3e 207a 133e c69c cf3d
00000210: 7754 ce3d 4b1a b53c b9b2 9d3e b1be 98bd
00000220: 9c11 a5be 65f6 fbbd 6b97 f4bd 1a97 88be
00000230: d175 20bd ff66 6dbe ebc1 acbe 74c0 35be
00000240: 2f08 45bd 8e68 8abe dbad 9abc a80e c3bc
00000250: c8d0 7cbe ed3e 0c3d

bias f4 [6]
-0.020417646 -0.115689546 -0.12999281 -0.16324274 0.000787919 0.12615557
00000000: e842 a7bc a4ee ecbd d61c 05be 1b29 27be
00000010: 598c 4e3a ed2e 013e

weight f4 [16, 6, 5, 5]
0.005477814 0.081511706 0.036249597 -0.07450263 0.07459834 0.09017151 -0.040285867 -0.050463825
0.07360878 -0.02650086 -0.026813187 -0.06571463 0.001947103 0.07301056 0.05049446 -0.07887126
0.029422265 0.05671796 -0.034743734 -0.07739446 0.019949008 -0.008645934 0.046638515 -0.0010963997
0.0013449368 0.022268008 0.06602254 0.060293157 -0.016962294 -0.049084168 0.05852007 0.011922591
0.014412309 0.07148291 0.08050649 0.067792304 -0.0356131 0.03139969 -0.058350403 0.030011443
-0.011217099 0.028547164 0.07793244 -7.589004e-05 -0.047553625 0.07735178 -0.03878403 -0.049536463
0.05628988 -0.02607606 0.116039515 0.030151444 -0.040180065 0.1402336 0.06041232 -0.008729039
-0.1218892 0.02108002 0.13577947 0.04656728 -0.10294502 -0.024546582 0.13547708 0.040100157
-0.11277201 -0.04789857 0.113691896 0.09830838 -0.06485492 -0.091479935 0.027720407 -0.011680892
0.034932196 -0.11981946 -0.03998443 -0.030956877 -0.067897424 -0.035611276 -0.06979548 0.001901703
0.036270637 -0.03534598 -0.019713331 0.07672062 -0.076739796 -0.052082196 -0.07173453 -0.0017537645
-0.021191454 -0.031672493 0.029210173 -0.045131717 -0.025419494 -0.025775954 -0.019898133 -0.041761104
0.065007135 0.07184389 -0.05658615 0.03927695 0.054666184 -0.118629865 -0.062223483 0.04610565
0.035665385 -0.117687315 -0.042266175 0.035198014 0.08184787 -0.09028047 0.08442174 0.048641
-0.06129532 0.022247655 -0.007603992 -0.029529149 -0.019234393 0.02702041 0.0649609 -0.024620945
0.07731833 -0.019522987 -0.055245366 0.06768681 -0.04992855 -0.07335222 -0.039584067 -0.098495424
0.017059742 0.036893446 0.097219326 -0.08735252 -0.08532236 -0.046848435 -0.06752519 -0.06292239
-0.084337346 0.06778679 -0.02077321 0.046941858 0.06839797 0.028992612 0.07620274 0.029906372
0.04750002 -0.02282863 0.030192593 0.026524784 -0.05317646 0.06153932 -0.03123192 -0.07077513
-0.062537804 0.03364653 -0.031652104 -0.039284773 0.021914244 -0.013377566 0.02292797 0.010074879
0.07939591 0.072607584 0.061558496 -0.08098562 -0.046186686 0.07304751 0.053261362 0.03167023
0.049463008 -0.02550108 -0.0735524 -0.07724902 0.041162718 0.0063252286 0.042655926 0.036450993
-0.026753256 -0.03486317 0.015070611 0.07129313 -0.068876654 0.009054975 -0.03682809 -0.018998979
0.061626762 -0.04530093 -0.015364462 0.054124642 0.026406059 0.08098148 -0.027267184 -0.027885001
-0.0621758 0.014402938 0.03392605 -0.021357741 -0.03154659 -0.04078386 0.028276678 0.026375799
-0.089087576 0.014701745 0.054246508 0.07334505 0.056510113 -0.0145437075 -0.07122702 0.0047130417
-0.15325329 0.029220903 -0.063153595 -0.13146508 -0.18157543 -0.20156434 -0.10125677 0.025476217
-0.031453762 -0.08531415 -0.062053517 -0.004921085 -0.014824929 -0.031080868 -0.058988124 -0.08741199
-0.023927333 -0.03471681 0.019942408 0.08275733 0.07127433 0.0024248164 -0.050032467 0.036082216
0.07096571 0.016814627 0.02101975 0.004503533 0.053228438 0.057534024 -0.027149327 -0.07585094
-0.08171275 0.03619355 0.06198811 -0.09413332 -0.019422784 -0.008935887 0.044666465 -0.070988275
0.051097743 0.014324766 0.038542643 -0.08273145 -0.19298528 -0.039044634 -0.119357795 0.060005028
00000000: 3c7f b33b 9cef a63d 757a 143d d694 98bd
00000010: 04c7 983d d7ab b83d cb02 25bd 28b3 4ebd
00000020: 33c0 963d 5518 d9bc 54a7 dbbc 6495 86bd
00000030: ef35 ff3a 8f86 953d 47d3 4e3d 4187 a1bd
00000040: f606 f13c 1751 683d 724f 0ebd fd80 9ebd
00000050: 1a6c a33c ada7 0dbc 0708 3f3d 12b5 8fba
00000060: 9748 b03a 666b b63c d336 873d f5f5 763d
00000070: 82f4 8abc 7b0c 49bd beb2 6f3d f956 433c
00000080: 9b21 6c3c a265 923d 96e0 a43d b1d6 8a3d
00000090: 0bdf 11bd f69c 003d d500 6fbd 8fda f53c
000000a0: ecc7 37bc bedb e93c 0b9b 9f3d 2827 9fb8
000000b0: 97c7 42bd 9c6a 9e3d 01dc 1ebd bfe6 4abd
000000c0: 3890 663d 769d d5bc 20a6 ed3d 2900 f73c
000000d0: da93 24bd 6699 0f3e e972 773d 3e04 0fbc
000000e0: 0ba1 f9bd 02b0 ac3c c609 0b3e 55bd 3e3d
000000f0: d7d4 d2bd ea15 c9bc 81ba 0a3e 1040 243d
00000100: 03f5 e6bd 4a31 44bd 4cd7 e83d e755 c93d
00000110: a8d2 84bd d559 bbbd e815 e33c 3661 3fbc
00000120: 1015 0f3d e863 f5bd b7c6 23bd 4799 fdbc
00000130: ce0d 8bbd 21dd 11bd eff0 8ebd 9042 f93a
00000140: 8590 143d f2c6 10bd da7d a1bc b31f 9d3d
00000150: c129 9dbd 2454 55bd 8ee9 92bd 92de e5ba
00000160: b399 adbc 04bb 01bd 2c4a ef3c 09dc 38bd
00000170: 8b3c d0bc 1828 d3bc 6901 a3bc b10d 2bbd
00000180: 7622 853d e422 933d e1c6 67bd dee0 203d
00000190: a6e9 5f3d 37f4 f2bd 0dde 7ebd 47d9 3c3d
000001a0: de15 123d 0c06 f1bd 4c1f 2dbd cb2b 103d
000001b0: db9f a73d f8e4 b8bd 4ee5 ac3d c93b 473d
000001c0: cd10 7bbd b740 b63c e82a f9bb 1de7 f1bc
000001d0: 7291 9dbc e859 dd3c 380a 853d ddb1 c9bc
000001e0: 1359 9e3d acee 9fbc f748 62bd 629f 8a3d
000001f0: e181 4cbd b039 96bd e722 22bd f8b7 c9bd
00000200: dfc0 8b3c 951d 173d ed1a c73d e1e5 b2bd
00000210: 7dbd aebd 25e4 3fbd a64a 8abd 74dd 80bd
00000220: 0fb9 acbd cdd3 8a3d 942c aabc 1b46 403d
00000230: 3c14 8c3d ea81 ed3c 2f10 9c3d 35fe f43c
00000240: 628f 423d 1b03 bbbc 7556 f73c 814a d93c
00000250: 8fcf 59bd a710 7c3d 15da ffbc 8df2 90bd
00000260: d213 80bd f2d0 093d a3a5 01bd 12e9 20bd
00000270: 8085 b33c 942d 5bbc 70d3 bb3c 1b11 253c
00000280: 539a a23d 49b3 943d c324 7c3d cadb a5bd
00000290: 402e 3dbd ef99 953d 9628 5a3d a5b8 013d
000002a0: b999 4a3d a4e7 d0bc a4a2 96bd bc34 9ebd
000002b0: 3d9a 283d dd43 cf3b fbb7 2e3d a34d 153d
000002c0: a529 dbbc afcc 0ebd b9ea 763c 2202 923d
000002d0: 340f 8dbd 515b 143c 0dd9 16bd bfa3 9bbc
000002e0: 586c 7c3d 788d 39bd 39bb 7bbc cdb1 5d3d
000002f0: 8551 d83c 9ed9 a53d 6e5f dfbc 166f e4bc
00000300: 0dac 7ebd 4dfa 6b3c 0bf6 0a3d 6ef6 aebc
00000310: ff36 01bd fa0c 27bd 7ea4 e73c 0f12 d83c
00000320: 8c73 b6bd 96df 703c 9631 5e3d ee35 963d
00000330: 2677 673d bb48 6ebc 79df 91bd dc6f 9a3b
00000340: 6eee 1cbe ad60 ef3c ac56 81bd c89e 06be
00000350: e9ee 39be e266 4ebe b65f cfbd 80b3 d03c
00000360: a9d5 00bd 2fb9 aebd d42b 7ebd 0e41 a1bb
00000370: 42e4 72bc 4e9d febc 889d 71bd 0f05 b3bd
00000380: 4103 c4bc 3733 0ebd 435e a33c ad7c a93d
00000390: 47f8 913d abe9 1e3b d8ee 4cbd f2ca 133d
000003a0: 7856 913d d4be 893c 9c31 ac3c 5f92 933b
000003b0: 1006 5a3d cca8 6b3d 4468 debc bd57 9bbd
000003c0: 0459 a7bd b03f 143d 3fe7 7d3d f8c8 c0bd
000003d0: 881c 9fbc d467 12bc 2ff4 363d 4d62 91bd
000003e0: de4b 513d 6cb2 6a3c e4de 1d3d 1b6f a9bd
000003f0: ef9d 45be 44ed 1fbd dc71 f4bd d5c7 753d

bias f4 [16]
-0.09871689 -0.02887618 0.053348184 0.034638025 -0.16572802 -0.19162996 0.014459357 0.037708122
-0.03285295 -0.010649865 0.18439797 0.0074846754 -0.016713126 -0.059169497 0.03716448 0.047248002
00000000: 152c cabd bd8d ecbc a083 5a3d 9ae0 0d3d
00000010: 9bb4 29be a53a 44be f0e6 6c3c d573 1a3d
00000020: d190 06bd c57c 2ebc d2d2 3c3e 0242 f53b
00000030: f7e9 88bc b75b 72bd c839 183d 1f87 413d

weight f4 [120, 400]
-0.043412324 -0.015228804 0.0043987883 0.015905274 -0.021290252 -0.022048514 0.0026702615 -0.017563865
-0.00084735703 -0.0016428832 -0.0077172015 -0.0142514 -0.02548893 0.018003946 0.01170247 0.0028676256
-0.031784836 0.0403246 0.022617526 0.059008222 0.030953206 -0.007524176 -0.005610581 0.05306593
-0.01992287 0.056885287 -0.027652565 0.045061696 -0.035801373 0.027436115 -0.0012850964 -0.01190698
-0.063694656 -0.007086201 -0.047413476 -0.012774037 -0.027165836 -0.018778754 -0.05372542 -0.011958638
-0.032817863 0.06230965 -0.0052148206 -0.010957418 -0.050205655 0.047396667 0.03366221 0.04907942
-0.045532856 -0.024227554 0.030482996 0.01531998 -0.008877263 -0.022280931 0.07044161 0.039102588
-0.026446741 -0.0069541284 -0.017426088 0.04054805 -0.016731346 -0.029837014 0.011774991 -0.047247633
0.041337155 0.026418693 -0.05684258 -0.024748342 -0.036001515 0.038247786 -0.029322896 -0.025373463
0.05057244 0.031542152 0.016324002 0.07304706 -0.0001569147 -0.0023346092 -0.06721173 -0.07128407
0.024413038 0.054254185 -0.037442446 -0.059860148 -0.010378454 0.048810612 -0.06979617 -0.07893205
0.02580077 0.02829 0.04017656 0.0638862 0.03933197 0.061325543 -0.026337167 -0.035705786
-0.021658923 0.030902337 -0.0129732955 0.023678878 0.0078919 -0.042499695 -0.0009406361 0.07747544
0.026422298 0.04004998 0.047984738 0.07421986 0.008502202 0.039859068 0.0036470387 0.0780949
-0.055814594 0.0527489 0.05380824 -0.019451808 -0.0019445673 -0.10247663 0.016174912 0.042503383
0.003391682 0.044200327 -0.022027802 0.00032284134 0.014441044 -0.06047597 -0.037999034 0.07210719
0.0428274 0.047633555 -0.0023080276 0.057394058 0.07113577 -0.015508641 -0.0122631695 -0.043260675
0.014715442 -0.0029249038 0.007950762 0.08789658 0.0043510087 -0.03313183 0.0054429555 0.060853675
0.02007528 -0.08660466 -0.051393274 -0.004997818 -0.0034829634 0.011117835 -0.00095051044 -0.011612284
0.07202938 0.031238662 -0.018136667 -0.0360103 -0.04076602 -0.04861679 0.03452508 0.05272347
-0.0075189364 -0.023313588 -0.007859669 0.062188108 0.019580241 0.031788226 0.07536864 -0.009081995
0.039466176 0.035579305 0.019181529 -0.02573571 0.026356773 -0.04085519 0.02224615 0.04955867
-0.034949463 -0.020232975 -0.025496326 -0.050433096 -0.01286917 0.057712365 0.040125016 -0.0755565
-0.03024533 -0.005955403 0.04169004 -0.08403112 -0.057459004 -0.021493513 0.035046265 -0.009463925
-0.062018678 -0.040455747 0.092102855 -0.050495505 -0.0128642395 0.024988558 0.08614124 0.08679483
-0.02756063 -0.05631811 -0.016520046 0.07329896 0.053582143 -0.019449834 -0.023560842 -0.016898962
0.090864696 0.04108927 -0.032140255 0.021979798 -0.025193794 0.06703112 0.06411248 -0.028593693
-0.036820825 0.0053823 0.01581003 0.05588309 -0.017803762 -0.03850562 -0.025042195 0.028344786
0.010308446 0.002650046 0.0006362618 -0.05691669 0.0019152072 -0.031465016 0.01836698 -0.008220073
0.045550827 -0.0067823348 -0.079113595 0.013059618 -0.024241982 -0.11988763 -0.014626994 0.032242782
0.023618171 -0.016896416 -0.07096366 0.052241534 0.058190458 0.03990301 0.08730183 -0.0077120815
0.013935412 -0.034032155 0.074562944 0.046720408 0.025917642 -0.04754223 -0.04808376 -0.059796024
00000000: 1fd1 31bd 3c82 79bc b623 903b c74b 823c
00000010: e568 aebc 169f b4bc 8eff 2e3b 18e2 8fbc
00000020: 2b21 5eba 0356 d7ba 94e0 fcbb b47e 69bc
00000030: 29ce d0bc 037d 933c b7bb 3f3c c6ee 3b3b
00000040: d130 02bd 682b 253d 6448 b93c 9bb2 713d
00000050: 9491 fd3c 5d8d f6bb f7d8 b7bb a95b 593d
00000060: 4935 a3bc 8c00 693d a287 e2bc 9d92 383d
00000070: 76a4 12bd b4c1 e03c ae70 a8ba 7e15 43bc
00000080: 5872 82bd 5d33 e8bb a234 42bd 324a 51bc
00000090: e38a debc e7d5 99bc 300f 5cbd 2aee 43bc
000000a0: 066c 06bd 6738 7f3d 16e1 aabb be86 33bc
000000b0: 72a4 4dbd 0223 423d 63e1 093d 8007 493d
000000c0: a980 3abd dd78 c6bc 7ab7 f93c a700 7b3c
000000d0: f171 11bc 8086 b6bc b143 903d 092a 203d
000000e0: d6a6 d8bc 75df e3bb 28c1 8ebc b615 263d
000000f0: 2d10 89bc c16c f4bc e4eb 403c bc86 41bd
00000100: 2651 293d 046c d83c c4d3 68bd 09bd cabc
00000110: 5376 13bd b6a9 1c3d 9236 f0bc 02dc cfbc
00000120: 0c25 4f3d 5832 013d eab9 853c b299 953d
00000130: 7889 24b9 3e00 19bb 4ea6 89bd 62fd 91bd
00000140: dafd c73c a339 5e3d 405d 19bd ea2f 75bd
00000150: 640a 2abc a3ed 473d 4bf1 8ebd 20a7 a1bd
00000160: 235c d33c 6ec0 e73c 2d90 243d c5d6 823d
00000170: 8f1a 213d 7e30 7b3d 0bc1 d7bc 3b40 12bd
00000180: 0e6e b1bc e626 fd3c f28d 54bc 35fa c13c
00000190: 074d 013c 2914 2ebd 0595 76ba 72ab 9e3d
000001a0: 9373 d83c 730b 243d a58b 443d 9500 983d
000001b0: d24c 0b3c 4343 233d 2803 6f3b 38f0 9f3d
000001c0: d89d 64bd 3b0f 583d 0766 5c3d 6659 9fbc
000001d0: dae0 feba 44df d1bd 4081 843c 0718 2e3d
000001e0: fb46 5e3b 670b 353d a673 b4bc 0843 a939
000001f0: 219a 6c3c a7b5 77bd e0a4 1bbd efac 933d
00000200: c96b 2f3d 671b 433d 4742 17bb 0816 6b3d
00000210: a1af 913d f417 7ebc 76eb 48bc 1b32 31bd
00000220: 0a19 713c beaf 3fbb ea43 023c 1f03 b43d
00000230: e892 8e3b 3eb5 07bd d25a b23b b441 793d
00000240: ea74 a43c c95d b1bd c181 52bd bcc4 a3bb
00000250: 6e42 64bb 9427 363c ad2b 79ba 7341 3ebc
00000260: 2484 933d 39e8 ff3c 5993 94bc 897f 13bd
00000270: 45fa 26bd 6622 47bd 2c6a 0d3d 91f4 573d
00000280: 6961 f6bb 23fc bebc d7c5 00bc f5b8 7e3d
00000290: be66 a03c 5f34 023d e05a 9a3d a6cc 14bc
000002a0: 49a7 213d 9bbb 113d 9522 9d3c b2d3 d2bc
000002b0: 29ea d73c c657 27bd 8f3d b63c 08fe 4a3d
000002c0: 2b27 0fbd a0bf a5bc acdd d0bc ef92 4ebd
000002d0: 36d9 52bc cd63 6c3d 215a 243d 5ebd 9abd
000002e0: 0ec5 f7bc 8b25 c3bb 2dc3 2a3d 8218 acbd
000002f0: 225a 6bbd 2a13 b0bc ac8c 0f3d 940e 1bbc
00000300: 4c07 7ebd edb4 25bd 6ca0 bc3d 60d4 4ebd
00000310: 88c4 52bc ceb4 cc3c d26a b03d 7dc1 b13d
00000320: d5c6 e1bc d2ad 66bd 0c55 87bc c41d 963d
00000330: f378 5b3d 4255 9fbc ab02 c1bc b16f 8abc
00000340: 4517 ba3d 394d 283d 80a5 03bd fa0e b43c
00000350: 3763 cebc 9d47 893d 674d 833d 523d eabc
00000360: 6fd1 16bd 015e b03b 0984 813c abe5 643d
00000370: 32d9 91bc 12b8 1dbd 4a25 cdbc 5333 e83c
00000380: c2e4 283c 65ac 2d3b ceca 263a 7a21 69bd
00000390: b107 fb3a 76e1 00bd 5976 963c 7cad 06bc
000003a0: 8193 3a3d 593e debb 4f06 a2bd 02f8 553c
000003b0: 1f97 c6bc a587 f5bd 0fa6 6fbc 0211 043d
000003c0: e57a c13c 5a6a 8abc 6555 91bd 38fb 553d
000003d0: 1e59 6e3d 5771 233d 4dcb b23d a1b5 fcbb
000003e0: 5b51 643c 4d65 0bbd 75b4 983d e65d 3f3d
000003f0: 3c51 d43c a4bb 42bd 7af3 44bd adec 74bd

bias f4 [120]
-0.0074200747 -0.032393727 0.030488033 0.0007832807 0.02108722 0.08024876 0.038548477 -0.036698
0.039442793 -0.020640085 -0.009967514 0.027257314 -0.004907332 0.037966296 0.0029297771 -0.0032090421
0.007606656 -0.029727206 0.0058135064 0.035232954 -0.00046620797 -0.0025215286 0.003490377 0.06697782
-0.01089403 -0.042753737 -0.0058357064 0.003363658 0.07060789 0.0026409416 -0.042942397 -0.01787039
0.017469632 -0.01976954 -0.01836011 0.050545868 0.034424327 -0.021751588 -0.0034603816 0.048051953
-0.0010109182 -0.008556005 0.038644686 0.021901406 -0.023342958 0.018458389 0.023012035 0.030556493
0.032887455 -0.013975804 0.0064076376 0.049981594 -0.046085235 0.03942895 0.008580769 -0.03423466
0.051246185 0.05843593 -0.0020845514 -0.012433827 0.04285413 -0.04527102 0.03287005 0.00074479164
-0.04141948 -0.040367477 -0.045409493 -0.043171324 0.046842244 -0.018893277 -0.039315574 0.07851882
0.023574278 -0.03657211 -0.045683324 0.043929614 -0.009802733 0.012658488 0.0033803487 -0.0050972323
0.021043656 0.05062076 0.00887267 0.043950174 0.048791554 0.040872697 0.038990352 0.050838005
-0.006756661 -0.047286496 0.037365075 -0.033914402 0.015299759 -0.022742772 0.018377852 -0.037622213
0.025863083 -0.04030661 -0.04652734 0.0067360955 -0.013513083 0.024333585 -0.023222506 0.0066186027
0.016645188 0.03134018 -0.03420685 0.022307878 -0.014489318 -0.00271415 0.036202352 0.058686644
-0.033601843 -0.018287018 -0.018051026 -0.036577802 0.021763777 0.0208885 0.0002422891 0.05311003
00000000: 1924 f3bb 49af 04bd 0ac2 f93c 1455 4d3a
00000010: 1bbf ac3c 7659 a43d 02e5 1d3d a450 16bd
00000020: c48e 213d 6515 a9bc c94e 23bc bb4a df3c
00000030: afcd a0bb 8c82 1b3d 8101 403b cb4e 52bb
00000040: 4141 f93b 7886 f3bc 3a7f be3b 6e50 103d
00000050: 606d f4b9 3b40 25bb cfbe 643b ab2b 893d
00000060: e07c 32bc 8b1e 2fbd 7439 bfbb d170 5c3b
00000070: df9a 903d a613 2d3b 5ee4 2fbd ed64 92bc
00000080: 791c 8f3c bbf3 a1bc f167 96bc 2f09 4f3d
00000090: 8600 0d3d 6330 b2bc 92c7 62bb 20d2 443d
000000a0: c980 84ba 7c2e 0cbc e449 1e3d 946a b33c
000000b0: bb39 bfbc 0c36 973c bc83 bc3c 9c51 fa3c
000000c0: ffb4 063d c5fa 64bc 29f7 d13b 80b9 4c3d
000000d0: dfc3 3cbd 4080 213d 5b96 0c3c a539 0cbd
000000e0: 85e7 513d 845a 6f3d f89c 08bb 40b7 4bbc
000000f0: d087 2f3d 1b6e 39bd bfa2 063d 1f3e 433a
00000100: 79a7 29bd 5e58 25bd 4eff 39bd 6ad4 30bd
00000110: a7dd 3f3d 13c6 9abc 5e09 21bd 7ace a03d
00000120: d81e c13c a3cc 15bd 701e 3bbd 8aef 333d
00000130: a49b 20bc 8c65 4f3c d788 5d3b af06 a7bb
00000140: bf63 ac3c b757 4f3d ad5e 113c 1905 343d
00000150: a7d9 473d 216a 273d 59b4 1f3d 833b 503d
00000160: fb66 ddbb 7caf 41bd 1f0c 193d d4e9 0abd
00000170: d7ab 7a3c 0d4f babc 268d 963c c019 1abd
00000180: d1de d33c 8b18 25bd 7493 3ebd 77ba dc3b
00000190: fa65 5dbc 3a57 c73c 203d bebc dde0 d83b
000001a0: 7d5b 883c 905e 003d 7b1c 0cbd 03bf b63c
000001b0: 9b64 6dbc e1df 31bb eb48 143d 6861 703d
000001c0: 16a2 09bd a8ce 95bc bfdf 93bc 9bd2 15bd
000001d0: f349 b23c 5c1e ab3c fc0e 7e39 e789 593d

weight f4 [84, 120]
-0.01466584 0.03578307 0.050054662 -0.08365199 0.08427535 0.13443337 -0.036732905 0.06230416
-0.081209525 0.058191307 0.08662887 0.012472807 0.08974401 0.04215427 -0.012313496 -0.028474515
0.0076490673 0.04155698 -0.0703462 0.07107398 0.01840316 -0.006843819 0.023487696 -0.07002124
-0.03086164 0.004236246 -0.07503608 -0.028771251 -0.03637199 -0.06620007 0.062205855 -0.060297728
0.100803025 0.0088921515 0.06730979 -0.055098824 -0.04329513 0.04642307 -0.012385935 -0.06425807
-0.05270163 0.09874186 -0.026096059 -0.0065159677 0.057396807 -0.055815306 -0.05295566 -0.015791096
-0.03531559 0.07107891 -0.02445992 0.042960968 0.047809772 -0.02701996 -0.06442963 -0.0013667063
-0.06345641 -0.0426271 0.017338324 -0.06014327 0.0036966386 -0.02863349 0.0423805 0.09900729
0.023617364 -0.06744061 0.028700737 -0.02195814 0.065574 -0.055793356 0.0105889905 0.028734623
-0.016203118 -0.09274836 0.009580866 -0.06534536 -0.061137773 0.035103314 -0.029889038 0.064277895
-0.0548285 0.0013614222 0.018148396 0.06806043 0.032403775 0.0727849 0.111766264 0.0064812633
-0.0413805 -0.079615854 -0.11702961 -0.019633796 0.10154481 0.042252164 0.035883874 -0.005579848
-0.021113627 0.08210835 0.03869158 0.07850324 -0.009836612 -0.054548007 0.09099384 -0.009485934
-0.04614512 0.061271764 -0.056870222 -0.00075767364 -0.008562735 -0.041145567 -0.010373732 -0.066980235
0.06958764 0.04588137 0.064237714 -0.004768895 -0.037001085 -0.06433246 -0.034670115 -0.047641505
-0.0757703 -0.11968567 -0.10405141 0.06362324 -0.036477458 0.11763339 -0.08488981 -0.045452334
-0.05198564 0.009858477 -0.067469664 -0.0141568305 -0.001983591 0.009427726 -0.029054075 -0.025138251
0.017342938 -0.030258607 0.13259088 0.060046606 -0.014483212 0.032352928 0.06037841 0.060133692
0.13429591 0.0368832 -0.033812553 0.077781014 0.0072707795 -0.08948986 0.039366793 0.07207715
0.043042786 0.035556458 -0.07714009 0.020557873 0.014116864 -0.041461337 -0.037799317 -0.02778906
0.036942516 0.018239059 0.13186604 -0.020447325 -0.011222306 0.12422039 0.08991589 0.01715323
-0.01281353 -0.07242436 -0.084622644 0.029616658 0.05696457 0.10773233 -0.022392917 0.040705584
0.017261233 -0.0492711 0.07859586 -0.09973721 0.06903775 0.020158062 0.13990572 0.107976735
-0.056373432 -0.08528939 0.03354152 0.06673593 0.0042170365 0.08580697 -0.094070755 0.03647516
0.087787844 -0.060614657 -0.08441135 0.031679105 0.057527356 0.08335711 -0.0471736 -0.013756761
0.076834306 0.051877595 -0.0010353266 0.10340245 0.079341464 0.06663289 0.023946064 -0.053906016
-0.039656293 -0.07384852 -0.08385729 0.0443779 -0.047114316 0.016220694 -0.06797524 -0.06889332
-0.030135082 0.02060302 -0.063592836 -0.06857979 -0.015561657 0.05689747 0.08327496 0.046945613
0.007012971 0.04142906 0.001393908 0.053928595 0.08565942 -0.08722413 -0.0031418295 -0.1361891
-0.07177745 -0.027732093 -0.09639763 -0.07494421 0.070723005 -0.08349277 -0.0010608212 -0.019562852
-0.043953285 -0.054806523 -0.04870323 0.041803114 0.103978 0.09772311 -0.019952092 -0.05039484
0.002999823 -0.042561054 -0.0719683 0.06658317 -0.017962726 -0.036312725 0.069590576 -0.005657931
00000000: fe48 70bc 4591 123d 1e06 4d3d bc51 abbd
00000010: 8e98 ac3d e7a8 093e 3e75 16bd a632 7f3d
00000020: 2e51 a6bd 025a 6e3d 7a6a b13d bf5a 4c3c
00000030: b5cb b73d f5a9 2c3d 8cbe 49bc 6343 e9bc
00000040: 07a5 fa3b a737 2a3d ab11 90bd 3c8f 913d
00000050: 39c2 963c 1d42 e0bb 4569 c03c 4c67 8fbd
00000060: 8dd1 fcbc 35d0 8a3b 84ac 99bd b0b1 ebbc
00000070: ccfa 14bd e793 87bd 91cb 7e3d c0fa 76bd
00000080: d171 ce3d 63b0 113c b7d9 893d 4eaf 61bd
00000090: 3c56 31bd 1e26 3e3d 60ee 4abc bc99 83bd
000000a0: aadd 57bd 2c39 ca3d 67c7 d5bc e683 d5bb
000000b0: ea18 6b3d 979e 64bd 09e8 58bd 545c 81bc
000000c0: 15a7 10bd d291 913d 2c60 c8bc d7f7 2f3d
000000d0: 2ed4 433d f758 ddbc aff3 83bd 0e23 b3ba
000000e0: 6ff5 81bd c199 2ebd 1a09 8e3c ca58 76bd
000000f0: 4e43 723b c890 eabc 2d97 2d3d 56c4 ca3d
00000100: 3479 c13c 4d1e 8abd cf1d eb3c 8fe1 b3bc
00000110: a94b 863d 9387 64bd 727d 2d3c df64 eb3c
00000120: 67bc 84bc daf2 bdbd 11f9 1c3c cad3 85bd
00000130: 9a6b 7abd 7ec8 0f3d dbd9 f4bc 21a4 833d
00000140: d993 60bd c071 b23a f2ab 943c 4463 8b3d
00000150: d2b9 043d 4010 953d b6e5 e43d c760 d43b
00000160: 997e 29bd a30d a3bd 38ad efbd 0ed7 a0bc
00000170: baf6 cf3d 9b10 2d3d f8fa 123d 28d7 b6bb
00000180: 7cf6 acbc 6c28 a83d 107b 1e3d 4fc6 a03d
00000190: be29 21bc bb6d 5fbd fa5a ba3d e46a 1bbc
000001a0: aa02 3dbd 1af8 7a3d c0f0 68bd 9e9e 46ba
000001b0: b74a 0cbc 4188 28bd 96f6 29bc ef2c 89bd
000001c0: f783 8e3d 1aee 3b3d 108f 833d 6444 9cbb
000001d0: 738e 17bd bdc0 83bd 4002 0ebd bd23 43bd
000001e0: 762d 9bbd c31d f5bd e818 d5bd e74c 823d
000001f0: 6369 15bd c6e9 f03d b5da adbd 3a2c 3abd
00000200: e5ee 54bd 7385 213c 892d 8abd 0df2 67bc
00000210: 22ff 01bb c076 1a3c d002 eebc bcee cdbc
00000220: c712 8e3c e6e0 f7bc e7c5 073e 6ef3 753d
00000230: fe4a 6dbc 8184 043d 5a4f 773d bf4e 763d
00000240: de84 093e d712 173d 087f 0abd a74b 9f3d
00000250: b83f ee3b 7646 b7bd 133f 213d 2f9d 933d
00000260: a24d 303d a6a3 113d a0fb 9dbd fc68 a83c
00000270: 6b4a 673c 5dd3 29bd 75d3 1abd e2a5 e3bc
00000280: 0951 173d 146a 953c e407 073e 2681 a7bc
00000290: c3dd 37bc 4367 fe3d d225 b83d ee84 8c3c
000002a0: d7ef 51bc 3953 94bd a34e adbd a29e f23c
000002b0: ae53 693d c5a2 dc3d 5a71 b7bc e6ba 263d
000002c0: 6e67 8d3c 7ed0 49bd def6 a03d 0643 ccbd
000002d0: aa63 8d3d 8522 a53c 7243 0f3e e822 dd3d
000002e0: d4e7 66bd 34ac aebd d562 093d d9ac 883d
000002f0: 112f 8a3b 91bb af3d 2ba8 c0bd fa66 153d
00000300: 1dca b33d 1347 78bd dcdf acbd f3c1 013d
00000310: cea1 6b3d 22b7 aa3d 1b39 41bd 0a64 61bc
00000320: 4e5b 9d3d 9a7d 543d ccb3 87ba aac4 d33d
00000330: c77d a23d d376 883d 892a c43c 8ecc 5cbd
00000340: a36e 22bd e53d 97bd 5fbd abbd 9ac5 353d
00000350: f1fa 40bd 43e1 843c 9a36 8bbd f117 8dbd
00000360: d9dd f6bc aac7 a83c f63c 82bd 9073 8cbd
00000370: 52f6 7ebc 520d 693d 108c aa3d 0b4a 403d
00000380: 11cd e53b 85b1 293d cbb3 b63a 3be4 5c3d
00000390: 356e af3d 91a2 b2bd 27e7 4dbb 2875 0bbe
000003a0: 0e00 93bd 6a2e e3bc 1f6c c5bd 5a7c 99bd
000003b0: 39d7 903d 42fe aabd 410b 8bba 4642 a0bc
000003c0: 5c08 34bd ce7c 60bd 0a7d 47bd be39 2b3d
000003d0: 6bf2 d43d 0e23 c83d 9272 a3bc d26a 4ebd
000003e0: ae98 443b 8054 2ebd 1e64 93bd c25c 883d
000003f0: 9126 93bc a7bc 14bd 8185 8e3d 2a66 b9bb

bias f4 [84]
-0.0851303 -0.021769268 -0.044967387 0.08786868 -0.021864632 -0.04683461 -0.02935556 0.114241295
-0.020345656 0.039486155 -0.07270369 0.059895553 -0.028323084 -0.027613645 0.10030173 -0.017778482
0.09537812 -0.03477383 0.09720317 -0.0028530313 -0.03830203 -0.052458372 0.1134823 0.12106635
0.004440012 -0.03236344 0.05445448 0.019797288 -0.0025897946 0.06116187 -0.009841412 0.06169683
-0.004316507 0.104945526 -0.023772698 0.03716241 0.10624374 0.09670123 -0.07389164 -0.012541065
0.02025551 0.044197023 0.08295092 -0.010212833 -0.00686524 0.063039415 -0.06259101 0.08615384
-0.05762028 0.02127906 -0.035228625 0.045863613 -0.079348855 -0.04453119 0.015720565 0.07515368
0.04569854 0.06816805 -0.041653987 0.033306018 -0.01705084 -0.060608868 -0.023662847 -0.055890772
0.101198114 -0.009701148 0.07416874 0.047532894 -0.046357226 -0.06601123 -0.057455048 -0.052013885
0.05896786 0.064399906 0.15028235 -0.0762938 0.031745926 -0.055688143 -0.09519553 0.07954521
-0.06837629 0.116261005 0.037536457 0.08130395
00000000: cb58 aebd 7755 b2bc b92f 38bd 7ff4 b33d
00000010: 751d b3bc a6d5 3fbd 127b f0bc 57f7 e93d
00000020: efab a6bc 3cbc 213d ace5 94bd 0a55 753d
00000030: d005 e8bc 0336 e2bc fe6a cd3d 2ea4 91bc
00000040: 9b55 c33d 016f 0ebd 7512 c73d ecf9 3abb
00000050: 97e2 1cbd 97de 56bd 6869 e83d a2f1 f73d
00000060: 857d 913b 878f 04bd a90b 5f3d ec2d a23c
00000070: 8bb9 29bb de84 7a3d e03d 21bc d1b5 7c3d
00000080: 7c71 8dbb aeed d63d f6be c2bc 9c37 183d
00000090: 5196 d93d 4b0b c63d 8054 97bd 0a79 4dbc
000000a0: e2ee a53c f007 353d 2ce2 a93d ba53 27bc
000000b0: cff5 e0bb cf1a 813d b72f 80bd 6d71 b03d
000000c0: 3e03 6cbd 6c51 ae3c e44b 10bd 7cdb 3b3d
000000d0: a781 a2bd 5666 36bd 6ac8 803c 2cea 993d
000000e0: 642e 3b3d b19b 8b3d 5f9d 2abd e46b 083d
000000f0: 34ae 8bbc 0141 78bd 96d8 c1bc b9ed 64bd
00000100: f540 cf3d 90f1 1ebc c8e5 973d dab1 423d
00000110: 13e1 3dbd e530 87bd fc55 6bbd 830c 55bd
00000120: 4888 713d 19e4 833d 9ee3 193e ec3f 9cbd
00000130: 0408 023d 4019 64bd e0f5 c2bd 99e8 a23d
00000140: de08 8cbd 401a ee3d d4bf 193d af82 a63d

weight f4 [10, 84]
0.07958364 0.06258409 0.045676045 0.2174735 0.089985475 0.012855951 0.31143475 -0.10336089
-0.084416576 -0.1671554 -0.05975543 -0.14284348 -0.049999148 0.050067846 -0.18199138 -0.080999665
-0.06499701 -0.1149413 -0.083889395 -0.12759958 0.05694014 0.15238592 -0.16812174 0.10466967
0.16179152 -0.07818185 -0.073745064 -0.09994765 -0.11442163 0.0019317458 0.11401219 0.18372136
-0.03206104 -0.031680446 0.11889089 0.013489143 -0.006189264 0.06460029 0.19239035 -0.08141387
-0.06762847 0.12257936 -0.36595258 -0.12178953 -0.069413014 -0.21577144 -0.101308815 -0.08525786
-0.18628635 -0.0958647 -0.050825503 0.1427787 0.12691097 -0.07781872 -0.12934788 -0.07781239
0.01390449 0.07935498 -0.10051617 -0.17675182 0.18384518 0.027826 -0.1919526 0.10873734
-0.012265902 -0.03163444 0.29757422 -0.032720707 -0.047868278 -0.13366008 0.11399133 0.008079004
0.06698885 -0.17885315 -0.05259234 0.24761258 0.14523263 -0.11288165 0.12868923 0.012257117
-0.013888769 0.1703134 0.07451127 -0.04716982 0.009910665 -0.19975197 -0.1335494 -0.02518319
-0.0031141597 -0.20003115 -0.052269477 -0.16136125 -0.06863131 -0.1609242 -0.15548222 0.1612359
0.15108505 -0.0272978 0.030009614 -0.22568275 -0.22545876 0.0833738 0.38515192 0.18501726
-0.00602582 -0.036087234 -0.023669872 0.06736866 -0.0557326 0.12016395 0.15604822 0.20444366
0.05641011 0.22465625 0.1420179 0.2417616 0.0769522 0.09068173 -0.14705296 0.17347018
-0.054164704 -0.1503328 0.08269849 -0.0034171264 -0.21320191 -0.26429456 0.23808488 -0.21001658
-0.014678929 0.07712774 -0.07757532 0.1391696 0.09329072 0.036039673 -0.00069469237 -0.10036435
-0.07257374 0.13755189 0.06556033 0.1709907 0.30874628 0.0010875403 -0.030746916 0.029133862
-0.104102306 0.08270401 -0.2363945 -0.023732126 -0.05910353 -0.021528564 -0.10894268 0.15979533
0.035215683 -0.062242385 -0.09365702 0.0517306 0.14460514 -0.20739128 0.09233361 -0.028928725
-0.22372831 0.11746392 -0.04649986 -0.036671948 0.04155558 -0.2426981 -0.0660854 -0.22813803
-0.088187516 -0.19856901 -0.011667094 -0.15262046 0.017703405 0.23737432 -0.18627873 -0.18049708
-0.0037431223 -0.09064573 0.06707536 0.0258231 0.22360262 0.05668039 -0.0560154 0.0940277
0.31607363 -0.12072345 0.21344022 -0.2826747 -0.06207501 0.046955302 -0.15389818 0.12028169
0.0798731 0.009032687 0.07646028 -0.17726587 -0.0060658837 0.13142873 0.038860224 -0.04852996
-0.058624875 0.053543076 0.05145451 0.113710426 -0.29934344 -0.042661466 -0.06849357 0.08536733
0.011135856 -0.032700915 0.136227 0.15584974 0.09047514 0.0023322133 -0.1325031 0.044842698
0.042111337 -0.094305284 0.0630182 0.20842832 0.025314923 -0.06957404 -0.13401546 -0.07999476
0.17061633 -0.04098616 0.021902613 -0.15084104 0.07246225 -0.021267459 -0.04035271 -0.2173167
-0.17066495 0.045080863 0.092401326 -0.15514795 0.01724325 0.25530654 0.34303004 0.043493394
-0.091722 -0.18306465 -0.21206488 -0.0860149 -0.08001403 -0.04468817 0.11246605 -0.28034177
-0.08191356 0.07425749 -0.088963486 0.028965317 -0.012818826 -0.0046236687 -0.0356815 -0.06756568
00000000: bffc a23d 162c 803d ce16 3b3d 60b1 5e3e
00000010: 4e4a b83d c4a1 523c 6074 9f3e e0ae d3bd
00000020: 99e2 acbd c92a 2bbe 1cc2 74bd 9045 12be
00000030: e8cb 4cbd f113 4d3d f35b 3abe 27e3 a5bd
00000040: 271d 85bd 5866 ebbd 34ce abbd 77a9 02be
00000050: 103a 693d 0e0b 1c3e 1b28 2cbe 0d5d d63d
00000060: adac 253e ce1d a0bd a707 97bd 5bb1 ccbd
00000070: e355 eabd a232 fd3a 397f e93d 7421 3c3e
00000080: 7052 03bd 5bc3 01bd 117d f33d 9101 5d3c
00000090: 4fcf cabb 284d 843d fa01 453e 51bc a6bd
000000a0: cc80 8abd e30a fb3d 235e bbbe ca6c f9bd
000000b0: 6928 8ebd 30f3 5cbe ff7a cfbd ac9b aebd
000000c0: d9c1 3ebe b654 c4bd 672e 50bd 9434 123e
000000d0: f3f4 013e 6c5f 9fbd c573 04be 1a5c 9fbd
000000e0: a8cf 633c dd84 a23d 6cdb cdbd 6efe 34be
000000f0: e941 3c3e 5af3 e33c 398f 44be afb1 de3d
00000100: ecf6 48bc 1d93 01bd a65b 983e 2606 06bd
00000110: 8711 44bd 30de 08be 4974 e93d cc5d 043c
00000120: 7331 893d 4825 37be 116b 57bd 278e 7d3e
00000130: ddb7 143e 7f2e e7bd 1cc7 033e 13d2 483c
00000140: b88d 63bc a366 2e3e 5d99 983d 2435 41bd
00000150: 5860 223c c88b 4cbe 2dc1 08be fa4c cebc
00000160: ee16 4cbb f7d4 4cbe 8518 56bd e23b 25be
00000170: 928e 8cbd 50c9 24be bb36 1fbe 061b 253e
00000180: 0ab6 1a3e a39f dfbc b9d6 f53c 6119 67be
00000190: a9de 66be e2bf aa3d a232 c53e 2a75 3d3e
000001a0: 3e74 c5bb 35d0 13bd 52e7 c1bc 94f8 893d
000001b0: de47 64bd 8418 f63d 1bcb 1f3e ae59 513e
000001c0: 4a0e 673d 4a0c 663e 246d 113e 5a90 773e
000001d0: 1d99 9d3d 58b7 b93d 0d95 16be 2ba2 313e
000001e0: cfdb 5dbd d7f0 19be d35d a93d def1 5fbb
000001f0: 9a51 5abe 9e51 87be 86cc 733e 960e 57be
00000200: e47f 70bc 26f5 9d3d cfdf 9ebd 7a82 0e3e
00000210: 340f bf3d 569e 133d 041c 36ba d38b cdbd
00000220: 8aa1 94bd 67da 0c3e 7f44 863d 3018 2f3e
00000230: fe13 9e3e cc8b 8e3a f5e0 fbbc 23aa ee3c
00000240: 9733 d5bd b860 a93d 6611 72be e069 c2bc
00000250: 8b16 72bd ac5c b0bc 571d dfbd 63a1 233e
00000260: 523e 103d dff1 7ebd 40cf bfbd 77e3 533d
00000270: 5f13 143e 615e 54be 6719 bd3d effb ecbc
00000280: 0919 65be ec90 f03d a376 3ebd 5335 16bd
00000290: 2f36 2a3d da85 78be c857 87bd 049d 69be
000002a0: a89b b4bd ad55 4bbe 5727 3fbc 8a48 1cbe
000002b0: bb06 913c 4112 733e dabf 3ebe 3ad4 38be
000002c0: 2c4f 75bb 78a4 b9bd ce5e 893d f78a d33c
000002d0: 16f8 643e b229 683d 6770 65bd 9891 c03d
000002e0: 67d4 a13e db3d f7bd 1390 5a3e bdba 90be
000002f0: 5e42 7ebd 3454 403d 7c97 1dbe 3f56 f63d
00000300: 8294 a33d d6fd 133c 3597 9c3d 2f85 35be
00000310: 52c4 c6bb 4195 063e e62b 1f3d 5ac7 46bd
00000320: a320 70bd fc4f 5b3d f7c1 523d 03e1 e83d
00000330: 8b43 99be cabd 2ebd 5b46 8cbd 11d5 ae3d
00000340: 2a73 363c 65f1 05bd 177f 0b3e 1397 1f3e
00000350: 084b b93d 0cd8 183b e5ae 07be faac 373d
00000360: f07c 2c3d 2123 c1bd b00f 813d 3c6e 553e
00000370: 3e61 cf3c d67c 8ebd 593b 09be 4bd4 a3bd
00000380: 0cb6 2e3e 1be1 27bd 1c6d b33c 1376 1abe
00000390: 1767 943d 1839 aebc e248 25bd 4588 5ebe
000003a0: cbc2 2ebe b6a6 383d e83c bd3d 1bdf 1ebe
000003b0: b741 8d3c 8ab7 823e a2a1 af3e 2126 323d
000003c0: bed8 bbbd 4d75 3bbe 8927 59be 9428 b0bd
000003d0: 65de a3bd f10a 37bd 9a54 e63d f588 8fbe
000003e0: 4cc2 a7bd 5014 983d 7d32 b6bd ac48 ed3c
000003f0: 0e06 52bc 2582 97bb c426 12bd e05f 8abd

bias f4 [10]
-0.03302366 0.115800135 -0.0054525523 0.013055936 -0.030816963 -0.0038847737 0.0026754173 0.034915857
0.06462632 -0.002598127
00000000: d143 07bd 9f28 ed3d 53ab b2bb 91e8 553c
00000010: db73 fcbc b097 7ebb 0e56 2f3b ee03 0f3d
00000020: ce5a 843d 5645 2abb
