models/model.pth (torch, 252871 bytes, 10 tensors)

weight f4 [6, 1, 5, 5]
0	0x3d594559	0.05304465
1	0x3e9a7a70	0.30171537
2	0x3d616348	0.055026323
3	0x3d02e344	0.03195502
4	0x3e35c35a	0.17750302
5	0xbc6ff629	-0.0146460915
6	0x3e520e74	0.20513326
7	0x3eabcd3d	0.33555022
8	0xbc87166a	-0.01649018
9	0xbd297dc9	-0.041379724
10	0xbdded820	-0.10881066
11	0xbdd82723	-0.1055434
12	0x3d7f043e	0.062259905
13	0x3e72ee8a	0.23723808
14	0x3da22b47	0.07918411
15	0x3c514dd3	0.012774902
16	0xbe4acb72	-0.1980417
17	0xbe3e570f	-0.18587898
18	0x3d3f0c0e	0.046642356
19	0x3d410e2d	0.04713266
20	0xbe2bc7e8	-0.16775477
21	0xbe719433	-0.2359169
22	0xbe9008f6	-0.28131837
23	0xbe8bf32b	-0.2733396
24	0xbcb1351b	-0.021631768
25	0xbe39e264	-0.18152767
26	0xbe22ec1f	-0.15910386
27	0xbe80343c	-0.25039852
28	0xbecbba7d	-0.39790717
29	0xbead0ac7	-0.33797285
30	0xbec4dff7	-0.38452122
31	0xbe8c33c3	-0.2738324
32	0xbeed4582	-0.46342093
33	0xbe49a7c2	-0.19692901
34	0xbe78318f	-0.24237655
35	0xbea84244	-0.32863057
36	0xbe8a6d95	-0.2703673
37	0x3e39a432	0.18129042
38	0x3d7078c2	0.058708914
39	0x3e8ec2d3	0.27883014
40	0x3e6f0f91	0.23345782
41	0x3dcdfebc	0.10058352
42	0x3d0a68cf	0.03379136
43	0x3e4bf0c3	0.19916062
44	0x3e5d2e61	0.21599723
45	0x3e68948a	0.22712913
46	0x3de68667	0.11256104
47	0x3e3eae0a	0.18621078
48	0xbc5c026e	-0.013428314
49	0x3d84aeb8	0.064786375
50	0xbe603afe	-0.21897504
51	0x3e02d806	0.12777719
52	0x3e64e5b3	0.22353248
53	0x3e638adf	0.22220944
54	0x3d18d966	0.037316702
55	0xbe979433	-0.29605255
56	0xbe2f58a7	-0.17123662
57	0xbdc729d9	-0.09724779
58	0x3ca82b38	0.02052842
59	0x3e2632ac	0.16230267
60	0xbe4efe6c	-0.20214242
61	0xbdbbe1b1	-0.091739066
62	0x3e520bbf	0.20512293
63	0x3e8197e3	0.25311193
64	0x3c4fc995	0.012682338
65	0xbe9d7da2	-0.30759913
66	0x3e39b203	0.18134312
67	0xbdd8b702	-0.10581781
68	0x3e6e5505	0.2327462
69	0x3e74fb4a	0.23923984
70	0x3d0590f2	0.032608934
71	0x3e2545fa	0.16139975
72	0x3e59c4aa	0.21266428
73	0xbd8570c7	-0.06515651
74	0x3e5e88e1	0.21731903
75	0x3e06cfb6	0.13165173
76	0xbe492080	-0.19641304
77	0xbe922c2b	-0.28549322
78	0xbdcabc71	-0.098992236
79	0x3cd19e7e	0.02558827
80	0xbcebb60a	-0.028773326
81	0xbe4b74ef	-0.19868825
82	0xbe04db5c	-0.12974304
83	0xbe234658	-0.15944803
84	0xbe0c45be	-0.1369848
85	0x3e798f13	0.24370985
86	0xbc94a794	-0.018146314
87	0x3e140c21	0.14457752
88	0xbb85e6fc	-0.0040863734
89	0xbd9a9872	-0.07548608
90	0x3e882851	0.2659326
91	0x3df8536f	0.12125289
92	0x3dc5f338	0.09665531
93	0x3e879988	0.26484323
94	0xbe0d8a97	-0.13822399
95	0x3e11bbf1	0.1423185
96	0x3e1c84e3	0.15285067
97	0xbbe55d32	-0.006999635
98	0x3e40ce53	0.18828706
99	0x3e5bacc3	0.21452622
100	0xbe1157d4	-0.1419366
101	0xbe79200b	-0.2432863
102	0xbe8558b7	-0.26044247
103	0xbd6d9029	-0.05799881
104	0xbe3f3a12	-0.18674496
105	0xbd3fe701	-0.046851162
106	0xbe812ec3	-0.2523099
107	0xbe619ffe	-0.22033688
108	0xbe76541b	-0.24055521
109	0xbe37a318	-0.17933309
110	0xbd8c2cf1	-0.068445094
111	0xbda32273	-0.07965555
112	0xbe4f369e	-0.20235679
113	0xbe3e035e	-0.18555972
114	0xbe365b88	-0.17808354
115	0x3eb4a282	0.35280234
116	0xbe4ceb2f	-0.2001159
117	0xbe424c00	-0.18974304
118	0xbdb982b8	-0.09058136
119	0xbdbdd781	-0.0926962
120	0x3eefa827	0.46807978
121	0x3bbaba15	0.0056984522
122	0xbe1916db	-0.14950125
123	0xbe846958	-0.2586162
124	0x3e7541f6	0.23950943
125	0xbc443b9f	-0.011977105
126	0xbc0d97d6	-0.008642158
127	0xbe10ad46	-0.14128599
128	0x3e450f3b	0.19244091
129	0x3d96012f	0.073244445
130	0x3dab6ca1	0.08370329
131	0x3eb40c67	0.35165712
132	0x3e39358e	0.18086836
133	0x3de2f6fa	0.11082263
134	0x3dc00048	0.09375054
135	0xbec1bb70	-0.37838316
136	0xbe545c33	-0.20738296
137	0x3d8027ed	0.06257615
138	0xbc1b15b5	-0.009465625
139	0x3e22fc5c	0.1591658
140	0xbed1449a	-0.4087265
141	0xbec578d4	-0.38568747
142	0xbed69755	-0.41912332
143	0xbe5b15ee	-0.21395084
144	0xbe8d3f95	-0.27587572
145	0x3eb991a3	0.36243924
146	0xbdc8ea97	-0.098103695
147	0xbd8be96e	-0.068316326
148	0xbe782f96	-0.24236903
149	0xbe3078f9	-0.17233647

bias f4 [6]
0	0x3c9a0a5d	0.01880377
1	0x3e136b3c	0.14396375
2	0x3c84e2b2	0.016221378
3	0xbd1c63ba	-0.038181044
4	0x3c300a7b	0.010744686
5	0x3e2795b3	0.163657

weight f4 [16, 6, 5, 5]
0	0x3cd8ecfb	0.026480189
1	0xbe801c77	-0.25021717
2	0xbe40f527	-0.18843518
3	0x3c9183bf	0.017763017
4	0x3dbfbc2a	0.09362061
5	0xbd97d2cf	-0.074132554
6	0xbde8c0e0	-0.11364913
7	0xbdbfd4cc	-0.0936676
8	0x3db865db	0.090038024
9	0x3e59cc63	0.21269374
10	0x3c1ceb02	0.009577515
11	0xbe23128d	-0.15925045
12	0x3cf17522	0.029474799
13	0x3d70326b	0.058641832
14	0x3def92a7	0.116978936
15	0xbd3a70a6	-0.045517586
16	0xbe31d20d	-0.17365284
17	0xbd905d15	-0.07049004
18	0xbdb6778f	-0.08909523
19	0xbddbc1e1	-0.10730339
20	0xbe06bd08	-0.13158047
21	0xbc2fb372	-0.010723935
22	0xbe1de7aa	-0.15420404
23	0xbd9958ec	-0.074876636
24	0xbd663fe1	-0.056213263
25	0x3d8db989	0.06920154
26	0x3d6b51f7	0.057451215
27	0x3c570895	0.013124605
28	0x3dee5e3a	0.11639066
29	0x3e37075d	0.17873903
30	0x3d3106c8	0.043219358
31	0x3d665989	0.05623773
32	0xbc5831c7	-0.013195462
33	0xbb8f1a57	-0.0043671536
34	0x3d284b29	0.041087303
35	0x3d7e5ae2	0.06209839
36	0xba8f166c	-0.0010916716
37	0xbe0c0dc0	-0.1367712
38	0xbdc1377b	-0.0943441
39	0x3e4f99b2	0.20273474
40	0xbdf2c50e	-0.118539914
41	0xbe95c33c	-0.29250515
42	0xbe2752cb	-0.16340177
43	0x3dde925e	0.10867761
44	0x3d31250b	0.043248218
45	0xbe269209	-0.16266645
46	0xbe878559	-0.26468924
47	0xbd4c6589	-0.04990152
48	0x3d79a29f	0.060946103
49	0x3d843698	0.064557254
50	0x3bfff3e4	0.0078110565
51	0x3cb213df	0.02173799
52	0x3ded41dd	0.11584828
53	0x3da351fa	0.0797462
54	0xbd9338fe	-0.07188605
55	0xbd21a82c	-0.03946702
56	0x3de27d37	0.11059039
57	0x3e1c465d	0.15261216
58	0xbe550b8a	-0.20805183
59	0xbe6df8f6	-0.23239502
60	0x3de410cd	0.11136017
61	0x3cb754de	0.022379335
62	0x3c317ae3	0.010832521
63	0xbda5e7cd	-0.08100853
64	0xbdb88827	-0.09010344
65	0x3d5826ef	0.052771505
66	0x3db84c23	0.08998897
67	0x3db28c95	0.0871822
68	0xbd81a4cc	-0.06330261
69	0xbd1163d1	-0.035495583
70	0x3d9ce60f	0.07661068
71	0x3e13ccda	0.14433613
72	0x3de8dd48	0.11370331
73	0x3bdf807e	0.0068207374
74	0xbddc63f2	-0.107612506
75	0xbd54037e	-0.051761143
76	0x3d9ebf20	0.07751298
77	0xbd93fd2d	-0.07226024
78	0x3d67be87	0.056578185
79	0xbd6056f6	-0.054770432
80	0xbd37d045	-0.044876356
81	0xbd14e2d1	-0.03634912
82	0xbcd0b1f2	-0.025475476
83	0x3d36df6d	0.04464667
84	0xbd7854cf	-0.060627755
85	0xbd60506e	-0.054764204
86	0x3c808947	0.015690459
87	0xbc58cdb9	-0.013232642
88	0xbd61b117	-0.055100527
89	0xbbf254ac	-0.0073953476
90	0xbe5015ca	-0.20320812
91	0xbbfdfa9e	-0.007750823
92	0xbd7a37d0	-0.061088383
93	0x3e232456	0.1593183
94	0xbd3582c2	-0.044314153
95	0xbe2d768c	-0.16939753
96	0x3d97671b	0.07392713
97	0x3d6fbe6d	0.058531214
98	0x3de09ebe	0.10967778
99	0x3d27d7f3	0.04097743
100	0x3dc73ced	0.097284175
101	0x3e1c12c0	0.15241528
102	0xbba9e53c	-0.0051847976
103	0x3d8613a0	0.06546712
104	0x3c235673	0.009969342
105	0x3db50881	0.088395126
106	0x3d489bd2	0.048976727
107	0xbdda589d	-0.10661433
108	0xbe02b26c	-0.12763375
109	0x3c7728b3	0.015085387
110	0x3dc866f6	0.09785263
111	0xbc8cc58f	-0.017184047
112	0xbda29a1a	-0.07939549
113	0xbd85a1ba	-0.065249875
114	0x3dc47008	0.09591681
115	0xbd424073	-0.047424745
116	0xbc97e1f7	-0.018540366
117	0xbcf215cc	-0.02955141
118	0x3da478bf	0.08030843
119	0x3d91f01a	0.07125874
120	0xbddcf323	-0.10788562
121	0xbdb0a0c7	-0.08624416
122	0xbcdd6ac0	-0.027028441
123	0x3d327238	0.04356596
124	0x3c6bf8b4	0.014402557
125	0x3dd17957	0.10228222
126	0xbdb01817	-0.08598345
127	0xbe0ed088	-0.13946736
128	0xbde472c0	-0.11154699
129	0x3d03021e	0.03198444
130	0xbd170c21	-0.0368768
131	0xbe66736c	-0.22504967
132	0xbd5f9c4c	-0.054592416
133	0x3da981c6	0.082767054
134	0x3e28fc2e	0.16502449
135	0xbd2e6cc9	-0.042584214
136	0xbe8b195a	-0.2716778
137	0xbdb88643	-0.090099834
138	0x3cba0f51	0.022712382
139	0x3e337f23	0.17528968
140	0xbe52c9e9	-0.20584835
141	0xbe5a8fee	-0.21343967
142	0xbdabe5a4	-0.0839341
143	0xbce2736e	-0.027642932
144	0x3e10048e	0.14064237
145	0xbde6fd78	-0.11278814
146	0xbdbef4e3	-0.09324052
147	0xbde1bd6c	-0.110224575
148	0xbcc2a19a	-0.023758698
149	0x3e017324	0.12641579
150	0x3c5c3d53	0.013442355
151	0x3dd062c8	0.10175091
152	0x3e05c191	0.13062121
153	0xbc6c9b4d	-0.0144413235
154	0xbd8dddd0	-0.06927073
155	0xbc9cb681	-0.019129993
156	0xbd0fabfc	-0.035076126
157	0x3cb4d022	0.022071902
158	0xbd870fdd	-0.065948226
159	0xbdef7c53	-0.11693635
160	0x3e180352	0.14845017
161	0x3d5c212e	0.05374258
162	0xbd8c1160	-0.068392515
163	0xbd8f1b5a	-0.06987639
164	0x3e04603f	0.1292734
165	0xbd35261e	-0.044225805
166	0x3d6176d4	0.055044964
167	0x3e126e26	0.14299831
168	0xbb8c9fb2	-0.004291498
169	0x3de9cbfe	0.114158615
170	0xbc003ed2	-0.0078274775
171	0x3dcefaeb	0.101064526
172	0x3d74ad0d	0.059735347
173	0xbc8b8194	-0.017029561
174	0x3d02f680	0.031973362
175	0x3d59df6d	0.05319159
176	0xbcded359	-0.027200388
177	0xbc92bde6	-0.017912816
178	0x3c67f754	0.014158089
179	0x3d45418b	0.04815821
180	0x3df2edab	0.11861738
181	0x3d634b09	0.05549148
182	0x3d961638	0.07328457
183	0x3d8ed3a8	0.06973964
184	0x3c95bbf4	0.0182781
185	0xbd2dec87	-0.0424619
186	0x3dce6077	0.10076993
187	0x3da1bec0	0.07897711
188	0x3dd36850	0.103226304
189	0x3bc24a50	0.005929269
190	0xbdaa7993	-0.0832397
191	0xbd80cd44	-0.06289151
192	0xbd2592bc	-0.04042314
193	0xbdc3fb6b	-0.095694385
194	0x3c941f9e	0.018081482
195	0xbd5d53c8	-0.05403498
196	0xbe243e24	-0.1603933
197	0xbdf302eb	-0.11865791
198	0xbd2376e8	-0.03990832
199	0x3d4f2aab	0.0505778
200	0x3a32aa75	0.0006815561
201	0xbd9856c0	-0.07438421
202	0xbbef0e19	-0.0072953817
203	0xbd8ebd47	-0.069696955
204	0x3d895602	0.06705858
205	0xbb0bac7d	-0.0021312528
206	0x3c4e8714	0.012605447
207	0xbd866562	-0.06562306
208	0x3d649d5e	0.05581414
209	0x3de33a87	0.110951476
210	0xbd96a3a0	-0.07355428
211	0xbbe91ad8	-0.0071137957
212	0x3d08f0bc	0.033432707
213	0xbd41d432	-0.047321506
214	0xbd641aa8	-0.055689484
215	0x3da3d4aa	0.07999547
216	0xbd9ed6e7	-0.07755833
217	0xbd89d090	-0.06729233
218	0xbdd5ce84	-0.1043978
219	0xbdfb93d3	-0.122840546
220	0x3c193bfb	0.009352679
221	0xbd442cf0	-0.04789442
222	0xbce02b31	-0.027364345
223	0xbcee2b98	-0.029073521
224	0xbb88ceb4	-0.0041750316
225	0xbc800673	-0.015628075
226	0xbcb0d2e0	-0.021584928
227	0xbd0f78bb	-0.035027247
228	0x3d8e1c67	0.06939011
229	0x3cbff237	0.023430927
230	0x3d9eff23	0.07763507
231	0x3db830c1	0.08993674
232	0x3dd63524	0.104593545
233	0x3d6520ad	0.055939365
234	0x3d82d17d	0.06387613
235	0x3d5ec11d	0.054383386
236	0xbd42520a	-0.04744152
237	0x3db46e77	0.08810132
238	0x3c7d0d9b	0.015445138
239	0xbca8e569	-0.020617204
240	0x3ca0b830	0.019619077
241	0x3cac2b0a	0.021016616
242	0xbdefd5c5	-0.11710695
243	0xbda41fef	-0.08013903
244	0xbd2ddad7	-0.04244503
245	0x3d8b486f	0.06800925
246	0x3d5b350e	0.053517394
247	0x3ba9d869	0.005183269
248	0x3da07020	0.07833886
249	0x3e032cf8	0.12810123
250	0xbbfef6f3	-0.0077809035
251	0xbda160e6	-0.0787981
252	0x3d8e9571	0.069620974
253	0xbd720ea1	-0.059095982
254	0x3c8bd1bc	0.017067783
255	0x3a890208	0.0010452876

bias f4 [16]
0	0x3e019fc7	0.12658606
1	0x3d3ce14e	0.046113305
2	0x3d3b8db1	0.045789424
3	0xbc9cbc78	-0.019132838
4	0x3dd2d126	0.10293798
5	0xbc9cecbf	-0.019155858
6	0x3dfb426c	0.12268528
7	0x3b7d90a8	0.0038690958
8	0xbc87f53f	-0.016596435
9	0x3dc58114	0.0964376
10	0x3cfecd68	0.031103805
11	0xbd40f91a	-0.04711256
12	0x3d3692b6	0.04457351
13	0xbd620f00	-0.055190086
14	0x3daee47b	0.08539673
15	0xbdaf1caf	-0.08550393

weight f4 [120, 400]
0	0xbca111a6	-0.019661736
1	0xbd63e9ac	-0.05564277
2	0x3d054293	0.032534193
3	0x3d3e1d72	0.0464148
4	0xbc48df13	-0.012260216
5	0x3dbb5e98	0.09148902
6	0xbc1ebdb2	-0.009688782
7	0xba42e7ff	-0.0007435083
8	0x3ce079bb	0.027401796
9	0xbd1fcd88	-0.03901437
10	0xbd1fb129	-0.038987312
11	0x3d31048a	0.04321722
12	0x3d0d3de7	0.034482863
13	0xbbc62374	-0.006046707
14	0xbce043f7	-0.027376158
15	0x3dda853b	0.10669943
16	0x3d20714f	0.03917056
17	0xbdb1b927	-0.08677893
18	0xbd9e1c6c	-0.07720265
19	0xbccaf39d	-0.024774367
20	0x3d0d3cd8	0.034481853
21	0xbe11947e	-0.14216802
22	0xbd36f79a	-0.044669725
23	0x3d7e4854	0.062080696
24	0xbd0a6db0	-0.033796012
25	0xbd023c19	-0.031795595
26	0x3b6a8479	0.0035784526
27	0x3ca2f36f	0.019891469
28	0x3cb55645	0.022135863
29	0x3cab3242	0.020897988
30	0xbce7f7c5	-0.028316388
31	0x3d21fc7e	0.039547436
32	0x3d56eac2	0.052469976
33	0x3cdf1a43	0.027234202
34	0x3d5175c8	0.051137716
35	0xbd7ae62f	-0.061254676
36	0xbc800239	-0.01562606
37	0xbdb3266d	-0.087475635
38	0xbccaa122	-0.024735037
39	0x3c5e9ce2	0.013587208
40	0xbac84907	-0.0015280553
41	0xbc7b4555	-0.015336354
42	0xbc492e89	-0.012279161
43	0x3d0a057e	0.033696644
44	0xbdd5fbaf	-0.104483955
45	0xbc617784	-0.013761405
46	0x3d1df30b	0.038561862
47	0x3ca76ab5	0.020436624
48	0xbd59681d	-0.053077806
49	0xbdef13f6	-0.11673729
50	0x3d10448a	0.035221614
51	0x3d1f2f5c	0.038863525
52	0x3db6119b	0.08890077
53	0x3da68e55	0.081326164
54	0x3c998f72	0.018745158
55	0x3b91313a	0.004430917
56	0xbc97c647	-0.018527163
57	0x3d72acfd	0.059247006
58	0xbdcb7573	-0.09934511
59	0x3cf9b855	0.030483404
60	0x3d696550	0.056981385
61	0xbc81d4f9	-0.015848624
62	0xbe34a501	-0.17641069
63	0xbc279759	-0.010228955
64	0xbd05bfb2	-0.032653518
65	0x3c8c9270	0.01715967
66	0xbd0ec2cd	-0.034853745
67	0x3d81ac0f	0.06331646
68	0xbb9c1029	-0.0047626686
69	0xbdb89c17	-0.09014147
70	0xbca4143f	-0.020029185
71	0xbd6b3b5d	-0.05742966
72	0x3c2ee017	0.010673544
73	0x3d9de1ee	0.07709108
74	0x3d83e2ad	0.06439719
75	0x3c231748	0.009954281
76	0x3c94c489	0.018160122
77	0x3c6fd3a0	0.014637858
78	0xbc11dfe0	-0.008903474
79	0x3d5b8218	0.053590864
80	0xbdd6ec70	-0.104943156
81	0xbcdd5f0d	-0.027022863
82	0xbc721747	-0.014776058
83	0x3cad2315	0.021134892
84	0x3cf46380	0.029832602
85	0xbdc92e38	-0.09823269
86	0xbc885b7f	-0.016645191
87	0xbd0fc226	-0.035097264
88	0xbda64c89	-0.08120067
89	0x3d9cda81	0.07658864
90	0xbd4a42fd	-0.04938029
91	0x3d43bb8f	0.04778629
92	0x3d7960ee	0.060883455
93	0xbd589d20	-0.05288422
94	0xbdab5fa1	-0.08367849
95	0xbc9bcf30	-0.019019693
96	0x3dba8066	0.09106521
97	0x3ce62b01	0.028096678
98	0x3bd86b41	0.0066045825
99	0xbd01427e	-0.031557553
100	0x3d0a8b9b	0.033824544
101	0xbbb05ec5	-0.005382391
102	0x3d374481	0.044743065
103	0x3cdce644	0.026965268
104	0x3cfe0a3e	0.031010743
105	0xbcf4c4a4	-0.029878922
106	0x3e0ad1b2	0.13556555
107	0x3e344fe3	0.176086
108	0x3d6b2e89	0.057417426
109	0x3d9f6bb4	0.077842146
110	0x3d2d4da3	0.04231037
111	0x3cdce25d	0.026963407
112	0xbc5be2d9	-0.013420784
113	0xbccc65b9	-0.024950849
114	0xbc8a3ed0	-0.016875654
115	0x3cc2e2af	0.023789732
116	0x3d1e4d44	0.038647905
117	0xbd163929	-0.036675606
118	0xbd808214	-0.062748104
119	0xbc58fe6d	-0.013244254
120	0x3cb1237a	0.021623362
121	0x3d8acd05	0.067773856
122	0x3d21c38e	0.039493136
123	0xbda32d5c	-0.07967636
124	0xbca22bea	-0.01979633
125	0x3d126662	0.03574217
126	0x3d811cb7	0.06304305
127	0x3dbe2789	0.092848845
128	0x3de42a6e	0.11140905
129	0x3d928dcc	0.07155952
130	0xbd9cc9cc	-0.07655677
131	0xbd444929	-0.047921333
132	0xbc908ac4	-0.017644294
133	0x3dae87e5	0.085220136
134	0x3ceef881	0.02917123
135	0xbd329355	-0.043597538
136	0x3cb43bdc	0.0220012
137	0x3b8bdc6e	0.0042682206
138	0x3d83d570	0.06437194
139	0x3cffdc87	0.031233085
140	0xbd7c0ce2	-0.061535724
141	0xbc1e3b4b	-0.009657691
142	0x3d1a0fa1	0.03761256
143	0xbda75f7a	-0.081725076
144	0xbcaa306e	-0.020775046
145	0x3d47b0cd	0.048752595
146	0x3bcbc730	0.0062188134
147	0xbc015f46	-0.00789625
148	0x3d06e6b8	0.032934874
149	0x3c9e0dc0	0.019293666
150	0xbd8e0aa3	-0.069356225
151	0x3d3a59d9	0.04549584
152	0x3c778bc0	0.015109003
153	0xbbeb646e	-0.007183603
154	0x3d81bc96	0.06334798
155	0x3dbe98bd	0.09306476
156	0x3e1eae19	0.154961
157	0x3e0069d9	0.12540378
158	0x3ab6e475	0.0013953584
159	0xba614988	-0.0008594026
160	0x3db25d23	0.08709171
161	0x3d3db31e	0.046313398
162	0x3a4c4647	0.00077924546
163	0xbd3e8046	-0.04650905
164	0xbda725ac	-0.08161482
165	0xbc78efff	-0.015193938
166	0xbcc46813	-0.023975408
167	0xbdd08a43	-0.10182621
168	0xbdbdc015	-0.09265152
169	0xbd0df1ea	-0.034654535
170	0x3de31b08	0.1108914
171	0x3d3f5df0	0.046720445
172	0xbdbc8c48	-0.09206444
173	0xbe39708c	-0.1810934
174	0xbd61c1f2	-0.0551166
175	0xbd989c1b	-0.0745165
176	0xbccb895a	-0.024845768
177	0xbd733ed2	-0.059386082
178	0xbd348e16	-0.044080816
179	0x3d069e24	0.03286566
180	0xbde6b513	-0.11265006
181	0xbb20ef60	-0.002455674
182	0x3bdf1b3a	0.0068086656
183	0x3d69bd7a	0.057065465
184	0xbd0ed3c6	-0.03486993
185	0xbb464396	-0.0030252687
186	0x3cd4796e	0.025936808
187	0xbc1df842	-0.009641709
188	0x3d9dce07	0.07705312
189	0x3d424495	0.047428686
190	0xbda03588	-0.0782271
191	0xbb2f8485	-0.0026781869
192	0x3d6a66e4	0.05722703
193	0xbcf53c84	-0.029936083
194	0xbd27d8d1	-0.040978257
195	0xbb6ef038	-0.00364591
196	0x3c22ee5b	0.009944524
197	0x3daf1b70	0.08550155
198	0xbd495a61	-0.049158458
199	0xbc9e3344	-0.019311555
200	0xbdc22c4b	-0.094811045
201	0x3bcd2d19	0.0062614796
202	0xbd529e9e	-0.0514208
203	0x3cc73514	0.024317302
204	0xbbb8d31f	-0.005640402
205	0xbd8b135f	-0.06790804
206	0x3ce34da1	0.027746977
207	0x3d804095	0.06262318
208	0x3d211931	0.039330665
209	0x3cff2dc5	0.031149754
210	0xbd905fd3	-0.07049527
211	0xbd7b46d5	-0.061346848
212	0xbbbdbec0	-0.0057905614
213	0x3d4d624d	0.050142575
214	0xbc59e66c	-0.013299566
215	0x3d40aaab	0.04703776
216	0x3c8dcca2	0.01730949
217	0xbd9591ce	-0.07303201
218	0xbd01819f	-0.031617757
219	0xbd4683d4	-0.048465565
220	0x3c386d5c	0.011256542
221	0x3d218977	0.039437737
222	0x3cf827e3	0.030292457
223	0xbb02c1d6	-0.001995196
224	0xbdc97d98	-0.09838408
225	0xbc995c3a	-0.018720735
226	0xbc3951d3	-0.011311012
227	0x3cdf151c	0.027231745
228	0xbc4f3f08	-0.012649305
229	0x3d98b6b9	0.074567266
230	0x3d2d05d8	0.0422419
231	0x3c4f9135	0.012668897
232	0x3b3b7648	0.0028604437
233	0xbd0e4cde	-0.034741275
234	0xbc9ee758	-0.019397423
235	0x3d7d010c	0.061768577
236	0xb9be77bd	-0.00036328836
237	0x3cbb3de4	0.02285666
238	0xbcc43cd9	-0.023954796
239	0x3d214764	0.039374724
240	0x3d486383	0.048923027
241	0x3d0c3648	0.034231454
242	0xbdb45a56	-0.08806293
243	0xbcaabd2d	-0.02084216
244	0x3d405855	0.04695924
245	0x3cae38a6	0.021267246
246	0x3d9722b0	0.07379663
247	0x3d0d2fbf	0.034469362
248	0x3d0e066c	0.034674093
249	0xbc808d4a	-0.015692372
250	0x3c253238	0.010082774
251	0x3d964f7f	0.073393814
252	0x3dcd4a5d	0.10023949
253	0xb968783b	-0.00022170033
254	0x3d533794	0.051566675
255	0x3cc4084f	0.023929743

bias f4 [120]
0	0xba7577e5	-0.0009363874
1	0x3c89ffcd	0.016845608
2	0x3d61b8f9	0.055108044
3	0xbd596ea2	-0.053084023
4	0x3d040aae	0.032236747
5	0x3bde5ce1	0.0067859744
6	0xbd213ee6	-0.039366625
7	0x3d05864a	0.03259877
8	0xbd3256f5	-0.04353996
9	0x3c6e2175	0.014534344
10	0x3d0d830b	0.0345488
11	0x3d35f5c8	0.04442385
12	0x3ccd56c5	0.025065789
13	0xbd70ccca	-0.058789052
14	0xbd1385be	-0.03601622
15	0xbcc7c3d3	-0.024385368
16	0x3d5d02a7	0.053957608
17	0xbd330065	-0.043701548
18	0x3cd485bc	0.025942676
19	0xbb833697	-0.0040043104
20	0xbc6e7f0a	-0.014556656
21	0x3caa9fb2	0.020828102
22	0x3d975f5d	0.07391236
23	0x3cedadb7	0.029013498
24	0x3d31d9b3	0.043420505
25	0x3d32a41f	0.04361355
26	0xbd734b97	-0.05939826
27	0xbc9e3c67	-0.019315911
28	0xbc6441d3	-0.013931709
29	0x3cbf6b6c	0.023366652
30	0x3d194414	0.03741844
31	0xbbc8f1cb	-0.0061323396
32	0x3c494174	0.012283672
33	0xbc2d6045	-0.0105820345
34	0x3c3eeba1	0.011652858
35	0xbcbc36be	-0.022975322
36	0xbceb5685	-0.02872778
37	0xbaf53506	-0.0018707819
38	0x3b844b50	0.0040372983
39	0x3b09a40b	0.0021002318
40	0x3cd78d2d	0.026312435
41	0x3d0a4dc3	0.033765566
42	0xbc755357	-0.014973483
43	0xbc6902da	-0.014221871
44	0xbbf535ec	-0.0074832346
45	0x3c6afc47	0.014342374
46	0xbba9ee5d	-0.005185886
47	0x3d469316	0.048480116
48	0xbc1104c8	-0.008851238
49	0xbd44b9f4	-0.0480289
50	0x3d28f62e	0.0412504
51	0xbd5db611	-0.05412871
52	0x3d149bc1	0.03628135
53	0x3c18975b	0.00931343
54	0xbd3771d1	-0.04478628
55	0x3d881164	0.06643942
56	0xba6b0fed	-0.00089669117
57	0x3cd23c58	0.02566354
58	0x3cd74750	0.026279122
59	0xba36b856	-0.0006970217
60	0xbd11d8c6	-0.035607122
61	0xbd3e6eaa	-0.046492256
62	0xbd1ffb73	-0.03905816
63	0xbcc6348d	-0.02419498
64	0x3ce3c05d	0.027801687
65	0x3c2d8a42	0.010592045
66	0x3d60136f	0.054706033
67	0x3d1de1a5	0.03854527
68	0xbc24eb98	-0.010065936
69	0x3cf4eb5f	0.02989739
70	0x3d064c02	0.03278733
71	0x3b5829b4	0.0032983841
72	0x3c8542da	0.016267229
73	0xbd124f6a	-0.035720266
74	0x3c70c44d	0.014695239
75	0xba9d7127	-0.0012011871
76	0x3c4b3884	0.012403611
77	0x3c546e81	0.012965799
78	0xbb0a845e	-0.0021136026
79	0x3ca06770	0.019580573
80	0x3dbabe58	0.091183364
81	0x3c66015c	0.01403841
82	0xbcdebb51	-0.027188929
83	0x3cf0466b	0.029330453
84	0x3d64742c	0.055774853
85	0x3ca35868	0.019939616
86	0x3cde9627	0.027171208
87	0x3d1355f5	0.035970647
88	0x3d0c25f5	0.034215886
89	0xbbf8ad67	-0.0075890305
90	0x3d9d8aa9	0.07692463
91	0xbcc42b66	-0.023946475
92	0xbc912f38	-0.017722711
93	0xbc49161f	-0.0122733405
94	0x3ce58e5b	0.028021982
95	0x3c87854c	0.016543053
96	0x3d428da4	0.04749836
97	0xbd145085	-0.036209602
98	0x3d3f4b98	0.04670295
99	0xbcb7cb81	-0.022435905
100	0xbc9cf136	-0.019157987
101	0x3c118c43	0.008883539
102	0xbc5576c9	-0.013028809
103	0x3bfc902b	0.007707616
104	0xbcd1b73a	-0.025600065
105	0x3d2fc7f7	0.04291531
106	0xbc9abc3f	-0.01888859
107	0x3d8a7125	0.06759862
108	0xbc52aaa8	-0.01285807
109	0xbc734337	-0.014847568
110	0xbb85aa94	-0.0040791724
111	0xbd39c9f7	-0.045358624
112	0x3b546155	0.0032406647
113	0x3cb00cd0	0.021490484
114	0xbcc9340d	-0.024560953
115	0xbd038a9a	-0.032114603
116	0xbbcb8351	-0.0062107225
117	0x3c04d338	0.008106999
118	0xbcda6659	-0.026660131
119	0xbcc03bab	-0.023465952

weight f4 [84, 120]
0	0x3e3332a0	0.1749978
1	0xbca79012	-0.02045444
2	0xbba4946c	-0.005022576
3	0x3bfeef90	0.007780023
4	0x3b8eef69	0.004362036
5	0x3d9aae26	0.075527474
6	0x3d8b40da	0.06799479
7	0x3cd79b10	0.026319057
8	0x3ba3edbe	0.0050027063
9	0x3d8b6ffe	0.0680847
10	0xbd1ec905	-0.038765926
11	0xbe138b42	-0.14408591
12	0x3d690a87	0.056894805
13	0x3def98cc	0.116990656
14	0xbd72173b	-0.059104186
15	0xbd24d0f6	-0.040238343
16	0xbde52d5d	-0.11190293
17	0x3db92fd5	0.09042326
18	0x3e024802	0.12722781
19	0xbc82f336	-0.015985113
20	0xbdcd03db	-0.10010501
21	0xbca31dc3	-0.019911652
22	0x3d623e97	0.05523547
23	0x3bc68a8b	0.006058996
24	0xbd8174f4	-0.06321135
25	0xbd3c41a2	-0.04596103
26	0xbd0d06c0	-0.034430265
27	0x3dc1ad0c	0.09456834
28	0xbd5bb6ea	-0.053641237
29	0x3da9cf5f	0.08291506
30	0x3ddb5363	0.10709264
31	0xbd0d24ec	-0.03445904
32	0x3dca606f	0.098816745
33	0x3da56b05	0.08077053
34	0x3d7ec7c9	0.06220225
35	0xbd2fd326	-0.042925976
36	0xbd4e0dc4	-0.050306097
37	0x3cf52690	0.029925615
38	0xbd380769	-0.044928942
39	0x3e3190ef	0.17340444
40	0xbd8cc241	-0.068729885
41	0xbda48ea7	-0.08035021
42	0x3e10fe00	0.14159393
43	0x3d5d2908	0.05399421
44	0x3d8eaa29	0.06966049
45	0xbda6d25c	-0.081455916
46	0xbdc042bf	-0.09387731
47	0xbd006cfc	-0.031353936
48	0x3c4dc19c	0.012558367
49	0xbdec170b	-0.115278326
50	0x3d90382b	0.07041963
51	0xbcb4dab4	-0.022076942
52	0x3c8bf2af	0.017083494
53	0xbd9eddee	-0.077571735
54	0x3c6804dc	0.014161315
55	0x3dc637da	0.096786216
56	0xbe072519	-0.13197745
57	0x3e2a1868	0.16610873
58	0xbc392595	-0.011300464
59	0x3dfd653d	0.12372825
60	0xbcac32da	-0.021020342
61	0x3d8f9a83	0.07011893
62	0x3cb03206	0.021508228
63	0xbd98d872	-0.07463159
64	0x3c9c919c	0.0191124
65	0xbcc27bac	-0.023740612
66	0x3de8a369	0.11359293
67	0x3dc3a1e3	0.09552362
68	0x3d50634c	0.050875947
69	0x3d196987	0.037454154
70	0xbd48b8ac	-0.04900424
71	0x3e16ae5e	0.14714953
72	0x3b0c94e7	0.0021451057
73	0xbcfbcf25	-0.030738423
74	0x37ca5b52	2.41228e-05
75	0xbc4b82bf	-0.012421309
76	0x3e2d227a	0.16907683
77	0xbcb38c81	-0.021917583
78	0xbd5d3d9e	-0.05401384
79	0x3e008924	0.12552315
80	0x3c6f138d	0.014592064
81	0x3dec4f01	0.11538506
82	0xbd8c5f8c	-0.068541616
83	0xbde0df76	-0.10980122
84	0x3ddb0c88	0.106957495
85	0xbd0087a2	-0.03137935
86	0xbdea054e	-0.11426793
87	0xbe48e085	-0.19616897
88	0x3dcc58f3	0.09977903
89	0x3c3762d7	0.011192999
90	0x3dc8421d	0.09778235
91	0x3db5ef4f	0.08883535
92	0x3df3bb37	0.11900943
93	0xbda7c536	-0.08191912
94	0x3cc8bc32	0.024503801
95	0xbcab9ab5	-0.020947793
96	0x3e002122	0.12512639
97	0x3dce3494	0.10068622
98	0x3d2abd3d	0.041684378
99	0x3bebde46	0.007198128
100	0xbda1f949	-0.079088755
101	0xbb2c4b8b	-0.0026290144
102	0xbc1365ca	-0.008996436
103	0xbd53f171	-0.05174393
104	0x3d74772d	0.059683967
105	0xbd1234ab	-0.03569476
106	0x3d1501b7	0.03637859
107	0x3df290ff	0.11844062
108	0x3d85148a	0.06498058
109	0x3b111a11	0.002214078
110	0xbd20815f	-0.039185878
111	0x3cbaad4f	0.022787718
112	0xbe07fb2b	-0.13279407
113	0xbcee11d6	-0.02906124
114	0xbd12ed8e	-0.03587108
115	0x3d5ed26b	0.05439989
116	0x3ccbdc45	0.024885306
117	0x3d23d662	0.039999373
118	0x3de12a03	0.10994341
119	0x3cfd0386	0.03088547
120	0x3c93fabc	0.018063895
121	0x3de2ed58	0.11080426
122	0xbc90dee2	-0.017684404
123	0x3c37f6ac	0.011228245
124	0xbda8d748	-0.08244187
125	0xbd04aab5	-0.03238936
126	0xbb7424a1	-0.0037253278
127	0xbd16f1a7	-0.03685155
128	0xbd844efc	-0.064603776
129	0xbd2a3fbc	-0.041564688
130	0xbc51b878	-0.012800328
131	0xbd055c67	-0.032558825
132	0xbb83dd2a	-0.0040241675
133	0x3d8e8889	0.06959636
134	0xbd498def	-0.049207624
135	0xbcfc7af6	-0.030820351
136	0xbd0c7cea	-0.034298815
137	0xbd3a4a23	-0.04548086
138	0x3da66016	0.08123796
139	0xbc04d66b	-0.008107762
140	0xbada9f38	-0.0016679531
141	0x3de6d1f1	0.11270512
142	0x3ddd857b	0.10816475
143	0x3da73208	0.081638396
144	0x3caac47a	0.02084564
145	0xbd3cbae1	-0.04607666
146	0xbdb74e04	-0.08950427
147	0x3d217265	0.039415736
148	0x3c90798e	0.017636087
149	0x3d3036bf	0.04302096
150	0x3d7c6383	0.06161834
151	0x3c069045	0.0082131075
152	0xbd2eb2ff	-0.042651173
153	0x3e152385	0.14564331
154	0xbd44d1c6	-0.048051618
155	0x3d393ef4	0.045226052
156	0x3c5d861f	0.0135207465
157	0xbd06318b	-0.03276209
158	0x3db361c6	0.08758883
159	0x3d46371d	0.048392404
160	0xbe0d5b28	-0.13804305
161	0x3da38f9c	0.07986376
162	0x3e142cc8	0.14470208
163	0x3d00a36e	0.03140586
164	0x3d826df4	0.06368628
165	0xbd79822d	-0.06091516
166	0xbe154ab5	-0.1457928
167	0x3de3ab1a	0.111166194
168	0x3c0209c1	0.007936896
169	0xbe1160e7	-0.14197122
170	0xbd3506a2	-0.04419578
171	0x3cb05d28	0.021528795
172	0x3d84d261	0.06485439
173	0xbd767c3e	-0.06017708
174	0xbd7cb251	-0.061693493
175	0xbd7543a1	-0.05987895
176	0xbd4a4ecb	-0.04939155
177	0x3cc2d585	0.023783455
178	0xbdddcedb	-0.1083047
179	0x3d801b4d	0.06255207
180	0x3d6695b2	0.056295104
181	0xbcd6568f	-0.026164321
182	0x3d8cbaf6	0.068715975
183	0xbca4e423	-0.020128315
184	0x3d57b40e	0.052661948
185	0xbd266746	-0.040625833
186	0xbc1b35e3	-0.009473297
187	0x3db03da6	0.086055085
188	0xbdd0b7b8	-0.101912916
189	0x3ce971fa	0.028496731
190	0x3c8ce746	0.017200124
191	0xbcb9e13a	-0.022690404
192	0xbda7c8cf	-0.08192598
193	0x3b220914	0.002472465
194	0xbd1c405d	-0.03814732
195	0xbd4161ff	-0.047212597
196	0xbcb140ff	-0.021637438
197	0x3db841da	0.08996935
198	0x3c1a1c5a	0.009406174
199	0xbd10efa6	-0.035384797
200	0x3d934e26	0.0719264
201	0xbd714c2d	-0.058910538
202	0x3e072455	0.13197453
203	0x3d1e6d90	0.038678706
204	0xbc839bc7	-0.016065491
205	0xbe0ef0cf	-0.13959049
206	0xbd3f4bea	-0.046703257
207	0x3dba1fec	0.0908812
208	0xbd357da3	-0.04430927
209	0xbc452950	-0.012033775
210	0x3ce8e479	0.028429257
211	0x37fda747	3.0237845e-05
212	0x3d2d1995	0.042260725
213	0x3d95c650	0.07313216
214	0x3dd76585	0.1051741
215	0x3e06458d	0.13112469
216	0x3dd4e6f9	0.10395617
217	0xbd041bf4	-0.03225322
218	0x3d216dd4	0.03941138
219	0xbdb087c2	-0.08619644
220	0x3dac9c1b	0.08428212
221	0x3c6b52b0	0.014362976
222	0xbdd6a979	-0.10481543
223	0xbd06aeb5	-0.032881457
224	0x3d75624c	0.059908196
225	0xbb02a25c	-0.00199332
226	0x3e01d192	0.12677601
227	0xbd5fc651	-0.05463249
228	0x3dad2bbe	0.08455609
229	0xbd6099b6	-0.05483409
230	0x3bd7317a	0.0065671774
231	0x3cf323f0	0.029680222
232	0x3dba76d9	0.091047
233	0x3d94cdf4	0.07265845
234	0xbc2696f1	-0.010167823
235	0x3ce5048e	0.027956273
236	0xbd2c0085	-0.041992683
237	0x3db1c7b2	0.08680667
238	0x3e01a0e0	0.12659025
239	0x39a422a4	0.00031306327
240	0xbd70fbb5	-0.058833797
241	0x3dcbeb95	0.09957043
242	0x3d8e57b5	0.069503225
243	0xbcfa2e72	-0.030539725
244	0xbc860fa3	-0.016364878
245	0x3dead6b7	0.11466735
246	0xbd8d9284	-0.06912711
247	0x3dc27c38	0.09496349
248	0xbc813498	-0.015772149
249	0x3bddf152	0.0067731524
250	0xbd9b81e1	-0.07593132
251	0xbd898fbb	-0.067168675
252	0x3c8ab2a6	0.01693089
253	0x3e124752	0.14285019
254	0xbd226dd5	-0.039655525
255	0xbd900c80	-0.07033634

bias f4 [84]
0	0xbc555ee3	-0.013023111
1	0x3c2a373e	0.010389147
2	0xbd2d7a12	-0.042352743
3	0xbdcd4283	-0.10022452
4	0x3d1d70cb	0.038437646
5	0x3d2cf08a	0.042221583
6	0x3d411ea7	0.047148373
7	0x3c8caa24	0.017170973
8	0xbdc95138	-0.09829944
9	0xbdbb4f2a	-0.09145959
10	0x3da41227	0.08011275
11	0x3b5f5d53	0.0034082725
12	0x3b5c4b73	0.0033614307
13	0xbde18992	-0.110125676
14	0xbdb38c9f	-0.08767056
15	0x3e0e760c	0.13912219
16	0x3df4bcc3	0.11950066
17	0xbd32b00d	-0.043624926
18	0x3d198220	0.037477612
19	0x3d53945f	0.05165517
20	0xbd8f67c3	-0.07002213
21	0x3d802e85	0.06258873
22	0x3d5f837b	0.05456875
23	0xbd84a3bd	-0.06476543
24	0x3dcc0cdd	0.09963391
25	0x3d5b9c67	0.053615954
26	0xbc46f661	-0.012143702
27	0x3b79d43a	0.0038120882
28	0xbce3df59	-0.027816461
29	0x3d76f311	0.0602904
30	0xbd071a48	-0.032984048
31	0xbd63da2c	-0.055627987
32	0x3dbf4c2e	0.09340702
33	0x3d8ff2fb	0.07028767
34	0xbd7df0a3	-0.061997067
35	0x3de02a93	0.109456204
36	0x3c4eeb98	0.012629412
37	0x3bd88135	0.0066071996
38	0x3d984072	0.07434167
39	0xbd73e82b	-0.059547585
40	0x3db1b311	0.08676732
41	0x3bc974a5	0.0061479383
42	0x3bb2318a	0.0054380344
43	0x3b0a3c40	0.002109304
44	0xbbe201fd	-0.0068972097
45	0x3c186d97	0.009303472
46	0x3d78d03e	0.06074547
47	0xbd5338e4	-0.051567927
48	0x3d688c1b	0.05677424
49	0xbd2c04fd	-0.041996945
50	0x3d732525	0.059361596
51	0xbb11eda6	-0.0022266894
52	0xbd827753	-0.063704155
53	0x3da7c7c4	0.08192399
54	0xbcab31f6	-0.020897847
55	0xbd8446d6	-0.064588234
56	0x3d9e6c5a	0.0773551
57	0xbd9dfc59	-0.07714147
58	0xbdb7d3f5	-0.089759745
59	0x3df0efe5	0.11764506
60	0x3df00665	0.1171997
61	0xbbf8255c	-0.007572813
62	0x3d71c54d	0.05902605
63	0x3d5a17c3	0.053245317
64	0x3da76037	0.081726484
65	0xbdd082d0	-0.101812005
66	0x3df257ec	0.11833176
67	0xbd3ac91b	-0.045601945
68	0x3d48d895	0.049034674
69	0x3d2a7631	0.041616622
70	0xbd15fec5	-0.03661992
71	0x3dfeb372	0.1243657
72	0xbd83f305	-0.06442837
73	0x3d1ff8ed	0.039055753
74	0xbd549c3f	-0.05190682
75	0xbd93d657	-0.072186165
76	0x3d8a8686	0.067639396
77	0x3b9d4409	0.00479937
78	0x3d46878f	0.048469122
79	0xbd439b69	-0.047755633
80	0xbd3d49b9	-0.046212886
81	0x3d102d25	0.035199303
82	0x3c69bab4	0.014265705
83	0x3cea321f	0.028588353

weight f4 [10, 84]
0	0x3dca8dd8	0.09890336
1	0x3c0eea7e	0.0087228995
2	0xbe08d46e	-0.13362285
3	0xbbfca0fe	-0.0077096215
4	0xbe0c3d98	-0.13695371
5	0xbdd7cce8	-0.1053713
6	0x3e1928b6	0.14956936
7	0x3cecd208	0.028908744
8	0xbd04a272	-0.032381482
9	0x3d9df470	0.077126384
10	0x3d1fc1f8	0.039003342
11	0xbdca182b	-0.09867891
12	0x3d73f827	0.05956283
13	0xbdae439c	-0.08508989
14	0xbe38e53f	-0.180562
15	0x3e260cb0	0.16215777
16	0xbe1b5cee	-0.15172169
17	0xbe23036b	-0.15919273
18	0x3e0fbc2f	0.1403663
19	0x3e37debf	0.17956065
20	0x3de085ae	0.109629974
21	0x3d57006d	0.05249064
22	0x3c798175	0.015228619
23	0xbd53adfa	-0.05167959
24	0xbd8756c5	-0.06608347
25	0xbe16b90d	-0.14719029
26	0x3dbe7a41	0.09300662
27	0xbe044abb	-0.12919132
28	0xbbf7fa57	-0.0075676846
29	0xbde74600	-0.11292648
30	0x3d1b70d8	0.037949413
31	0xbd7f06c1	-0.0622623
32	0xbdfcb12f	-0.123384826
33	0xbd602634	-0.054723933
34	0x3d164eef	0.03669637
35	0xbcbbc154	-0.022919334
36	0x3dc422f7	0.095769815
37	0x3d614847	0.05500057
38	0xbbfcaac1	-0.007710785
39	0xbe4d0683	-0.20022015
40	0x3cac6894	0.02104596
41	0x3bd03c14	0.006354818
42	0xbe2038e1	-0.15646698
43	0x3d48c227	0.049013283
44	0x3b8d538d	0.0043129385
45	0xbcda92a6	-0.026681256
46	0x3db41000	0.08792114
47	0x3dd74606	0.10511403
48	0xbc2a4725	-0.010392939
49	0x3d65623b	0.056001883
50	0x3d66306f	0.056198534
51	0xbde91348	-0.11380631
52	0xbcde18da	-0.02711146
53	0xbdf47078	-0.11935514
54	0xbe4ba4c5	-0.19887073
55	0xbd43189a	-0.047630884
56	0xbbc46981	-0.0059940224
57	0xbe02199f	-0.12705086
58	0xbd032943	-0.032021772
59	0xbdd82e48	-0.105557024
60	0x3d855aa1	0.06511427
61	0x3d6407ce	0.055671506
62	0x3db60683	0.08887961
63	0xbe087f62	-0.13329843
64	0x3e0c4caf	0.13701127
65	0xbd2d5676	-0.042318784
66	0x3e080f1a	0.13287011
67	0xbcee51b0	-0.029091686
68	0xbe3d2afb	-0.18473427
69	0x3cde7264	0.027154155
70	0xbdf2e66a	-0.11860354
71	0x3da55080	0.08071995
72	0xbd8922aa	-0.06696065
73	0x3dbdcad9	0.09267206
74	0xbdc5fa49	-0.09666879
75	0xbdf2c7a1	-0.118544824
76	0x3e068b7f	0.13139151
77	0x3e085210	0.13312554
78	0xbe13ace4	-0.14421421
79	0xbc0abc52	-0.008467751
80	0x3cc9a3ac	0.024614178
81	0xbddf59b2	-0.1090578
82	0xbc6cdf67	-0.01445756
83	0x3d6e567f	0.058187958
84	0xbd72dd77	-0.059293237
85	0xbe543147	-0.20721923
86	0x3d2be683	0.04196788
87	0xbd946852	-0.0724646
88	0x3d8596ea	0.06522925
89	0x3d43fc65	0.047848124
90	0xbc87f232	-0.01659498
91	0xbdaa2f4e	-0.08309804
92	0xbd574c1d	-0.05256282
93	0xbdca8b9d	-0.0988991
94	0x3e52b37b	0.20576279
95	0x3d96a8df	0.07356428
96	0xbd96e2b4	-0.07367459
97	0xbe403525	-0.18770273
98	0x3e06550c	0.1311838
99	0x3dfa7d2d	0.12230907
100	0x3e262b2d	0.16227408
101	0xbe01741f	-0.12641953
102	0xbd96747f	-0.073464386
103	0x3e03726e	0.1283662
104	0xbdc65760	-0.09684634
105	0x3d9400df	0.07226729
106	0x3cb102f4	0.021607853
107	0xbcb376e1	-0.021907272
108	0x3c03bf72	0.00804125
109	0xbe086e72	-0.13323382
110	0x3c8e92ea	0.017404038
111	0xbcc35b9d	-0.023847396
112	0x3ca020d8	0.019546911
113	0x3b35ad04	0.0027721534
114	0x3cdda488	0.027055994
115	0x3c48cd78	0.012256019
116	0xbe1d7d9a	-0.15379944
117	0x3d000ad4	0.031260327
118	0x3d12f860	0.0358814
119	0x3d8ed6f5	0.069745935
120	0xbe1b0331	-0.15137936
121	0x3ccaedce	0.024771597
122	0x3de09795	0.10966412
123	0x3dd255f2	0.10270299
124	0x3e194951	0.14969374
125	0x3db0247e	0.0860071
126	0xbd1d9772	-0.038474508
127	0x3db18b16	0.08669107
128	0xbd954749	-0.07288987
129	0xbbd73271	-0.0065672924
130	0x3e10bf22	0.14135411
131	0xbe50f57e	-0.20406148
132	0x3da8e9b0	0.08247697
133	0xbdc8ed6d	-0.098109104
134	0xbe2af0ff	-0.16693495
135	0xbda39d1a	-0.07988949
136	0xbdf8879e	-0.12135242
137	0x3e26dc4d	0.16294976
138	0x3d9ccb41	0.07655955
139	0x3caeab76	0.021321993
140	0xbc056818	-0.008142494
141	0xbd862055	-0.065491356
142	0xbdd3b78a	-0.10337742
143	0x3e46f2c9	0.19428553
144	0x3e024ea5	0.12725313
145	0xbdbae2d7	-0.091252975
146	0xbe003b33	-0.12522583
147	0x3dc07a8a	0.093983725
148	0xbd55403b	-0.052063208
149	0x3d7b48cd	0.061348725
150	0xbe48fc20	-0.19627428
151	0x3d2e8cb1	0.042614643
152	0x3cdeccdd	0.027197296
153	0xbe39f5a2	-0.18160108
154	0xbc06f8d2	-0.008238034
155	0xbc84320f	-0.016137151
156	0x3da3f133	0.080049895
157	0xbd230150	-0.039796174
158	0x3cfa0ed0	0.030524641
159	0x3d313946	0.04326751
160	0xbe067b41	-0.13132955
161	0x3c23cdda	0.009997809
162	0xbc611321	-0.013737471
163	0xbdf000ce	-0.117189035
164	0x3cc63b94	0.024198331
165	0xbd8e348e	-0.06943618
166	0xbd5d9a18	-0.054102033
167	0x3e03c7cf	0.1286919
168	0x3bc825ee	0.006108037
169	0x3db96921	0.09053255
170	0xbd06e5d8	-0.03293404
171	0xbc279196	-0.0102275815
172	0xbe1ffbed	-0.15623446
173	0xbcff99d8	-0.031201288
174	0x3e2131e8	0.15741694
175	0x3dfa1165	0.12210349
176	0x3bc32aea	0.0059560435
177	0x3dbcb835	0.09214822
178	0xbe6a57ae	-0.2288501
179	0xbe743332	-0.23847654
180	0xbdd91a13	-0.106006764
181	0xbdaf117e	-0.08548258
182	0x3e2af328	0.16694319
183	0xbe44f420	-0.19233751
184	0xbdbcd056	-0.092194244
185	0xbd8e43a2	-0.06946494
186	0x3e370eb7	0.17876707
187	0xbc0d38f4	-0.008619536
188	0xbb8679c3	-0.0041038706
189	0x3d3f141f	0.04665005
190	0xbdf5aec4	-0.119962245
191	0x3dc64ec5	0.09682993
192	0xbe0f042e	-0.13966438
193	0xbe0fe8b8	-0.14053619
194	0xbd684ef9	-0.05671594
195	0xbe3496ed	-0.17635699
196	0x3daba896	0.083817646
197	0xbd475f9d	-0.04867517
198	0xbd852273	-0.06500711
199	0x3de6e7d6	0.11274688
200	0x3adfbe1a	0.0017070204
201	0xbe10ebc1	-0.14152433
202	0x3db4d1f4	0.08829108
203	0x3d7c1df2	0.061551996
204	0x3e0f53ce	0.13996813
205	0xbdb34704	-0.087537795
206	0x3d2859c5	0.041101236
207	0xbd08d166	-0.033402823
208	0xbd5f1f85	-0.05447342
209	0x3cfb1695	0.030650416
210	0xbde93a52	-0.11388077
211	0x3cc7d366	0.024392795
212	0x3cdbe52f	0.026842682
213	0xbdcbe37b	-0.09955498
214	0xbd127672	-0.03575749
215	0xbd5d5013	-0.054031443
216	0x3e1b9d59	0.15196742
217	0x3dc7dd4d	0.09759007
218	0x3d9beb97	0.076132946
219	0xbcc20005	-0.02368165
220	0xbd54cb46	-0.05195167
221	0x3d7cc9e3	0.06171597
222	0xbb9f20c2	-0.0048562
223	0xbdaeeb00	-0.085409164
224	0x3e0c2ee8	0.13689768
225	0x3abb6524	0.001429711
226	0xbd941456	-0.07230441
227	0xbd863418	-0.06552905
228	0x3d6863b9	0.056735728
229	0xbdea22c9	-0.11432416
230	0x3ded69cf	0.11592447
231	0xbdeb04bb	-0.11475512
232	0xbded16f8	-0.115766466
233	0x3cb38fe3	0.021919196
234	0xbdbd7109	-0.09250075
235	0x3e171001	0.14752199
236	0x3dee99df	0.11650442
237	0xbd8a743d	-0.06760452
238	0x3ccd8f5c	0.025092773
239	0xbe159f5a	-0.14611569
240	0x3e0fb8ae	0.14035293
241	0x3e216218	0.15760076
242	0xbd3408b6	-0.04395362
243	0x3be46c45	0.0069709145
244	0xbd9f9f2f	-0.07794034
245	0x3d22a97d	0.039712418
246	0xbd2ba5a5	-0.041906018
247	0x3daae8d0	0.08345187
248	0x3d055fee	0.03256219
249	0x3dde2065	0.108460225
250	0xbe4a8b1f	-0.19779633
251	0xbd568a41	-0.052377943
252	0x3d44f136	0.0480816
253	0xbdaeeac5	-0.085408725
254	0x3e1c3c49	0.15257372
255	0xbd974d68	-0.07387811

bias f4 [10]
0	0x3dcdd1d4	0.10049787
1	0x3d1bf362	0.038073905
2	0xbdaba3b9	-0.08380837
3	0xbb84f7a3	-0.004057841
4	0x3c52c3bb	0.012864049
5	0x3c0db843	0.008649888
6	0xbd5c8f44	-0.053847566
7	0x3c98f91e	0.018673476
8	0x3ce133d6	0.027490538
9	0x3bdd066c	0.0067451503
